model/best-RNN.pth (torch, 34055 bytes, 16 tensors)

rnn.weight_ih_l0 f4 [32, 8]
0	0xbe12e81a	-0.14346352
1	0xbd8826f8	-0.06648058
2	0x3e0249e8	0.12723505
3	0xbda4dd7b	-0.080500565
4	0xbc9b6b5b	-0.01897209
5	0x3e0706ba	0.1318616
6	0x3c09f6a5	0.008420621
7	0x3e260f53	0.16216783
8	0x3c2c4a01	0.010515691
9	0xbdd6912f	-0.1047691
10	0xbdc12c9f	-0.09432339
11	0xbcd55bd0	-0.026044756
12	0x3d066bbb	0.032817584
13	0x3ddd08b4	0.107926756
14	0x3e0685cb	0.13136975
15	0xbe4be51d	-0.19911619
16	0x3e0b12b1	0.13581349
17	0xbb1ab5fb	-0.0023607004
18	0xbc7cbd97	-0.015426061
19	0xbbe26500	-0.006909013
20	0x3d488ee1	0.048964385
21	0xbd87ffae	-0.06640564
22	0x3a6844e2	0.0008860362
23	0x3d10c8f8	0.03534791
24	0xbde5d725	-0.11222676
25	0xbe1dfac0	-0.15427685
26	0xbe1bdbdf	-0.15220593
27	0xbdcdc799	-0.10047836
28	0xbdbc5c69	-0.09197313
29	0x3df83177	0.1211881
30	0x3ddda646	0.1082273
31	0x3d8c7c35	0.06859628
32	0x3c855cb7	0.016279561
33	0xbd0539ca	-0.032525815
34	0x3d8cd42f	0.06876408
35	0xbe08a508	-0.13344204
36	0x3c1fd893	0.009756225
37	0xbd0ebc65	-0.034847636
38	0xbd8fe9a8	-0.07026988
39	0x3de358e1	0.11100937
40	0xbd81e5f8	-0.06342691
41	0xbde578a1	-0.11204649
42	0x3c96f8a3	0.018429106
43	0x3d4c0834	0.04981251
44	0x3e1bc006	0.1520997
45	0x3d57dc1f	0.05270016
46	0xbdc976f3	-0.09837141
47	0xbd7c3a51	-0.061579052
48	0x3d017917	0.03160962
49	0xbe04a168	-0.12952197
50	0x3d044672	0.032293744
51	0x3d3b99fc	0.045801148
52	0x3d81c851	0.063370354
53	0xbbbfffca	-0.00585935
54	0x3e697aae	0.22800705
55	0x3ddbfc47	0.107414775
56	0xbd3c0373	-0.045901727
57	0x3ce28954	0.027653374
58	0x3c8ad71c	0.016948275
59	0x3e189317	0.1489986
60	0xbdd75210	-0.10513699
61	0xbdddb1e5	-0.10824946
62	0x3e381609	0.17977156
63	0xbe5d4b28	-0.21610701
64	0x3e17a5f6	0.14809403
65	0xbd929cb8	-0.07158798
66	0xbd58e832	-0.052955814
67	0xbd60c0d0	-0.05487138
68	0xbe02e53e	-0.12782761
69	0x3de5a8c7	0.11213832
70	0xbd0466da	-0.03232465
71	0x3e288824	0.16458184
72	0x3de1d990	0.11027825
73	0xbe341699	-0.17586745
74	0x3e0f4af2	0.13993433
75	0x3e0cb963	0.13742594
76	0x3e05e495	0.13075478
77	0x3d7b48c8	0.061348706
78	0xbbab24c7	-0.00522289
79	0x3c286271	0.0102773765
80	0xbdc2aeae	-0.09505974
81	0xbccbc355	-0.024873415
82	0xbd1cbea5	-0.03826775
83	0xbe094334	-0.13404542
84	0xbd06fb15	-0.032954294
85	0x3dac75a4	0.08420876
86	0xbc8fc537	-0.017550094
87	0x3e42e577	0.19032846
88	0x3e0a2b5c	0.13493103
89	0x3d8256e9	0.06364233
90	0x3c2b7e0c	0.010467064
91	0xbdad4d01	-0.08461953
92	0xbe394e52	-0.18096283
93	0x3d8ed4a8	0.06974155
94	0x3e0b3cc0	0.13597393
95	0xbbf4107c	-0.007448254
96	0xbdfe48fa	-0.12416263
97	0x3e061135	0.13092501
98	0xbdac62f1	-0.08417309
99	0x3dea51aa	0.114413574
100	0xbdffd7b2	-0.124923125
101	0xbdb38d00	-0.08767128
102	0x3e5ec5dc	0.21755165
103	0xbe01e7e5	-0.12686117
104	0xbb343121	-0.0027495103
105	0xbd9062b6	-0.070500776
106	0xbda14dac	-0.07876143
107	0x3db32806	0.08747868
108	0xbd825fab	-0.063659035
109	0xbdfb38ce	-0.12266694
110	0x3e5c2a35	0.21500476
111	0xbc4ee51c	-0.012627866
112	0xbdd2f0d2	-0.10299839
113	0x3d542d1c	0.051800832
114	0x3d455311	0.04817492
115	0xbe30ad99	-0.17253722
116	0x3d91d593	0.07120814
117	0x3e0316ed	0.12801714
118	0x3da43667	0.08018189
119	0x3dd497ea	0.10380538
120	0xbd4d70dd	-0.050156463
121	0x3dd2eca7	0.10299044
122	0xbd4c781a	-0.049919225
123	0xbe0a5684	-0.13509566
124	0x3de05fd9	0.109557815
125	0x3d4d51d0	0.05012685
126	0xbe1732e6	-0.1476551
127	0xbdb8689d	-0.090043284
128	0x3e0e2125	0.13879831
129	0xbc0bbc3e	-0.008528767
130	0x3e03238e	0.12806532
131	0xbddde8bd	-0.10835407
132	0x3c629443	0.013829294
133	0x3df0efdf	0.11764502
134	0xbdf859d2	-0.12126507
135	0xbdf58fac	-0.11990294
136	0xbc62e999	-0.013849639
137	0xbdb00296	-0.08594243
138	0x3e0f5098	0.13995588
139	0x3cc0a230	0.023514837
140	0x3e25f1b1	0.16205479
141	0xbda92aa7	-0.082600884
142	0x3c8460f0	0.016159505
143	0x3e163ba5	0.1467119
144	0x3d2201b7	0.039552417
145	0x3e44c235	0.19214709
146	0xbda08447	-0.0783773
147	0x3b5ef940	0.0034023076
148	0xbd71ad9c	-0.059003457
149	0xbd8a074c	-0.06739673
150	0xbcac7670	-0.02105257
151	0xbe19af3b	-0.15008251
152	0xbdc146f4	-0.09437361
153	0x3d90cc83	0.070702575
154	0xbd21ef01	-0.039534573
155	0x3d5b7f54	0.053588226
156	0x3c6111a9	0.013737121
157	0xbd6a5c0d	-0.057216693
158	0xbe84ce1a	-0.25938493
159	0x3e09a98f	0.13443588
160	0x3dd7368b	0.1050845
161	0xbc8c43e7	-0.017122222
162	0xbdbb6bdf	-0.09151434
163	0xbd81be08	-0.06335074
164	0x3dac6d7a	0.084193185
165	0xbe29b116	-0.16571459
166	0xbda089af	-0.07838761
167	0xbe155326	-0.145825
168	0xbd87d283	-0.06631949
169	0x3e10fca8	0.1415888
170	0xbc553e9f	-0.013015418
171	0xbda17c9f	-0.07885098
172	0xbd7533cb	-0.059863847
173	0x3df194de	0.11795972
174	0xbe7d4dcb	-0.24736707
175	0x3e548ab2	0.20756033
176	0x3dbeb814	0.09312454
177	0x3e289e88	0.16466725
178	0xbe10f0c1	-0.1415434
179	0xbd1a247c	-0.03763245
180	0xbe1bdbad	-0.15220518
181	0x3d38aae4	0.04508485
182	0x3be392ee	0.0069450056
183	0xbd9ce1b1	-0.07660235
184	0x3d26d34a	0.040728845
185	0x3d7492d0	0.059710324
186	0xbdeb0e3a	-0.11477323
187	0x3ca18f78	0.019721732
188	0x3ab3a1fa	0.0013704889
189	0x3d9be9d8	0.076129615
190	0xbe338679	-0.17531766
191	0x3e2bd88a	0.16781822
192	0x3e075bc8	0.13218606
193	0xbd992526	-0.074777886
194	0xbe2bd31c	-0.1677975
195	0x3dc5c3aa	0.096564606
196	0xbdb08718	-0.08619517
197	0xbdeefb61	-0.116690405
198	0x3e049ef2	0.12951258
199	0xbe6a8f63	-0.2290626
200	0xbc822ef6	-0.015891533
201	0xbe0e2812	-0.13882473
202	0x3c4e5a74	0.012594808
203	0xbc5ac310	-0.013352171
204	0xbc4adff4	-0.012382496
205	0xbcca92bf	-0.024728177
206	0x3e31e277	0.17371546
207	0xbcc00a6d	-0.023442471
208	0xbe078683	-0.13234906
209	0x3e2d7137	0.1693772
210	0x3d7819ca	0.06057147
211	0x3e2fbf4f	0.17162822
212	0xbd853273	-0.06503763
213	0x3e25aa7e	0.16178319
214	0x3e0f6243	0.14002328
215	0x3dfe8717	0.1242811
216	0x3e0fad0f	0.1403086
217	0xbd031004	-0.031997696
218	0x3e0146b8	0.12624633
219	0x3e32ebff	0.17472838
220	0xbd83d6e9	-0.06437475
221	0xbe3bdbdf	-0.18345593
222	0xbd528a0c	-0.051401183
223	0x3d438c05	0.047740955
224	0x3d1bb24f	0.038011845
225	0xbdb0ce5f	-0.08633112
226	0xbe0a68d6	-0.13516554
227	0xbdaafb67	-0.083487324
228	0x3d73073c	0.05933307
229	0xbcaf51b8	-0.021401271
230	0xbe083a3e	-0.13303468
231	0xbe0493ad	-0.12946959
232	0x3bb1a689	0.005421464
233	0x3e0cd83f	0.13754366
234	0xbcfd316f	-0.03090736
235	0xbd9bd373	-0.0760869
236	0xbcabff2c	-0.020995699
237	0xba8f149e	-0.0010916179
238	0xbd07ac5b	-0.033123355
239	0x3d462c0f	0.04838186
240	0xbdf6b8fc	-0.12047002
241	0xbd173a15	-0.036920626
242	0xbdbf3088	-0.093354285
243	0x3d0482ac	0.03235118
244	0xbe3128eb	-0.17300765
245	0x3dccb242	0.099949375
246	0x3d8be7e2	0.068313375
247	0x3d92a586	0.07160477
248	0x3df4c21f	0.11951088
249	0x3e053343	0.13007836
250	0xbe19b9f1	-0.15012337
251	0x3dbb1582	0.09134962
252	0xbc9a5f99	-0.018844413
253	0x3e441c90	0.1915152
254	0xbe1824f1	-0.14857842
255	0x3e0e14d1	0.13875128

rnn.weight_hh_l0 f4 [32, 32]
0	0x3e16aff0	0.14715552
1	0xbb1f4625	-0.0024303284
2	0x3d29b99d	0.04143678
3	0xbe174fc1	-0.14776517
4	0x3e4cbb9f	0.19993447
5	0xbd7daba1	-0.061931256
6	0xbdc9d0b8	-0.09854263
7	0x3dd84a11	0.10561002
8	0x3d14590b	0.03621773
9	0x3df60fb3	0.12014713
10	0xbe155a77	-0.14585291
11	0x3e437aab	0.19089763
12	0xbda72f39	-0.08163304
13	0xbdf50f34	-0.119657904
14	0xbdc5bdd9	-0.09655351
15	0x3e0a9b41	0.13535787
16	0x3d2680bf	0.040650126
17	0x3dcb8c18	0.0993883
18	0x3d04f2da	0.032458164
19	0xbd1423ea	-0.036167063
20	0x3db90e3f	0.0903592
21	0x3cfe02cf	0.031007199
22	0xbd4d9aec	-0.050196573
23	0x3e3ebf56	0.18627676
24	0x3dba65dd	0.0910146
25	0x3e09d8a2	0.13461545
26	0xbe21d0f2	-0.15802363
27	0xbe1ff172	-0.15619448
28	0x3dfdd9d2	0.123950616
29	0xbba3b628	-0.00499608
30	0xbddf6d3a	-0.10909505
31	0xbe0269ed	-0.1273572
32	0x3c8480c8	0.016174689
33	0x3e1dae43	0.15398507
34	0x3e24f721	0.16109897
35	0x3df26979	0.118365236
36	0x3e116d37	0.14201818
37	0x3cdefb5c	0.027219467
38	0x3e758b38	0.23978889
39	0xbd510f7c	-0.051040158
40	0x3dcdf2d7	0.10056084
41	0xbe231056	-0.159242
42	0xbe170e0b	-0.1475145
43	0x3d967e64	0.07348326
44	0x3e242f25	0.16033609
45	0x3d2f993c	0.042870745
46	0x3d1d955b	0.038472515
47	0xbd865946	-0.06559996
48	0xbdeb0cee	-0.114770755
49	0x3e1f9ec9	0.15587915
50	0x3ca8a9e4	0.020588823
51	0xbe36e6eb	-0.17861526
52	0xbc471c60	-0.012152761
53	0xbbc09dc4	-0.005878182
54	0x3e41713c	0.18890852
55	0x3da7b8cb	0.08189543
56	0x3d8fb224	0.070163995
57	0x3dfabb2a	0.1224273
58	0x3d7a1702	0.0610571
59	0xbd6b00c4	-0.057373777
60	0xbd8b1a5c	-0.06792137
61	0x3df494fe	0.119424805
62	0xbe5107f4	-0.2041319
63	0x3e14e7db	0.14541571
64	0xbe32f735	-0.17477114
65	0xbde4728d	-0.11154661
66	0xbe19f4f1	-0.15034844
67	0x3d4a4d57	0.049390163
68	0x3dd46d22	0.10372378
69	0xbe10985a	-0.14120618
70	0x3db3f481	0.0878687
71	0xbd629cf4	-0.055325463
72	0xbca2b3d0	-0.019861132
73	0x3e055a5c	0.1302275
74	0x3d8028b1	0.06257761
75	0x3ccacb68	0.024755195
76	0x3e35cf90	0.1775496
77	0x3e2f8205	0.17139442
78	0xbd5d21b1	-0.05398721
79	0xbe56bc40	-0.20970249
80	0xbc874813	-0.01651386
81	0xbdf852e9	-0.12125189
82	0xbc20e776	-0.00982081
83	0xbdedbb4a	-0.11607988
84	0xbd831e7e	-0.064023
85	0xbe36a626	-0.17836818
86	0xbd240775	-0.040046174
87	0xbd71eec8	-0.05906561
88	0x3c1ccdd2	0.009570556
89	0x3e34e74c	0.17666358
90	0x3dca6412	0.09882368
91	0x3dc0aa3f	0.09407472
92	0x3d935eea	0.07195838
93	0xbd7e34b6	-0.062061988
94	0xbd080684	-0.03320934
95	0xbd41c659	-0.0473083
96	0xbda80882	-0.08204748
97	0x3e0c771f	0.13717316
98	0x3e33d793	0.17562704
99	0x3de38e89	0.11111171
100	0xbc31fbfe	-0.010863302
101	0x3e0b97a8	0.13632071
102	0x3e383ced	0.17991991
103	0xbc93f0e5	-0.018059203
104	0xbd41be0c	-0.047300383
105	0xbd79d7c3	-0.060996782
106	0xbd097447	-0.033558156
107	0x3de0db09	0.10979278
108	0x3e3ab7cb	0.18234174
109	0x3d31ade7	0.043378737
110	0xbd2f40ed	-0.042786527
111	0xbda27091	-0.079316266
112	0xbe229c08	-0.15879834
113	0x3d6bbd85	0.057553787
114	0xbe190172	-0.14941958
115	0x3df2ceab	0.11855825
116	0x3e0b56a0	0.13607264
117	0x3cfa4a2b	0.030552944
118	0x3df3087a	0.11866851
119	0x3d9f4dc5	0.07778505
120	0x3e690b72	0.22758272
121	0x3d221b3d	0.039576758
122	0xbe15c6d7	-0.14626633
123	0x3e474fe8	0.19464076
124	0xbe0b6f64	-0.13616711
125	0xbe1d8048	-0.15380967
126	0x3df1655a	0.117869094
127	0xbe0e6413	-0.13905363
128	0x3dd24df0	0.10268772
129	0xbcefa7cb	-0.029254815
130	0x3cadad7d	0.02120089
131	0x3e49c447	0.1970378
132	0x3c6a2a8d	0.014292371
133	0x3e0f66b6	0.14004025
134	0xbdec7711	-0.115461476
135	0x3b85f359	0.004087847
136	0x3e205c0f	0.15660118
137	0x3e0b7210	0.1361773
138	0x3d4e834b	0.05041818
139	0x3df0c8c0	0.1175704
140	0x3dec39de	0.11534475
141	0xbe20da20	-0.15708208
142	0x3e2d1128	0.16901076
143	0xbca24cf3	-0.019812083
144	0xbd954bbc	-0.07289836
145	0x3e1d51aa	0.15363184
146	0xbe3453ee	-0.17610142
147	0x3cd00058	0.025390789
148	0xbc9073f2	-0.017633412
149	0x3c473060	0.01215753
150	0xbd72f8b9	-0.05931923
151	0xbdc9f8a2	-0.09861876
152	0xbe25531b	-0.16144983
153	0xbdf02029	-0.11724884
154	0x3db50dfe	0.088405594
155	0x3dcee47f	0.10102176
156	0xbdc0c377	-0.09412282
157	0x39cc3832	0.0003895178
158	0xbd6bbdd8	-0.057554096
159	0x3e30cffc	0.1726684
160	0x3e11a729	0.14223923
161	0xbbe91e8c	-0.007114237
162	0xbceb6ecb	-0.028739354
163	0x3d728577	0.059209313
164	0x3d0261d2	0.03183157
165	0x3c7d4637	0.015458635
166	0x3dc42979	0.09578223
167	0xbe0234e7	-0.12715493
168	0x3dfb4a1e	0.12269996
169	0x3de99833	0.11405983
170	0x3dcda9d8	0.10042161
171	0xbd6c98bd	-0.05776285
172	0xbe0ad84c	-0.13559073
173	0xbe054b78	-0.1301707
174	0x3e1f10a2	0.15533689
175	0x3d2e15cb	0.042501252
176	0x3d489ef2	0.048979707
177	0x3e1e8f3a	0.15484324
178	0xbcb3433e	-0.02188265
179	0xbde8d1fe	-0.11368178
180	0xbe3ef3fc	-0.1864776
181	0x3e0fa298	0.14026868
182	0xb95bc898	-0.00020960195
183	0x3e225093	0.15851049
184	0xbddc835c	-0.10767242
185	0x3cbbebce	0.022939589
186	0xbd40f807	-0.047111537
187	0xbe253f84	-0.1613751
188	0x3e34c395	0.17652734
189	0x3e29369d	0.1652474
190	0x3da87b20	0.08226609
191	0x3de498d1	0.1116196
192	0x3d8d1a69	0.06889803
193	0xbdd0bd41	-0.10192347
194	0xbd463544	-0.04839064
195	0xbdeaa56d	-0.11457334
196	0xbe252932	-0.16128996
197	0xbe38795f	-0.1801505
198	0x3d6abfaf	0.05731171
199	0x3e62e58e	0.2215788
200	0x3d4dcfa7	0.05024686
201	0xbc0eede7	-0.0087237125
202	0x3d029f48	0.031890184
203	0xbc59bf7b	-0.013290281
204	0x3dbfd38b	0.093665205
205	0x3e286890	0.16446137
206	0xbda9935f	-0.08280062
207	0x3e0585e5	0.13039358
208	0xbe03ef60	-0.12884283
209	0x3de564e7	0.11200886
210	0x3e4ab1d6	0.19794402
211	0xbd8cd080	-0.06875706
212	0xbe29b096	-0.16571268
213	0xbe1f1751	-0.15536238
214	0x3deaf4d8	0.114724815
215	0xbe63169f	-0.22176598
216	0x3dcc2f55	0.09969965
217	0xbccdd4cd	-0.025125885
218	0xbe384c65	-0.17997892
219	0x3e184df0	0.14873481
220	0xbe1dbd7e	-0.15404317
221	0xbe029e96	-0.12755808
222	0xbdb43d37	-0.08800738
223	0xbd390037	-0.04516622
224	0xbdc64863	-0.096817754
225	0xbd10256c	-0.03519194
226	0x3e0749c4	0.13211733
227	0x3e15aaaf	0.14615892
228	0x3ccd831e	0.025086936
229	0x3ded1a5d	0.11577294
230	0x3d5f1396	0.054462038
231	0x3c0a55db	0.008443321
232	0xbe395f3f	-0.1810274
233	0x3d84940f	0.064735524
234	0x3e1e2bde	0.15446422
235	0x3d676f24	0.056502476
236	0xbd776e9c	-0.06040822
237	0x3de91421	0.113807924
238	0x3df9e71f	0.12202286
239	0x3cb886d1	0.022525223
240	0x3db78105	0.089601554
241	0x3d9e2c1c	0.07723257
242	0x3c832e3d	0.016013259
243	0xbe5d2462	-0.2159591
244	0x3e05498e	0.1301634
245	0xbe642a1f	-0.22281693
246	0x3e287a9f	0.16453026
247	0xbbdaeee7	-0.0066813114
248	0x3c856268	0.016282275
249	0x3db4859d	0.08814547
250	0x3e2ac09f	0.16675042
251	0xbd197634	-0.037466243
252	0xbd93fd85	-0.072260894
253	0xbd6a1105	-0.057145137
254	0xbdd99680	-0.10624409
255	0xbcc3f23a	-0.023919214

rnn.bias_ih_l0 f4 [32]
0	0x3caca556	0.021074932
1	0x3dcdced4	0.10049215
2	0x3e2b1b27	0.16709577
3	0xbd3a3c08	-0.045467407
4	0x3de22220	0.11041665
5	0x3e0e4f18	0.1389736
6	0xbde2ecc4	-0.11080316
7	0x3d479b64	0.048732176
8	0x3d3d7bec	0.04626076
9	0xbe16b4bb	-0.1471738
10	0x3dbc24e9	0.091867276
11	0xbdd6d82f	-0.104904525
12	0x3d89898c	0.06715688
13	0x3dea08d8	0.11427468
14	0xbd996bb0	-0.07491243
15	0x3de7f249	0.11325509
16	0xbde203c6	-0.11035876
17	0xbe4f0524	-0.20216805
18	0xbdb1f142	-0.086885944
19	0xbcb6ca17	-0.02231316
20	0xbc1ef6fc	-0.00970244
21	0xbdde4a6f	-0.10854041
22	0xbddff729	-0.10935814
23	0x3d3b07f5	0.045661885
24	0xbdc34b5a	-0.095358565
25	0xbdb39b60	-0.0876987
26	0xbe1cd6ea	-0.15316358
27	0xbd4b33e9	-0.049610052
28	0x3de04247	0.109501414
29	0x3e19de0f	0.15026115
30	0xbcff4047	-0.03115858
31	0xbe33ca92	-0.17557743

rnn.bias_hh_l0 f4 [32]
0	0x3db7acf4	0.08968535
1	0x3df7fd76	0.12108891
2	0x3e14bc7f	0.1452503
3	0x3cbd543d	0.023111457
4	0xbcb1c7f7	-0.021701796
5	0xbc87b4cf	-0.016565708
6	0xbe05843c	-0.13038725
7	0x3da25911	0.07927144
8	0xbdd1353a	-0.1021523
9	0xbdb7ec5c	-0.08980629
10	0x3d64587d	0.05574845
11	0x3e001986	0.12509736
12	0x3e4c4bcd	0.1995079
13	0xbcaee3b7	-0.021348817
14	0x3d360170	0.044434965
15	0x3c3e2813	0.011606234
16	0x3e1de92d	0.15420981
17	0xbe512718	-0.2042507
18	0x3d5e5bdb	0.05428682
19	0x3e2eaf25	0.17059
20	0xbe0d5ba1	-0.13804485
21	0xbde1a0f7	-0.1101703
22	0x3de38d28	0.11110908
23	0x3e063b32	0.13108519
24	0x3e2e45f5	0.17018874
25	0x3cbadbe7	0.022809936
26	0x3d809896	0.062791035
27	0xbd60da8f	-0.054895934
28	0xbc9d9063	-0.019233888
29	0xbd4846c8	-0.048895627
30	0xbdc9c9dd	-0.098529555
31	0x3dfced8d	0.12349997

rnn.weight_ih_l1 f4 [32, 32]
0	0xbd10a1e9	-0.03531066
1	0xbc580a50	-0.013186052
2	0xbd942668	-0.07233888
3	0xbdb5dc9f	-0.08879971
4	0x3a9f2837	0.0012142722
5	0xbd876225	-0.066105165
6	0x3c8ff27b	0.017571678
7	0x3e47d192	0.19513538
8	0xbe116980	-0.14200401
9	0x3b375f93	0.002798055
10	0x3dd6c082	0.10485937
11	0xbddf9b0a	-0.10918243
12	0x3d1813c2	0.037128218
13	0x3e5fbb41	0.21848775
14	0x3d8936d5	0.066999115
15	0xbdb5be95	-0.08874241
16	0xbd49a921	-0.04923356
17	0x3d72fb4c	0.059321687
18	0xbe2937f6	-0.16525254
19	0xbe163412	-0.14668301
20	0x3d94c99e	0.07265018
21	0xbd8921c0	-0.066958904
22	0xbe326f80	-0.17425346
23	0x3dbbff45	0.09179548
24	0x3e2cfd6b	0.16893546
25	0x3dc90d32	0.0981697
26	0x3e3a026f	0.18164991
27	0xbe2e7703	-0.17037587
28	0x3c697cf9	0.014250987
29	0xbdcbc7f3	-0.09950247
30	0xbd244e32	-0.040113635
31	0xbd8dd785	-0.06925873
32	0xbd1fea16	-0.0390416
33	0x3cb36f8f	0.021903781
34	0x3cef8029	0.029235916
35	0xbd7d71b4	-0.061876014
36	0xbc2893dc	-0.010289159
37	0xbb718ca0	-0.00368575
38	0x3e1911fa	0.14948264
39	0xbda93e1e	-0.08263801
40	0x3d33d84c	0.04390745
41	0x3e1597af	0.14608644
42	0x3e09c5a5	0.13454302
43	0xbc877f44	-0.016540177
44	0x3db41607	0.08793264
45	0x3dee6d16	0.116419
46	0x3ded421d	0.11584876
47	0x3d928fb8	0.071563184
48	0xbd861dbc	-0.0654864
49	0xbd1147c7	-0.035468843
50	0xbc3c1612	-0.011479871
51	0xbe2520ca	-0.1612579
52	0x3d628998	0.055307
53	0xbd5d0821	-0.05396283
54	0xbe3385f0	-0.17531562
55	0xbe174b39	-0.14774789
56	0xbddee4db	-0.108834945
57	0x3de3c124	0.11120823
58	0xbdd6a673	-0.104809664
59	0xbdf7de3b	-0.12102934
60	0x3c8dd39a	0.017312814
61	0x3d1bb754	0.038016632
62	0x3e0a6a4c	0.13517112
63	0xbe0b52cc	-0.13605803
64	0x3d4bac53	0.049724888
65	0x3d4ff4a3	0.050770413
66	0x3d544caf	0.051830944
67	0x3db89f2b	0.09014734
68	0xbe282890	-0.16421723
69	0xbcd7f3e4	-0.026361413
70	0x3df43bc9	0.119254656
71	0x3d2a6398	0.041598886
72	0xbd491b29	-0.049098168
73	0x3ccea989	0.025227325
74	0x3e293aeb	0.16526382
75	0x3dbb7516	0.09153192
76	0x3e26d5e3	0.16292529
77	0x3e04622f	0.12928079
78	0x3db27b7d	0.0871496
79	0xbe3ea50f	-0.18617652
80	0x3ddff409	0.10935218
81	0x3def4a9a	0.11684151
82	0x3c94cb71	0.018163415
83	0xbe3bd159	-0.18341579
84	0xbdb018fc	-0.085985154
85	0xbe845006	-0.25842303
86	0xbe131240	-0.1436243
87	0xbe4182af	-0.18897508
88	0xbcb78e9f	-0.022406874
89	0x3de95944	0.11393979
90	0xbdabbb73	-0.083853625
91	0xbde9592d	-0.11393962
92	0x3d74d1c8	0.059770375
93	0x3dde6217	0.10858553
94	0xbcdd3005	-0.027000437
95	0xbe1cbb87	-0.15305911
96	0xbdc862a6	-0.09784441
97	0xbb45865e	-0.0030139904
98	0x3dc2cdf8	0.09511942
99	0x3e5e55e8	0.21712458
100	0xbdd93b82	-0.10607053
101	0x3e0145a6	0.12624225
102	0x3d9b2278	0.07574934
103	0x3e050883	0.12991528
104	0x3b793670	0.0038026832
105	0xbe383a4d	-0.1799099
106	0xbe1236b7	-0.14278685
107	0x3cd2a99c	0.025715642
108	0x3d942da8	0.07235271
109	0x3e01811f	0.12646912
110	0xbe250511	-0.16115214
111	0xbdbeea35	-0.09322015
112	0xbd1420f5	-0.036164243
113	0x3dd58187	0.10425096
114	0x3dc308ff	0.095232
115	0xbc908477	-0.01764129
116	0x3cd08afc	0.025456898
117	0x3d4ea4fc	0.05045031
118	0x3d6c4e76	0.057692014
119	0x3de4ff67	0.11181527
120	0x3e474729	0.19460739
121	0x3d8d5468	0.06900865
122	0x3d187c4d	0.037227917
123	0x3dabfbf4	0.083976656
124	0xbc13a919	-0.009012484
125	0x3d91774d	0.07102833
126	0xbca41f09	-0.02003433
127	0xbdc72e12	-0.09725584
128	0xbca99552	-0.020701084
129	0x3bb26a1e	0.005444779
130	0x3ca2d126	0.01987512
131	0x3daabc57	0.08336704
132	0xbb083b67	-0.002078736
133	0x3e25da96	0.16196665
134	0x3dd3f341	0.103491314
135	0xbd01decf	-0.031706627
136	0xbdbfe169	-0.093691655
137	0xbe0fbb85	-0.14036377
138	0x3c92e784	0.01793266
139	0x3d87b6ba	0.06626649
140	0xbdf40682	-0.11915304
141	0xbbe4aa01	-0.006978274
142	0xbe2cb48c	-0.16865748
143	0xbd8e1bbf	-0.06938886
144	0x3d902dda	0.070399955
145	0x3db2e5ab	0.08735212
146	0x3c60e595	0.013726612
147	0x3e23856d	0.15968867
148	0xbe181da0	-0.14855051
149	0x3d97537b	0.073889695
150	0x3d08c34d	0.03338938
151	0x3d10038b	0.03515963
152	0xbdc0eac2	-0.094197765
153	0x3da66d55	0.08126322
154	0x3d9627a9	0.07331783
155	0x3d97d4d4	0.074136406
156	0x3e28b917	0.16476856
157	0xbbd5b19d	-0.0065214173
158	0xbe170967	-0.1474968
159	0x3d2a705c	0.04161106
160	0xbd2f9e0b	-0.04287533
161	0xbe40f18c	-0.18842143
162	0xbcb8a5a9	-0.02253993
163	0x3d3dfbd0	0.046382725
164	0xbd504ef3	-0.05085654
165	0x3dd03dd5	0.101680435
166	0x3d08cc93	0.033398222
167	0x3db3588c	0.08757123
168	0x3da44159	0.080202766
169	0x3df59ce7	0.11992817
170	0x3d696710	0.056983054
171	0x3c272021	0.010200531
172	0x3c9a9396	0.018869203
173	0xbdfa6806	-0.12226872
174	0xbe171851	-0.1475537
175	0x3d7cf0a5	0.061752934
176	0xbd6e8bcc	-0.05823879
177	0x3df6e954	0.120562226
178	0x3dc71861	0.09721447
179	0x3e5a22c1	0.2130232
180	0x3d30ab7c	0.04313229
181	0xbdbfb079	-0.09359831
182	0x3e427e50	0.18993497
183	0x3e124789	0.14285101
184	0xbe013a16	-0.12619814
185	0xbdd43e81	-0.10363484
186	0xbd5003e8	-0.050784975
187	0xbe1992ee	-0.14997455
188	0x3d55252d	0.052037407
189	0xbd0144e7	-0.03155985
190	0xbd8c5878	-0.068528116
191	0x3d823dfe	0.0635948
192	0x3c04ec62	0.008112999
193	0x3cb9f42c	0.022699438
194	0xbe07475f	-0.1321082
195	0x3df671a3	0.12033393
196	0x3de5c02f	0.11218297
197	0x3e1efbde	0.15525767
198	0x3db848e2	0.08998276
199	0xbe154195	-0.14575799
200	0xbe0d1bee	-0.13780186
201	0x3e5d739c	0.21626133
202	0x3dcdecfd	0.100549676
203	0xbd3c8912	-0.046029158
204	0xbe103099	-0.14081039
205	0x3d1d4f38	0.038405627
206	0x3ce45998	0.027874753
207	0x3bfe3d42	0.0077587673
208	0x3dd1de77	0.1024751
209	0xbc949a71	-0.01814005
210	0xbda80f01	-0.08205987
211	0xbcf4d52d	-0.029886806
212	0x3d7b2c88	0.061321765
213	0x3dc3005a	0.095215514
214	0xbe448c2a	-0.19194093
215	0x3dfcc3be	0.12342022
216	0x3d891978	0.06694311
217	0xbdc57bd5	-0.0964276
218	0xbc9fec1d	-0.019521767
219	0xbdf4dd71	-0.11956299
220	0xbbf16187	-0.0073663625
221	0xbd868517	-0.065683536
222	0xbd86086d	-0.06544576
223	0x3e1bae1c	0.15203136
224	0x3d493cd5	0.04913028
225	0x3dd6b2c7	0.10483318
226	0xbb32c0d1	-0.0027275572
227	0x3d863be5	0.06554393
228	0x3dceff3b	0.10107275
229	0xbcd7d373	-0.026345944
230	0xbdc8d6f6	-0.098066255
231	0xbc817701	-0.015803816
232	0xbc7bb26a	-0.015362361
233	0x3e2e4119	0.1701702
234	0x3e36d0ff	0.17853163
235	0xbdffb11d	-0.124849536
236	0x3d79d470	0.06099361
237	0xbd0ad51a	-0.033894636
238	0x3e442641	0.19155218
239	0xbdcd4849	-0.10023553
240	0xbc091ea3	-0.008369121
241	0x3e3b413c	0.18286604
242	0xbe390826	-0.18069515
243	0xbc3f7db9	-0.011687689
244	0xbe242e57	-0.16033302
245	0xbda86c75	-0.082238115
246	0xbe087810	-0.1332705
247	0xbd081a29	-0.033228073
248	0xbd74db87	-0.05977967
249	0x3e1e856d	0.15480585
250	0x3dd287eb	0.102798305
251	0xbe2a6243	-0.16639046
252	0x3de58f0d	0.112089254
253	0xbc6bd1ec	-0.014393311
254	0x3a3a701f	0.0007112044
255	0x3dc1802e	0.094482765

rnn.weight_hh_l1 f4 [32, 32]
0	0x3c20bd20	0.009810716
1	0xbb49d256	-0.0030795536
2	0x3d2c3425	0.042041916
3	0x3e47de8e	0.19518492
4	0xbd607d68	-0.054807097
5	0x3cabb14b	0.020958563
6	0x3d868b45	0.06569532
7	0xbde5a163	-0.11212423
8	0x3dc02fc9	0.09384114
9	0xbb954c7a	-0.004556236
10	0x3d858a70	0.065205455
11	0xbc87ed35	-0.016592601
12	0xbc4bb84a	-0.012434075
13	0x3d37d306	0.044878982
14	0x3e115668	0.14193118
15	0xbe284a8e	-0.1643469
16	0x3e3389f6	0.17533097
17	0x3c3b3a73	0.01142751
18	0x3d79680c	0.060890242
19	0x3e30a2ba	0.17249575
20	0xbe327bae	-0.17429993
21	0x3e3276ba	0.17428103
22	0xbda96e06	-0.082729384
23	0xbd65dd6e	-0.056119375
24	0x3d03d1ea	0.03218261
25	0x3e0a26da	0.13491383
26	0xbdeb9aa4	-0.11504105
27	0xbe36ff9c	-0.17870945
28	0xbdf5fb78	-0.120108545
29	0x3e647556	0.22310385
30	0x3dfe8e0a	0.124294356
31	0xbd83b643	-0.06431248
32	0xbd1598ad	-0.036522556
33	0xbe101755	-0.140714
34	0x3d97ce85	0.07412437
35	0xbca61293	-0.020272529
36	0x3d897f53	0.06713738
37	0xbdbe30c6	-0.092866465
38	0xbe187678	-0.14888942
39	0xbd8d12bd	-0.0688834
40	0x3d1c2eca	0.03813056
41	0x3de61e14	0.11236206
42	0xbd2a231d	-0.041537393
43	0xbd3a2600	-0.045446396
44	0xbd551462	-0.05202139
45	0x3d34907a	0.044083096
46	0xbe13cffc	-0.14434808
47	0xbcd2d5eb	-0.02573677
48	0xbdbc920a	-0.09207542
49	0xbd86e6a7	-0.06586962
50	0x3d770dba	0.060315825
51	0x3db4f9ca	0.08836706
52	0x3dcef89b	0.101060115
53	0xbe2f3ce1	-0.17113067
54	0xbd99c715	-0.07508675
55	0x3d9c24c1	0.07624198
56	0x3da1ff47	0.079100184
57	0xbd774a52	-0.06037361
58	0xbe5201b4	-0.20508462
59	0xbd8d033c	-0.068853825
60	0xbe1a16f0	-0.15047812
61	0xbddbcf5f	-0.10732912
62	0x3d052e4d	0.03251486
63	0xbd927ae3	-0.07152345
64	0xbd1f3eac	-0.038878128
65	0x3dc0b196	0.09408872
66	0x3c348a46	0.011019295
67	0x3d75e071	0.060028497
68	0xbd717834	-0.058952525
69	0xbe40aad8	-0.18815172
70	0xbe5c598d	-0.21518536
71	0x3e02224a	0.12708393
72	0xbda4d1e7	-0.08047848
73	0x3da0a667	0.07844239
74	0xbe5698bb	-0.209567
75	0x3e39c096	0.18139872
76	0xbdf0b9fa	-0.11754222
77	0xbb24c7e2	-0.0025143554
78	0xbdd45181	-0.10367108
79	0x3d6782e1	0.0565213
80	0x3d5c3ff3	0.053771924
81	0x3e004b12	0.12528637
82	0x3d59e538	0.053197116
83	0x3e66da77	0.22544275
84	0x3d36a3b0	0.0445897
85	0x3e56fc1a	0.20994607
86	0xbd48033b	-0.048831206
87	0xbd9ec33d	-0.077520825
88	0xbdc45bc2	-0.09587814
89	0x3dc61899	0.096726604
90	0x3df2d4c0	0.11856985
91	0xba1d9d37	-0.00060125015
92	0xbe00c432	-0.12574843
93	0xbd3e1edd	-0.046416152
94	0xbd2c8091	-0.042114798
95	0xbbb02986	-0.0053760437
96	0xbcbb6a5c	-0.022877865
97	0x3db5b3d4	0.0887219
98	0x3e08e0d0	0.13367009
99	0x3e3068eb	0.17227523
100	0xbde71535	-0.11283342
101	0x3cfa7f7b	0.030578366
102	0xbdb54680	-0.088513374
103	0x3db5678c	0.088576406
104	0xbe173a1d	-0.14768262
105	0xbcf2224b	-0.029557368
106	0xbe53bbaf	-0.20677064
107	0x3e408c28	0.18803465
108	0x3e02830b	0.12745301
109	0xbe79a8d9	-0.24380817
110	0x3dd5cf8c	0.10439977
111	0x3d00dd4b	0.03146104
112	0x3e54f978	0.2079829
113	0xbb6b62ab	-0.0035916965
114	0xbb39c18c	-0.0028344123
115	0xbdd24a64	-0.10268095
116	0xbdea5787	-0.11442476
117	0x3e3a9146	0.1821948
118	0xbe0d99f2	-0.13828257
119	0xbda59bb2	-0.08086337
120	0x3e0ed724	0.13949257
121	0x3ded5191	0.11587823
122	0x3d8868d0	0.066606164
123	0xbe0cb2d0	-0.13740087
124	0x3ddcbe31	0.10778464
125	0xbdba0010	-0.09082043
126	0xbdd4ade9	-0.10384733
127	0xbd81558b	-0.06315144
128	0x3ce726cf	0.028216748
129	0x3dfb3a05	0.12266926
130	0x3dac8123	0.084230684
131	0x3dc7f864	0.097641736
132	0xbbfbb1dd	-0.007681115
133	0x3db1f146	0.086885974
134	0x3da980dc	0.08276531
135	0x3cabd4a8	0.020975426
136	0xbc4fdc0e	-0.0126867425
137	0xbdf9cfbf	-0.121978275
138	0x3db5a143	0.08868649
139	0xbcc9ba64	-0.02462501
140	0xbabb6ea5	-0.0014299942
141	0xbd6df7bd	-0.05809759
142	0x3dd5c8e6	0.10438709
143	0xbe2fe8ba	-0.17178622
144	0xbc904d4a	-0.01761498
145	0x3e4eba86	0.2018834
146	0xbb7ed41e	-0.0038883756
147	0xbda6fb3c	-0.08153388
148	0xbd8d3735	-0.068952955
149	0x3da36f02	0.079801574
150	0xbdba8ff3	-0.091094874
151	0xbe3568a3	-0.17715697
152	0x3d3fd982	0.04683829
153	0xbd909c01	-0.070610054
154	0xbdd03276	-0.10165875
155	0xbdcfdd9e	-0.10149692
156	0xbe044034	-0.12915117
157	0x3e0cbfcb	0.13745038
158	0xbe1d1965	-0.15341718
159	0x3cda3fbc	0.026641719
160	0xbcdd8827	-0.027042462
161	0x3ce5c2c4	0.028046973
162	0x3d8235b5	0.063579
163	0x3db71400	0.089393616
164	0x3e02465b	0.12722151
165	0x3d2858b4	0.04110022
166	0x3c653702	0.013990166
167	0x3dcd1ce9	0.1001528
168	0x3d5dd1dd	0.05415522
169	0x3c4be4ad	0.012444657
170	0xbd665380	-0.056231976
171	0x3d938f9f	0.07205128
172	0xbdb989f0	-0.090595126
173	0x3e2d1b45	0.16904934
174	0xbe1ca46a	-0.15297094
175	0x3d37beca	0.044859685
176	0x3dddd509	0.10831649
177	0xbe087476	-0.13325676
178	0xbe01f1cd	-0.12689896
179	0xbe570abe	-0.21000192
180	0x3e3804fb	0.1797065
181	0xbdcb4d00	-0.09926796
182	0x3e36bce4	0.17845494
183	0xbdda63b1	-0.10663546
184	0x3e2b8735	0.16750796
185	0x3e11ce50	0.14238858
186	0x3e02fcd5	0.1279176
187	0xbe1088e9	-0.14114727
188	0x3e24b4fc	0.16084665
189	0xbb456f50	-0.0030126162
190	0x3d8950d0	0.06704867
191	0xbc4950bd	-0.012287316
192	0xbe4fb553	-0.20284013
193	0xbd5ad5e4	-0.05342664
194	0xbe16a57e	-0.14711568
195	0x3da82ca0	0.082116365
196	0xbe1a49fc	-0.15067285
197	0xbdaa0e15	-0.08303467
198	0x3cb6cacc	0.022313498
199	0x3e2a5355	0.16633351
200	0xbd9f46ed	-0.077772
201	0xbc5237a6	-0.01283065
202	0x3d79554b	0.060872357
203	0x3d74b8da	0.0597466
204	0x3db2a901	0.08723641
205	0x3a78a5d0	0.0009485157
206	0x3dff27bc	0.124587506
207	0x3de62739	0.1123795
208	0x3d1d7581	0.03844214
209	0x3da97f77	0.08276265
210	0xbd8ab3c6	-0.0677257
211	0x3d49617c	0.049165234
212	0x3d4995a0	0.04921496
213	0x3cfa795e	0.03057545
214	0xbc8b17eb	-0.016979178
215	0x3d265a9f	0.040613767
216	0x3d222c86	0.039593242
217	0xbd33e7a2	-0.043922074
218	0xbe70c332	-0.23511961
219	0x3dd54b8a	0.104147986
220	0xbd635a10	-0.055505812
221	0xbe4730d7	-0.19452225
222	0x3e7d4365	0.2473274
223	0x3d6c1a90	0.05764252
224	0xbe3b98da	-0.18320027
225	0xbd8a2c9d	-0.067467906
226	0x3df40cd2	0.11916508
227	0xbdcd10fd	-0.10013006
228	0xbd7e826b	-0.062136095
229	0x3e1d6a16	0.153725
230	0x3d625d15	0.05526455
231	0xbcb2a143	-0.021805411
232	0x3d8e9ab5	0.06963102
233	0xbd1cdf74	-0.03829904
234	0xbda9d6da	-0.08292933
235	0xbe390ee3	-0.18072085
236	0xbd9bd9fb	-0.07609936
237	0xbd8719b9	-0.06596703
238	0xbd9c0355	-0.07617823
239	0xbcb02dd0	-0.02150622
240	0x3d2ad44e	0.041706376
241	0x3c0b1173	0.008488047
242	0xbdb4f54b	-0.088358484
243	0xbdaf97b4	-0.08573857
244	0xbd8e06a8	-0.06934863
245	0xbdaab936	-0.083361074
246	0xbe20603a	-0.15661708
247	0xbd90d98f	-0.07072746
248	0x3de96b89	0.11397464
249	0x3cd4bfeb	0.02597042
250	0xbe209f30	-0.15685725
251	0xbd53f3ce	-0.051746182
252	0x3e22abf1	0.15885903
253	0x3dba8cfb	0.09108921
254	0xbd112e43	-0.03544451
255	0xbd2cc381	-0.042178635

rnn.bias_ih_l1 f4 [32]
0	0x3dfb6999	0.122760005
1	0x3cd30d07	0.025763048
2	0x3e3b0021	0.18261768
3	0x3d6bf9fa	0.057611443
4	0xbdfd6819	-0.12373371
5	0xbda87885	-0.08226112
6	0x3e1d8e94	0.1538642
7	0xbcf240d1	-0.029571922
8	0xbe060420	-0.13087511
9	0xbdef09e9	-0.11671812
10	0xbd63a89d	-0.055580724
11	0xbd3d68df	-0.04624259
12	0xbca43131	-0.020042988
13	0xbcf8da26	-0.030377459
14	0x3d7f8166	0.062379263
15	0x3e34ac7e	0.17643926
16	0xbe19e466	-0.15028533
17	0x3d8c9884	0.068650275
18	0xbdc97efd	-0.09838674
19	0xbc7782f1	-0.015106902
20	0x3d65f752	0.056144066
21	0xbca57d9e	-0.0202015
22	0xbd8332ce	-0.064061746
23	0x3dd0ec7d	0.102013566
24	0x3e19d765	0.15023573
25	0x3e14224d	0.1446621
26	0xbc56a770	-0.013101444
27	0x3cf1ddb0	0.029524654
28	0x3cc39920	0.023876727
29	0x3e08260b	0.13295762
30	0xbe1af06f	-0.1513078
31	0x3e0dad42	0.13835624

rnn.bias_hh_l1 f4 [32]
0	0xbe00f52a	-0.12593523
1	0xbde964b7	-0.11396163
2	0xbda66375	-0.08124439
3	0x3d8b1080	0.067902565
4	0x3d49dd8e	0.049283557
5	0xbd826880	-0.06367588
6	0x3d813b57	0.06310146
7	0xbd59772c	-0.053092167
8	0xbe31c410	-0.17359948
9	0x3dab4345	0.0836244
10	0xbdc2fa21	-0.095203646
11	0x3dcfbc83	0.10143378
12	0xbe3a8bbb	-0.18217365
13	0x3ce0cb9e	0.027440842
14	0xbd9cba62	-0.07652737
15	0x3e1864d4	0.14882213
16	0xbe04c145	-0.12964351
17	0xbe055bc2	-0.13023284
18	0xbc8d0aaf	-0.017217008
19	0x3e0c7bc8	0.13719094
20	0x3cbcca49	0.023045676
21	0xbe4f2f98	-0.20233
22	0xbdd6bf7b	-0.10485741
23	0xbd9024da	-0.07038279
24	0x3dc4f645	0.09617285
25	0xbcfa32e8	-0.030541852
26	0x3d3774be	0.04478907
27	0xbcdb42c7	-0.02676524
28	0xbd9e8ca8	-0.07741672
29	0xbd4cd44c	-0.05000715
30	0x3d10290c	0.035195395
31	0x3e1be3ff	0.15223692

bn.weight f4 [32]
0	0x3f8eb842	1.1149981
1	0x3f8fee62	1.1244624
2	0x3f8e61d7	1.1123608
3	0x3f8e7667	1.1129884
4	0x3f8bc538	1.0919561
5	0x3f8d7a84	1.1053014
6	0x3f8f10b4	1.1176972
7	0x3f8e877f	1.11351
8	0x3f8dcc36	1.1077945
9	0x3f8d7787	1.1052102
10	0x3f8f2eba	1.1186135
11	0x3f8d0cd6	1.1019542
12	0x3f8fcccd	1.1234375
13	0x3f8d0a0e	1.1018693
14	0x3f8c5cc7	1.0965813
15	0x3f918d87	1.1371316
16	0x3f8ce879	1.1008445
17	0x3f8cc286	1.0996864
18	0x3f8c2fee	1.0952127
19	0x3f901cdf	1.1258811
20	0x3f8d75a0	1.1051521
21	0x3f8ecba4	1.1155896
22	0x3f8c8b0c	1.0979934
23	0x3f8bdaaf	1.0926112
24	0x3f8c626b	1.0967535
25	0x3f9000ca	1.1250241
26	0x3f8b0a2a	1.0862477
27	0x3f8d12e1	1.1021386
28	0x3f8dbaba	1.107261
29	0x3f8bbe54	1.0917459
30	0x3f8d02ff	1.1016539
31	0x3f8c217c	1.0947719

bn.bias f4 [32]
0	0xbe239bc4	-0.15977389
1	0xbe25bf2c	-0.16186208
2	0x3e090506	0.13380823
3	0xbe0e06c7	-0.13869773
4	0xbe2acba7	-0.1667925
5	0xbb900f31	-0.004396342
6	0xbdf89c79	-0.1213922
7	0xbdfa149e	-0.12210964
8	0xbdfee4c5	-0.12445978
9	0xbe138bbe	-0.14408776
10	0x3e156184	0.1458798
11	0x3e1464c0	0.14491558
12	0xbe07ea6a	-0.13273016
13	0xbe0edead	-0.13952132
14	0xbe30762a	-0.17232576
15	0x3e35eb9c	0.17765659
16	0xbddeb5d2	-0.10874523
17	0xbe1dda61	-0.15415336
18	0xbd909390	-0.07059395
19	0x3e14fbab	0.14549129
20	0xbe081330	-0.1328857
21	0x3db0de0f	0.08636104
22	0x3e252aaa	0.16129556
23	0x3dfbc96e	0.12294279
24	0x3e0521b0	0.13001132
25	0xbdd30c1a	-0.103050426
26	0x3e28ebef	0.16496252
27	0x3e1ab93c	0.15109724
28	0xbe05f448	-0.13081467
29	0xbe1b56af	-0.15169786
30	0xbe072dcb	-0.13201062
31	0x3e01a1cf	0.12659381

bn.running_mean f4 [32]
0	0xbe604f43	-0.21905236
1	0xbea09008	-0.31359887
2	0xbd682e48	-0.056684762
3	0xbd8cb20c	-0.06869897
4	0xbe45735d	-0.19282289
5	0xbd39f810	-0.045402586
6	0xbd73fa4d	-0.059564877
7	0xbf0e85b9	-0.55672795
8	0x3c6e4b38	0.014544301
9	0xbe38f43b	-0.18061917
10	0x3e5ae054	0.21374637
11	0x3ce0c605	0.027438173
12	0xbe0ad9bc	-0.13559622
13	0x3d017888	0.03160909
14	0xbeec1161	-0.4610701
15	0x3f153770	0.58287716
16	0xbe3a5622	-0.1819692
17	0xbe37b360	-0.1793952
18	0xbd9f9fc0	-0.07794142
19	0x3d4119f6	0.0471439
20	0x3d8b82ce	0.068120584
21	0xbd29055b	-0.041264873
22	0x3e01353f	0.12617968
23	0x3e602926	0.21890697
24	0x3eb5bb65	0.35494533
25	0xbe449a88	-0.19199574
26	0x3e076483	0.13221936
27	0x3e53d736	0.20687565
28	0xbed26fc6	-0.411009
29	0xbd733594	-0.059377268
30	0x3d19588f	0.03743797
31	0x3e0399ab	0.12851588

bn.running_var f4 [32]
0	0x3f29bea8	0.66306543
1	0x3d620e56	0.055189453
2	0x3f6c4f18	0.9230819
3	0x3f5d9b5d	0.8656519
4	0x3dcadb1e	0.099050745
5	0x3f130552	0.57429993
6	0x3f21eecd	0.63255006
7	0x3dc43f18	0.09582347
8	0x3f5a950e	0.8538369
9	0x3f3babad	0.7330883
10	0x3e910f0e	0.28331798
11	0x3f4b43e0	0.79400444
12	0x3e97bff5	0.2963864
13	0x3f5c7706	0.86119115
14	0x3d25f1a0	0.040513635
15	0x3e2a4c15	0.16630585
16	0x3f359f22	0.7094594
17	0x3f3aa23b	0.72903794
18	0x3f4e69b9	0.8063007
19	0x3f4372a6	0.76346815
20	0x3f477311	0.7790995
21	0x3f466012	0.7749034
22	0x3f4e43c2	0.8057214
23	0x3f02ec5f	0.51141924
24	0x3d42d17d	0.047563065
25	0x3f266771	0.6500159
26	0x3f2910b8	0.66041136
27	0x3ebbb166	0.36658782
28	0x3e8f1d95	0.27952257
29	0x3f6a117c	0.9143293
30	0x3f6a276b	0.914664
31	0x3f3d43eb	0.7393176

fc.0.weight f4 [32, 32]
0	0xbe3169e3	-0.17325549
1	0xbe0837b3	-0.13302498
2	0x3dfc40ba	0.12317033
3	0xbdbe5860	-0.092942
4	0xbe1dc684	-0.15407759
5	0xbd329be8	-0.043605715
6	0x3db4c7c8	0.08827168
7	0x3e3fea3d	0.18741699
8	0x3d6e00ba	0.05810616
9	0xbd63c293	-0.055605482
10	0x3bb808bd	0.005616276
11	0x3e2ac1ce	0.16675493
12	0x3ddbfd97	0.10741728
13	0x3da5fbd4	0.08104673
14	0xbe3df73e	-0.18551347
15	0x3d8723f5	0.06598655
16	0xbe29a5a5	-0.16567095
17	0xbe8f4231	-0.27980188
18	0xbddab166	-0.10678367
19	0xbd95eac3	-0.07320168
20	0x3e39cead	0.18145247
21	0xbdadc26c	-0.08484349
22	0x3c0afdcb	0.0084833605
23	0xbe0db4eb	-0.13838546
24	0x3d8e7fb4	0.06957951
25	0xbe48cf53	-0.19610338
26	0xbcc83d2d	-0.024443233
27	0x3e36e7c0	0.17861843
28	0x3d2cd07a	0.042191006
29	0xbe83416a	-0.25635844
30	0x3e840305	0.25783554
31	0xbe10a95e	-0.14127108
32	0x3d3d670f	0.046240862
33	0xbe6c9512	-0.23103741
34	0xbca69a52	-0.020337258
35	0x3e08bcca	0.13353267
36	0xbdc31f09	-0.09527404
37	0xbdf377a9	-0.11888058
38	0x3bf512e3	0.007479058
39	0xbe780054	-0.24218875
40	0xbd882e50	-0.066494584
41	0x3d3cb2b5	0.046068866
42	0x3cb37b2e	0.021909323
43	0x3e231a18	0.15927923
44	0xbb8e0d1f	-0.0043350603
45	0x3e1c135c	0.1524176
46	0x3c51df2d	0.012809557
47	0x3e1d6a44	0.15372568
48	0x3e703eb3	0.23461418
49	0x3d4fd9a3	0.050744664
50	0x3e812d4b	0.25229868
51	0xbd3e1d03	-0.046414386
52	0xbe585b7d	-0.2112865
53	0x3d7d0334	0.061770633
54	0x3d9d42fe	0.07678793
55	0x3e6ded08	0.23234951
56	0xbe28f3a5	-0.16499193
57	0xbd1ca98d	-0.038247634
58	0x3e539157	0.20660912
59	0xbd90df92	-0.07073893
60	0xbe59db58	-0.21275079
61	0xbd279262	-0.040911086
62	0xbe73f94b	-0.23825566
63	0xbe0de43e	-0.13856599
64	0xbdaaa38a	-0.08331974
65	0xbdc3dea0	-0.09563947
66	0x3d108378	0.03528163
67	0xbdece1a2	-0.115664735
68	0xbe6721c3	-0.22571473
69	0x3d65d3cc	0.05611019
70	0xbe427a56	-0.1899198
71	0xbe8dbf77	-0.2768514
72	0xbdfb318f	-0.12265312
73	0xbe7e9eee	-0.24865314
74	0x3e7c4e37	0.24639212
75	0x3e409bd1	0.18809439
76	0xbdb1bdd0	-0.08678782
77	0xbe4dd36e	-0.20100185
78	0xbb477f7a	-0.0030440972
79	0x3de3dcf2	0.11126126
80	0x3e36ae77	0.1783999
81	0xbe16615d	-0.14685579
82	0xbd839f0b	-0.064268194
83	0x3dcd773a	0.10032506
84	0x3e3c5e03	0.18395238
85	0x3d4fe292	0.050753184
86	0x3e1d2023	0.1534429
87	0x3e196c98	0.14982831
88	0x3dbc789d	0.09202693
89	0xbe2c0f52	-0.16802719
90	0x3e21cf67	0.15801774
91	0x3e0d8aad	0.13822432
92	0xbe505161	-0.20343544
93	0x3e2eb589	0.17061438
94	0xbd7886e7	-0.060675528
95	0x3dc5815a	0.096438125
96	0xbc6e253f	-0.014535247
97	0x3cc2e498	0.023790643
98	0xbdf86eaf	-0.12130486
99	0xbe683055	-0.22674687
100	0xbe106adc	-0.14103264
101	0xbdeab610	-0.11460507
102	0x3e512b37	0.20426641
103	0xbe0ab1ca	-0.13544384
104	0x3e2d9c6a	0.16954198
105	0xbd181b50	-0.037135422
106	0x3daddd7b	0.0848951
107	0xbe5b0529	-0.21388687
108	0x3e1d235b	0.15345518
109	0x3e35b0ff	0.177433
110	0x3d1576a2	0.03649009
111	0x3e55d116	0.20880541
112	0x3ca2ccf2	0.019873116
113	0xbd8aa2a4	-0.067693025
114	0xbe351cf8	-0.17686832
115	0x3dc7ec32	0.097618476
116	0x3e5c0663	0.21486811
117	0xbe4cd794	-0.20004112
118	0x3e61fbf1	0.22068764
119	0xbdd2a6a1	-0.10285688
120	0x3e4ad5ac	0.19808072
121	0xbe7f718c	-0.24945658
122	0xbe03861f	-0.12844132
123	0xbdc99a21	-0.09843851
124	0x3e245850	0.16049314
125	0xbe5262e9	-0.20545544
126	0x3e6da4eb	0.23207442
127	0xbdb7492c	-0.08949503
128	0xbe648535	-0.2231644
129	0xbea3948d	-0.31949273
130	0x3e5ddaf1	0.21665551
131	0x3e156516	0.14589342
132	0x3d5f74ea	0.054554857
133	0xbda59c39	-0.08086438
134	0x3e1f5d82	0.15563014
135	0xbe8e85a8	-0.27836347
136	0xbe0526e4	-0.13003117
137	0xbe4afa3c	-0.1982202
138	0x3d940ed0	0.07229388
139	0x3e8d24bc	0.2756709
140	0x3e6b61a0	0.2298646
141	0x3e849af7	0.2589948
142	0xbe12146f	-0.14265607
143	0xbd9c80f9	-0.07641787
144	0xbe4c4798	-0.19949186
145	0x3de62237	0.11236995
146	0x3e0e12a8	0.13874304
147	0xbe07193b	-0.13193218
148	0xbd7f46a9	-0.062323246
149	0x3e2523f3	0.16126995
150	0x3e641856	0.22274908
151	0x3e850211	0.2597814
152	0xbe09556d	-0.13411494
153	0x3e54dfe5	0.20788534
154	0x3d2ce831	0.042213622
155	0x3e3302e3	0.1748157
156	0x3e53724e	0.20649073
157	0xbd7beaea	-0.06150333
158	0xb98bc6b6	-0.00026660197
159	0x3e26017e	0.16211507
160	0xbe7a00a3	-0.24414305
161	0x3e186dda	0.14885655
162	0xbe66c7a8	-0.225371
163	0xbe1bf745	-0.15231045
164	0x3d63d5bc	0.055623755
165	0xbda6803e	-0.08129929
166	0x3dc79397	0.097449474
167	0x3ce932a2	0.028466526
168	0xbcb7a6a4	-0.022418328
169	0xbe6aadf2	-0.22917917
170	0x3e2c9d05	0.16856773
171	0xbe316d90	-0.17326951
172	0x3d0b74ff	0.034047123
173	0xbd2e4004	-0.04254152
174	0xbe1f9aa7	-0.15586339
175	0x3e1eaae2	0.15494874
176	0xbdf37bb8	-0.11888832
177	0xbe6caf08	-0.23113644
178	0xbe5fa5de	-0.21840617
179	0xbe0649e4	-0.13114125
180	0x3e11ffb6	0.14257702
181	0xbe63bce8	-0.22240031
182	0x3e0ded75	0.13860114
183	0x3e646aba	0.22306338
184	0xbdf86474	-0.12128535
185	0xbb59ce1e	-0.0033234428
186	0xbe6c9170	-0.23102355
187	0xbe1ba8f2	-0.15201166
188	0x3d860f61	0.06545902
189	0x3db482e8	0.08814031
190	0x3e46b331	0.19404294
191	0x3e5fe752	0.21865585
192	0xbe066558	-0.13124597
193	0xbe477e39	-0.19481744
194	0xbcffdd00	-0.03123331
195	0x3def5101	0.11685372
196	0x3d0316a8	0.03200403
197	0x3e39d7a2	0.18148664
198	0xbe77969c	-0.24178547
199	0xbe71b600	-0.23604584
200	0xbe5fed90	-0.21867967
201	0xbe239211	-0.15973689
202	0x3e5f2225	0.21790369
203	0x3e09cb86	0.13456544
204	0xbe8d6533	-0.2761627
205	0xbdcc2e31	-0.09969748
206	0xbe8dd64d	-0.2770256
207	0x3e947af4	0.29000056
208	0x3e09541c	0.13410991
209	0xbe707e74	-0.23485738
210	0xbdbe255d	-0.0928447
211	0x3e5ee811	0.21768214
212	0xbdf6fb5f	-0.12059664
213	0x3e7eb842	0.24874976
214	0x3c94d28c	0.018166803
215	0x3e6362eb	0.22205703
216	0x3c87e431	0.016588302
217	0xbe022f7a	-0.12713423
218	0x3e64b918	0.22336233
219	0xbd5b6ed6	-0.0535725
220	0xbe1e8c78	-0.15483272
221	0xbd96e436	-0.073677465
222	0xbd28a37f	-0.041171547
223	0xbdb8b6e5	-0.09019259
224	0x3d598993	0.053109717
225	0x3d41a7a5	0.04727902
226	0x3d25862e	0.040411167
227	0x3bde98c1	0.006793112
228	0xbd0702ad	-0.032961536
229	0x3e464215	0.19361146
230	0x3e089044	0.13336283
231	0x3e0c8d7f	0.13725851
232	0xbe0004e6	-0.12501869
233	0xbe501ca8	-0.20323431
234	0xbd6e172f	-0.05812758
235	0xbbcb5527	-0.0062052193
236	0x3e5d0954	0.2158559
237	0x3b59da71	0.0033241773
238	0xbe237712	-0.1596339
239	0x3d3c12d7	0.045916405
240	0xbe8911d9	-0.2677143
241	0x3c9eebca	0.019399542
242	0xbd7c4ce8	-0.06159678
243	0xbe67b983	-0.22629361
244	0xbd830f97	-0.06399458
245	0x3d066126	0.03280749
246	0xbd37106f	-0.044693407
247	0x3baffd4e	0.0053707724
248	0x3c96270e	0.01832917
249	0xbe39e7e6	-0.18154868
250	0x3db43f7e	0.08801173
251	0x3dcea4f7	0.10090058
252	0x3d9379b4	0.072009474
253	0xbe011f97	-0.12609707
254	0x3e104541	0.14088918
255	0x3e60456c	0.21901482

fc.0.bias f4 [32]
0	0x3dc0d7d1	0.09416164
1	0x3e89ebef	0.26937816
2	0x3e76a301	0.24085619
3	0xbabf174e	-0.0014579089
4	0x3d00751a	0.031361677
5	0x3e79cc9d	0.2439446
6	0x3eb239a1	0.34809592
7	0x3e88d71b	0.26726612
8	0x3eaf2202	0.34205633
9	0x3e507d26	0.2036024
10	0x3daaf99a	0.08348389
11	0x3cb604c3	0.022219067
12	0x3e849cc7	0.25900862
13	0x3e54becd	0.2077591
14	0x3e292aea	0.16520277
15	0xbd5fc688	-0.054632694
16	0x3e75b48a	0.23994651
17	0x3dc9b210	0.09848416
18	0x3dd804a2	0.10547759
19	0x3d8926cc	0.06696853
20	0x3d21f09d	0.039536107
21	0x3e69cd23	0.2283216
22	0x3e22cf46	0.15899381
23	0x3e8f711b	0.2801598
24	0x3e98f2ba	0.29872686
25	0x3e533bd7	0.20628296
26	0xbccbe443	-0.024889117
27	0x3dc6a106	0.096986815
28	0x3e2ea5db	0.17055456
29	0x3d2793f7	0.040912595
30	0x3e9ea59e	0.3098573
31	0x3e35a1ec	0.1773755

fc.3.weight f4 [72, 32]
0	0x3dc10c82	0.09426214
1	0x3d29acb7	0.04142448
2	0x3e57918e	0.21051618
3	0x3ceaca0e	0.0286608
4	0x3e129bdd	0.1431727
5	0x3e3015f0	0.17195868
6	0x3e21c425	0.1579748
7	0x3c50c4e0	0.012742251
8	0x3e687585	0.2270108
9	0x3e13c198	0.14429319
10	0x3df84928	0.121233284
11	0x3d45d7c0	0.04830146
12	0x3e1c7888	0.15280354
13	0x3d9921bf	0.0747714
14	0x3c4c9d2b	0.012488644
15	0x3c81d18f	0.015846996
16	0x3d8dc057	0.069214515
17	0x3dcaca6f	0.099018924
18	0x3b8ed1f6	0.0043585254
19	0x3d0c2a91	0.034220282
20	0x3ddb8339	0.10718388
21	0x3e217d6f	0.15770505
22	0xba01e678	-0.0004955302
23	0x3c12544d	0.008931232
24	0x3e72b012	0.23699978
25	0x3e05ea33	0.13077621
26	0x3dd5260f	0.1040765
27	0xbc5bf62f	-0.013425394
28	0x3e7dfdf5	0.24803908
29	0xbb0899bf	-0.0020843593
30	0x3e098221	0.13428546
31	0xbb51a87b	-0.0031991291
32	0x3dde5db1	0.10857714
33	0x3e5298fb	0.2056617
34	0x3daaceda	0.08340235
35	0x3ddebe21	0.10876108
36	0x3e986316	0.29763097
37	0x3e9c8b4d	0.30575028
38	0x3d37c507	0.044865634
39	0x3e454693	0.19265203
40	0x3ea2aa06	0.31770343
41	0x3b0e07ea	0.0021672198
42	0xbc3e592b	-0.011617939
43	0x3e0efc70	0.13963485
44	0x3dad435f	0.08460116
45	0x3e1c67af	0.15273927
46	0x3e981089	0.29700115
47	0x3d6f1b9f	0.05837595
48	0x3ca153ca	0.019693274
49	0x3dcd2bd7	0.100181274
50	0x3e71cea1	0.23613979
51	0x3e66bc20	0.22532701
52	0x3e3c9a1a	0.1841816
53	0x3d1132bf	0.035448786
54	0x3e00a756	0.12563834
55	0x3cd23e4d	0.025664473
56	0x3e8aa17c	0.27076328
57	0x3eae077c	0.33990085
58	0x3ca9b946	0.020718228
59	0x3e89ad67	0.26890108
60	0x3e70ab2f	0.23502801
61	0x3dc0d5b1	0.094157584
62	0x3e133c89	0.14378561
63	0x3e78e920	0.2430768
64	0x3d08488b	0.033272307
65	0xbbe1ff4c	-0.006896889
66	0x3dba6312	0.091009274
67	0x3e3947d2	0.18093804
68	0x3e1abc2a	0.15110841
69	0x3db6e8fb	0.08931156
70	0xbc980e7d	-0.018561596
71	0x3e3fc810	0.18728662
72	0x3e736d0b	0.23772065
73	0x3e0f852f	0.1401565
74	0x3e53e7a5	0.20693834
75	0x3e6c7124	0.23090035
76	0x3cd49da1	0.02595407
77	0x3e11f786	0.14254579
78	0x3dc78be9	0.097434826
79	0xbce14f03	-0.027503496
80	0x3d440f56	0.047866188
81	0x3e416cb4	0.18889123
82	0x3dab602c	0.08367953
83	0x3e3812bd	0.17975898
84	0xbc82f2ee	-0.015984979
85	0x3e407d22	0.18797734
86	0x3d172842	0.036903627
87	0x3db5347f	0.088479035
88	0x3d7dde5e	0.061979644
89	0x3d7bd909	0.061486278
90	0x3d9d1e93	0.07671847
91	0x3d698b98	0.057017893
92	0x3dde6ab3	0.10860195
93	0x3e37350a	0.17891327
94	0xbd053c74	-0.032528356
95	0x3e5c2119	0.21497001
96	0x3dbcc0fb	0.092164956
97	0x3e706452	0.23475769
98	0x3db61d01	0.08892251
99	0x3dbbd085	0.09170631
100	0x3d082c69	0.033245478
101	0x3e4e5058	0.20147836
102	0x3db996a0	0.090619326
103	0x3e49b5cc	0.19698256
104	0x3d6d5650	0.057943642
105	0x3dcbfc7d	0.09960268
106	0x3df4cac9	0.11952741
107	0x3d8cd9b6	0.068774626
108	0x3e0dfb44	0.13865381
109	0x3dd0f208	0.10202414
110	0x3db23cfb	0.08703037
111	0x3c7a604b	0.015281747
112	0x3e265c9b	0.16246264
113	0x3da7cf90	0.08193886
114	0xba99b2a2	-0.001172621
115	0x3db8bc2c	0.09020266
116	0x3d0477b8	0.032340735
117	0x3d56681c	0.05234538
118	0xbd466b22	-0.048442014
119	0x3e45551a	0.19270745
120	0x3d3732f3	0.044726323
121	0x3e286e14	0.16448241
122	0x3c8faa1c	0.01753717
123	0x3d6d1564	0.057881728
124	0x3e2725e7	0.16323052
125	0x3e3afd74	0.18260747
126	0x3ca46a16	0.020070117
127	0x3dd43ffb	0.10363766
128	0x3dd6843f	0.10474443
129	0x3d69953a	0.05702708
130	0x3e06f8ab	0.13180797
131	0x3d4867e7	0.048927214
132	0x3e31c66d	0.1736085
133	0x3d0e6210	0.03476149
134	0x3e5b1360	0.2139411
135	0x3ea2d963	0.31806478
136	0x3e9cd15e	0.30628484
137	0x3d6e6626	0.058202885
138	0x3db793a0	0.08963704
139	0x3d2e74d4	0.042591885
140	0x3da14905	0.078752555
141	0x3dd39776	0.10331623
142	0x3e0bc582	0.13649562
143	0x3d88a6cb	0.06672438
144	0x3d585342	0.052813776
145	0x3e8e1ed0	0.27757883
146	0x3dad608a	0.08465679
147	0x3e5266c6	0.20547017
148	0x3e95c876	0.29254502
149	0xbc31222e	-0.010811372
150	0x3e9310d4	0.28723776
151	0x3e2acaa7	0.16678868
152	0x3e0b9ab6	0.13633236
153	0x3e1d57a5	0.15365465
154	0x3dee4105	0.11633495
155	0x3c3b0e16	0.011416933
156	0x3dec7a9f	0.115468256
157	0x3e8c960c	0.27458227
158	0x3e919874	0.28436625
159	0x3eaa7010	0.33288622
160	0xbd134657	-0.035955753
161	0x3db83e2f	0.089962356
162	0x3e97f89f	0.2968187
163	0xbd2859e0	-0.041101336
164	0x3c65e7c3	0.014032307
165	0x3e2d7aac	0.16941327
166	0x3d72a783	0.059241783
167	0xbd3a058c	-0.045415446
168	0x3d244f5a	0.040114738
169	0x3dee1247	0.1162458
170	0x3dc98ccb	0.09841307
171	0xbb7145d4	-0.0036815302
172	0x3e3e4bc9	0.18583597
173	0x3e1c5210	0.1526568
174	0x3e5a3215	0.21308167
175	0x3e2c7926	0.1684309
176	0xbcf97120	-0.03044945
177	0xbbcad131	-0.0061894883
178	0x3c8a6764	0.016895004
179	0x3e0cad38	0.13737953
180	0x3e69c69d	0.22829671
181	0x3e72b9cb	0.23703687
182	0x3e2c7d3e	0.16844651
183	0x3d879f68	0.06622201
184	0xbc4da33a	-0.012551123
185	0x3e7226b5	0.23647578
186	0x3da15c2e	0.0787891
187	0x3dce067e	0.10059832
188	0x3c90cdb3	0.01767621
189	0x3e1b6d8c	0.15178508
190	0x3d88ed05	0.06685833
191	0xbb486c64	-0.0030582184
192	0x3e26206b	0.16223304
193	0x3e0e4dec	0.13896912
194	0x3e26055b	0.1621298
195	0x3cc543df	0.024080215
196	0x3e720faa	0.23638788
197	0x3e3465f2	0.17617014
198	0x3e2a4460	0.16627645
199	0x3e2ed89d	0.17074819
200	0x3d97b2f1	0.07407177
201	0x3e399a85	0.18125351
202	0x3e05bbfe	0.13059995
203	0xbd2a158d	-0.04152446
204	0x3e3b0b22	0.18265966
205	0x3d610757	0.05493864
206	0x3e425623	0.18978171
207	0x3ab275fe	0.0013615487
208	0x3e21ac8d	0.15788479
209	0x3cc849fe	0.024449345
210	0x3e5014e1	0.20320465
211	0x3e65f2ee	0.22455952
212	0xbd262ad2	-0.04056818
213	0x3e450eda	0.19243947
214	0x3bfaef04	0.0076578874
215	0x3e0a9dae	0.13536713
216	0x3e18b8b1	0.14914204
217	0xbd4a1625	-0.049337525
218	0x3d1520fa	0.036408402
219	0x3d58cf08	0.052931815
220	0xbcaea818	-0.021320388
221	0x3d853de7	0.065059476
222	0x3d1c1df8	0.038114518
223	0x3d056dde	0.03257548
224	0x3eb1bbf4	0.3471371
225	0x3e911760	0.28338146
226	0x3e06e4cc	0.13173217
227	0x3df26ce6	0.11837177
228	0x3ea02e2a	0.3128522
229	0x3d1d2538	0.038365573
230	0x3e0da3f5	0.13832076
231	0x3dd8109b	0.10550042
232	0x3e399132	0.18121794
233	0x3e94cd74	0.29062998
234	0x3dd0b8de	0.101915106
235	0x3e8c6a20	0.27424717
236	0x3e94f94e	0.29096454
237	0x3df3dab4	0.11906949
238	0x3e55d43e	0.20881745
239	0x3e906db6	0.28208703
240	0x3de88bbe	0.11354779
241	0x3e27bc50	0.1638043
242	0x3d13fe8a	0.03613142
243	0x3ceba471	0.028764935
244	0x3d9e94c4	0.077432185
245	0x3d86bcad	0.06578956
246	0x3e3561b3	0.1771305
247	0x3d5aadfb	0.053388577
248	0x3dfed6a8	0.12443286
249	0x3de1eae7	0.11031132
250	0x3e533525	0.20625742
251	0x3b390e41	0.0028237256
252	0x3e0fc0db	0.14038412
253	0x3e8b540c	0.2721256
254	0x3e69636f	0.22791837
255	0x3d36fcd7	0.04467472

fc.3.bias f4 [72]
0	0x3da37739	0.07981724
1	0x3d9cf9dc	0.076648444
2	0x3e290344	0.16505152
3	0xbd5d12d5	-0.053973038
4	0x3e4175ed	0.18892641
5	0x3cb37600	0.021906853
6	0x3d1a9a5b	0.03774486
7	0x3d32f0e1	0.04368675
8	0xbc08ea2f	-0.008356615
9	0xbcef8344	-0.029237397
10	0x3e53ca43	0.20682625
11	0x3e8aeb95	0.2713286
12	0x3c96da0e	0.018414523
13	0xbccd8f72	-0.025092814
14	0x3ddb5efa	0.10711475
15	0x3d4e8a82	0.05042506
16	0x3e894e88	0.26817727
17	0x3e401c91	0.18760897
18	0x3cf237c3	0.029567605
19	0x3dc519c9	0.09624059
20	0x3e93ae05	0.28843704
21	0x3e19f379	0.15034284
22	0x3e1edce0	0.15513945
23	0xbc9dfada	-0.019284654
24	0xbbd7d1af	-0.0065862755
25	0x3e9e1fe9	0.3088372
26	0x3e32d769	0.17464985
27	0x3e41041a	0.18849221
28	0x3e8bcc7a	0.2730444
29	0xbd08683a	-0.033302523
30	0x3d9a204d	0.07525692
31	0x3ea2806b	0.317386
32	0x3d2406ad	0.04004543
33	0xb9c4c815	-0.00037533106
34	0x3e7672c2	0.24067214
35	0x3e849c41	0.25900462
36	0x3dfd9031	0.12381018
37	0x3e2c88f0	0.16849113
38	0x3de3adfb	0.111171685
39	0x3db60716	0.0888807
40	0xbc195c6e	-0.009360416
41	0x3e8c694c	0.27424085
42	0x3e5ec424	0.21754509
43	0x3e9fc98e	0.31208462
44	0xbd4b2bba	-0.049602248
45	0xbd3d2f01	-0.046187405
46	0x3e1a1cb5	0.15050013
47	0xbd291471	-0.04127926
48	0xbc4efe38	-0.012633853
49	0x3e351cc6	0.17686757
50	0x3db9171d	0.09037612
51	0x3dd6e233	0.10492363
52	0x3d810aea	0.0630091
53	0x3e857d7f	0.26072308
54	0x3e693633	0.22774582
55	0xbc2cba51	-0.010542468
56	0x3d0d0269	0.034426127
57	0x3e8d1ae1	0.2755957
58	0x3e9d91ee	0.30775398
59	0x3bd5dbac	0.006526431
60	0x3e979688	0.29607034
61	0x3ddbc28e	0.10730468
62	0x3e65925c	0.22419113
63	0xbd1828de	-0.03714835
64	0x3e44dbef	0.19224523
65	0x3e55f1a6	0.20892963
66	0xbd2c105c	-0.04200779
67	0x3e9a739a	0.30166322
68	0xbb83c2b7	-0.0040210146
69	0x3e906f7b	0.28210053
70	0x3e208529	0.15675797
71	0x3e459f2a	0.19298998
