model/best-GRU.pth (torch, 61703 bytes, 16 tensors)

gru.weight_ih_l0 f4 [96, 8]
0	0xbd3d7d25	-0.046261925
1	0xbe08a4ca	-0.13344112
2	0xbe0a88d1	-0.13528754
3	0xbcd771f0	-0.026299447
4	0xbe2344e2	-0.15944245
5	0x3d219f14	0.03945835
6	0x3c9b4188	0.018952146
7	0x3dc1f1fa	0.094699815
8	0x3d225bf1	0.039638463
9	0x3d89691f	0.067095034
10	0x3e1de251	0.15418364
11	0xbdd12f4b	-0.102140985
12	0x3c94be8e	0.01815727
13	0xbe079ff7	-0.13244615
14	0x3da0e6b0	0.078565
15	0xbe5df129	-0.21674027
16	0x3dda859d	0.10670016
17	0x3de588a2	0.11207701
18	0x3ddfb5da	0.10923357
19	0xbb2a18c0	-0.0025954694
20	0x3e368751	0.17825057
21	0xbe0071eb	-0.12543456
22	0x3d28cfe3	0.04121388
23	0xbe1e8079	-0.15478696
24	0x3e34ac2a	0.176438
25	0x3e22c868	0.15896761
26	0x3e1bd360	0.15217352
27	0xbcc04b88	-0.023473516
28	0x3e433c12	0.19065884
29	0x3d838db8	0.06423515
30	0xbc82a989	-0.015949981
31	0x3ae13dd6	0.0017184566
32	0x3db286a7	0.08717089
33	0x3e46ff90	0.19433427
34	0x3dcbdf42	0.099546924
35	0x3d8e6a34	0.069538504
36	0x3d1ac378	0.03778407
37	0xbca4e7c0	-0.020130038
38	0xbdbbdc86	-0.09172921
39	0xbd295ebc	-0.04135011
40	0xbe276b79	-0.16349591
41	0xbe30c1f7	-0.17261492
42	0x3d4ff1a2	0.05076755
43	0xbe20d13d	-0.15704818
44	0xbdc4420c	-0.0958291
45	0xbca5074b	-0.02014508
46	0x3e4ce164	0.20007855
47	0xbe2a2b6e	-0.1661813
48	0x3d3735d8	0.044729084
49	0x3e3590d4	0.17731029
50	0xbd894f5a	-0.06704588
51	0x3e2691f5	0.16266616
52	0xbdc6fdd5	-0.09716383
53	0x3c990411	0.018678697
54	0xbd125d35	-0.03573342
55	0x3e3f078d	0.18655224
56	0x3d9414cb	0.072305284
57	0xbe641703	-0.22274403
58	0xbe086672	-0.1332033
59	0x3de61f22	0.11236407
60	0x3e465f79	0.19372357
61	0xbe0af10d	-0.13568516
62	0xbc1ccc82	-0.009570243
63	0x3d0a7ba8	0.033809334
64	0x3df83057	0.12118595
65	0xbe374787	-0.1789838
66	0x3df19b08	0.11797148
67	0x3d25927c	0.0404229
68	0x3d877f88	0.066161215
69	0x3cb052ba	0.021523822
70	0xbda504c0	-0.080575466
71	0xbdd8f128	-0.10592872
72	0x3d64c740	0.055854082
73	0x3db83c06	0.089958236
74	0x3df91567	0.12162285
75	0xbe338f23	-0.17535071
76	0x3db3e6a0	0.087842226
77	0xbda75f86	-0.081725165
78	0xbe127fe2	-0.14306596
79	0x3da3c94b	0.07997378
80	0x3e0126b4	0.1261242
81	0x3db62bf8	0.08895105
82	0xbe004007	-0.12524424
83	0x3bc442a0	0.0059893876
84	0x3d0a80f0	0.03381437
85	0x3d925000	0.07144165
86	0x3db81f1d	0.089903094
87	0xbd25c446	-0.040470384
88	0xbe2309bf	-0.15921687
89	0xbdebf426	-0.11521177
90	0x3d1f138f	0.038837012
91	0x3e15691b	0.14590876
92	0x3e0a50fa	0.13507453
93	0xbdd26a35	-0.10274164
94	0xbd2a9a4c	-0.041651055
95	0x3d4801b1	0.048829738
96	0x3dd5d93d	0.104418255
97	0x3daf19e4	0.0854986
98	0x3d28a173	0.041169595
99	0x3b94c100	0.004539609
100	0x3e4c681b	0.19961588
101	0xbd724f0c	-0.059157416
102	0x3cee77f1	0.029109927
103	0xbda5dd7e	-0.08098887
104	0x3d88ee32	0.06686057
105	0xbd647241	-0.055773024
106	0x3c3eeed3	0.01165362
107	0x3d9488da	0.07252665
108	0xbd893709	-0.0669995
109	0x3c3c0916	0.011476776
110	0x3e34cb1d	0.17655607
111	0x3c3f9d14	0.011695165
112	0xbe4c54cd	-0.19954224
113	0xbd3d5ff0	-0.04623407
114	0xbde53dee	-0.11193453
115	0x3b7a8200	0.0038224459
116	0x3cc79ae8	0.024365857
117	0x3e26f6dd	0.16305108
118	0x3de38e7f	0.11111163
119	0x3d2d42b0	0.042299926
120	0xbe31a0b1	-0.17346455
121	0x3ded43da	0.11585207
122	0x3d973c19	0.073845096
123	0x3dcc4146	0.099733874
124	0xbe13d02a	-0.14434877
125	0xbd97a99d	-0.07405398
126	0x3cc1701e	0.023613032
127	0xbe022939	-0.12711038
128	0x3d45a70e	0.04825502
129	0x3d8ae6e8	0.06782323
130	0x3d10ff3c	0.03539966
131	0x3c979698	0.018504426
132	0x3e18e541	0.14931203
133	0x3cf9e849	0.03050627
134	0x3c28f411	0.010312096
135	0x3dd2bd51	0.102900155
136	0x3d9cabd4	0.07649961
137	0xbd9e3f89	-0.07726962
138	0x3b4b4511	0.0031016509
139	0x3e1fede1	0.15618087
140	0x3e7c4ca0	0.24638605
141	0x3e037919	0.12839164
142	0x3d45d824	0.04830183
143	0x3ca552b0	0.02018103
144	0xbdb9711f	-0.09054779
145	0xbdf14c81	-0.1178217
146	0xbe447017	-0.19183384
147	0x3db51bda	0.08843203
148	0x3cd0da65	0.025494764
149	0xbe6b612b	-0.22986285
150	0xbe095430	-0.13411021
151	0x3d486a74	0.048929647
152	0x3d86d0a2	0.06582762
153	0xbdfd4e52	-0.12368454
154	0x3d53c76a	0.051703848
155	0x3d123be0	0.035701632
156	0x3e4be39c	0.19911045
157	0xbe52e5d6	-0.20595488
158	0xbe25e11c	-0.16199154
159	0x3dff0922	0.12452914
160	0xbc93bb9c	-0.018033795
161	0xbe19e49c	-0.15028614
162	0xbe290785	-0.16506775
163	0xbdbc195d	-0.09184525
164	0x3e04ce01	0.12969209
165	0xbda9f27b	-0.082982026
166	0xbc3087eb	-0.010774593
167	0x3e3bc8e2	0.1833835
168	0x3e47bb1c	0.1950497
169	0x3d6363e9	0.055515204
170	0x3e346ae6	0.17618904
171	0x3dee8c46	0.11647849
172	0xbd764fb9	-0.060134623
173	0xbd272347	-0.040805127
174	0xbe6dd957	-0.2322744
175	0xbe03f8d5	-0.1288789
176	0xbdad2d45	-0.084559
177	0x3d983966	0.07432823
178	0xbdbbdd28	-0.091730416
179	0x3d56b43c	0.05241798
180	0xbdb3183f	-0.08744859
181	0xbcff3113	-0.03115133
182	0x3dd40f79	0.10354514
183	0xbe505c0b	-0.20347612
184	0x3d018fd6	0.031631313
185	0xbe222fc6	-0.15838537
186	0x3dd05ebf	0.101743214
187	0xbe0dd2cc	-0.13849944
188	0xbdff7d94	-0.12475124
189	0x3daa4933	0.08314743
190	0xbd121f1e	-0.035674207
191	0x3de5da2c	0.112232536
192	0xbc8f9e8e	-0.01753166
193	0xbd247e5a	-0.04015956
194	0xbd23b21e	-0.039964788
195	0x3c28ea20	0.010309726
196	0x3e372a8a	0.17887321
197	0x3dcb4c2d	0.09926639
198	0xbdd786b2	-0.10523738
199	0x3da1cd71	0.07900513
200	0x3d3b4ebe	0.04572939
201	0x3d8b0018	0.06787127
202	0x3e3497ad	0.17635985
203	0x3d4376b8	0.04772064
204	0xbdec96ac	-0.11552176
205	0xbe29eb1e	-0.16593596
206	0x3e38dbb5	0.18052562
207	0x3b77a96c	0.0037790192
208	0x3e2b82ac	0.16749066
209	0x3e362d21	0.17790653
210	0xbe0a0288	-0.13477528
211	0xbbeb5da0	-0.007182792
212	0x3db0cfa7	0.086333565
213	0x3e0f7dab	0.14012782
214	0x3dd290ca	0.102815226
215	0xbe1ceed0	-0.15325475
216	0x3d3795dd	0.044820655
217	0xbd1b277e	-0.03787946
218	0xbd00c162	-0.031434424
219	0x3be8fec0	0.0071104467
220	0x3d4b4e45	0.04963519
221	0x3dbf9426	0.09354429
222	0x3e524540	0.2053423
223	0x3e5f4d08	0.21806729
224	0x3d771a11	0.060327593
225	0x3e3dfaae	0.18552658
226	0x3e007d4e	0.125478
227	0x3d3b6174	0.045747235
228	0x3db91416	0.09037034
229	0xbdc81ef1	-0.097715266
230	0x3e0c492a	0.13699785
231	0xbe7a7bd6	-0.24461302
232	0xbcfe06b4	-0.031009056
233	0xbb4534e4	-0.003009134
234	0x3da2178e	0.07914649
235	0xbd773078	-0.060348958
236	0x3dda651a	0.10663815
237	0x3dd9e384	0.10639098
238	0x3db27188	0.087130606
239	0x3e6a9316	0.22907671
240	0x3cc2784e	0.023739006
241	0xbdf3a9d4	-0.118976265
242	0xbcbee81e	-0.023304041
243	0xbd74f964	-0.05980815
244	0xbcd9a100	-0.026566029
245	0x3e098ff1	0.13433816
246	0x3e10e49f	0.14149712
247	0x3c70e937	0.01470404
248	0x3e397dd9	0.18114413
249	0x3ced42dc	0.028962545
250	0xbdb4a88a	-0.08821209
251	0x3dd66f2e	0.104704246
252	0x3e1b7645	0.15181835
253	0x3d10c397	0.03534278
254	0xbd170d3c	-0.036877856
255	0xbd5ef0e3	-0.054428946

gru.weight_hh_l0 f4 [96, 32]
0	0xbe4d9e82	-0.20079997
1	0x3d803bc2	0.06261398
2	0xbca1d112	-0.019753013
3	0xbe090eea	-0.13384596
4	0xbe2f5025	-0.17120416
5	0x3dda7416	0.10666673
6	0xbcdaf323	-0.026727265
7	0x3e2fd992	0.1717284
8	0xbd578963	-0.052621257
9	0xbdbd770a	-0.092512205
10	0xbcd7d264	-0.02634544
11	0xbcfde7fd	-0.03099441
12	0xbc8ab266	-0.01693077
13	0x3e871207	0.2638094
14	0xbce754a7	-0.028238608
15	0x3d7ab4b0	0.061207473
16	0x3be12da0	0.006871894
17	0x3d11f2ac	0.03563182
18	0xbdc4c825	-0.09608487
19	0x3d3c2d4f	0.045941647
20	0xbe22fd5c	-0.15916961
21	0xbdc381b9	-0.09546227
22	0x3dcea787	0.10090547
23	0xbde23a73	-0.110463046
24	0x3e98055f	0.29691598
25	0xbe1aca6e	-0.15116283
26	0x3de04f04	0.10952571
27	0xbd95c172	-0.073122874
28	0xbe47a58c	-0.19496745
29	0xbe09e9b6	-0.1346806
30	0x3dfe6f8b	0.12423619
31	0x3c0a2ac6	0.00843305
32	0xba8327f6	-0.0010006416
33	0x3cab2782	0.020892862
34	0xbda0fea4	-0.07861069
35	0xbd468a68	-0.04847184
36	0x3c081d91	0.00830783
37	0x3d48ce4b	0.04902486
38	0xbd8730cd	-0.06601105
39	0xbdd06fe9	-0.10177595
40	0xbdb37406	-0.08762364
41	0x3e2ed356	0.17072806
42	0xbc797891	-0.015226499
43	0x3e61b246	0.22040662
44	0x3ceff875	0.029293278
45	0x3d998493	0.0749599
46	0xbe0886dd	-0.13332696
47	0x3d382150	0.044953644
48	0xbcdbe0e6	-0.026840638
49	0x3d7c5a72	0.061609693
50	0x3e313ae8	0.17307627
51	0x3e606f9f	0.2191758
52	0xbe0562f6	-0.13026032
53	0x3d812feb	0.06307968
54	0x3e2125e9	0.15737118
55	0xbe48dfe4	-0.19616657
56	0x3e2fc693	0.17165594
57	0xbe11f579	-0.14253797
58	0x3c53e886	0.012933856
59	0xbd3cb2b9	-0.04606888
60	0xbc934daa	-0.017981369
61	0x3dcbd177	0.099520616
62	0xbd9c783d	-0.07640121
63	0x3d893763	0.06700017
64	0xbdaf631d	-0.08563826
65	0xbca44f40	-0.02005732
66	0x3d9f7110	0.07785237
67	0xbc7e94f6	-0.015538445
68	0xbd36a253	-0.0445884
69	0x3e03208b	0.12805383
70	0x3e1c793c	0.15280622
71	0x3e081ca1	0.13292171
72	0x3d7c144b	0.06154279
73	0xbc132a8f	-0.008982315
74	0xbdd4d19c	-0.10391542
75	0x3da893ba	0.082313016
76	0xbc482d7b	-0.012217875
77	0xbe672553	-0.22572832
78	0xbe3598e6	-0.17734107
79	0x3d94ff6f	0.072752826
80	0x3dc6156e	0.09672056
81	0xbd9278f8	-0.07151979
82	0x3b808d91	0.003923126
83	0x3daa6705	0.08320431
84	0x3e316530	0.17323756
85	0x3c435742	0.011922659
86	0xbd747085	-0.05967762
87	0xbe0987bd	-0.13430686
88	0xbd4c5ba9	-0.0498921
89	0x3c626c2a	0.013819734
90	0x3c171b85	0.00922287
91	0x3da3022a	0.07959397
92	0x3cda1452	0.026621018
93	0x3e05fa41	0.13083746
94	0x3dbb6746	0.09150557
95	0xbe1e3053	-0.15448122
96	0x3dedbdc0	0.116084576
97	0x3d5d5e64	0.054045096
98	0x3e2a4c0d	0.16630574
99	0xbe2b3938	-0.16721046
100	0x3e4c8854	0.1997388
101	0x3e11f130	0.14252162
102	0x3dd4cc1c	0.10390493
103	0x3d93bc09	0.07213599
104	0xbbe3dc92	-0.0069537843
105	0xbcc706d7	-0.024295254
106	0x3ca30678	0.019900545
107	0x3e03a34d	0.12855263
108	0x3e0fc9df	0.14041851
109	0x3d86c8a0	0.06581235
110	0xbd96a7e4	-0.07356241
111	0x3e477da0	0.19481516
112	0xbe791006	-0.24322519
113	0x3e0e1bf7	0.13877855
114	0x3db5729a	0.08859749
115	0x3e27d2b8	0.16388977
116	0xbe466b6f	-0.1937692
117	0xbcb8869a	-0.02252512
118	0xbe4e887b	-0.2016925
119	0xbcef316f	-0.029198376
120	0xbe8b5d8f	-0.27219817
121	0x3dc0009d	0.09375117
122	0x3de141ad	0.10998855
123	0x3e6d47de	0.23171946
124	0x3dd6c7cd	0.10487328
125	0x3e5ef419	0.21772803
126	0xbe2f0584	-0.17091948
127	0xbc67a0bf	-0.014137446
128	0x3e28d641	0.16487981
129	0x3e034b80	0.1282177
130	0x3d9401e1	0.07226921
131	0xbde66451	-0.112496026
132	0xbd48c6af	-0.049017604
133	0x3e62211d	0.22082944
134	0xbe185d27	-0.14879285
135	0x3e47b774	0.19503576
136	0x3e05ff97	0.13085781
137	0x3ce0026e	0.027344909
138	0xbb14e482	-0.002271921
139	0x3dbfa757	0.093580894
140	0x3d404245	0.0469382
141	0x3c4ded57	0.012568793
142	0x3dfa1bde	0.122123465
143	0x3dcefe16	0.10107057
144	0xbe12b384	-0.14326292
145	0xbd634362	-0.055484183
146	0xbd43e1e7	-0.04782286
147	0x3d8bdf9f	0.06829762
148	0x3d896d83	0.06710341
149	0xbe42180c	-0.18954486
150	0xbe3201f5	-0.17383559
151	0xbe357a66	-0.17722473
152	0xbe3131e4	-0.17304188
153	0xbd2ed7fa	-0.04268644
154	0xbe058e5e	-0.1304259
155	0x3ca48305	0.020082006
156	0x3c803173	0.01564858
157	0xbce3990a	-0.027782936
158	0x3df7362a	0.12070878
159	0xbe573439	-0.21016015
160	0x3c869a34	0.016430952
161	0xbc897a8f	-0.016782073
162	0xbd02e4e8	-0.031956583
163	0x3e1bce00	0.15215302
164	0x3d27d99d	0.040979017
165	0x3dd0d627	0.10197096
166	0x3e1449f2	0.14481333
167	0xbd1b7042	-0.037948854
168	0xbd00ab26	-0.03141322
169	0x3d1d2306	0.03836348
170	0x3bc46b9d	0.005994274
171	0xbdc9caf7	-0.098531656
172	0x3e50ce55	0.2039121
173	0x3c79fba6	0.015257752
174	0x3d472912	0.048623152
175	0x3a6dd81e	0.00090730365
176	0xbca85d8a	-0.020552415
177	0xbb0a1830	-0.0021071546
178	0xbd80c1a8	-0.06286937
179	0x3e12c2ce	0.14332125
180	0x3d25a76c	0.04044287
181	0xbe2bd039	-0.1677865
182	0x3e2c3751	0.16817977
183	0x3ba87594	0.0051409695
184	0x3d80f6ac	0.06297049
185	0xbe0ab0c2	-0.1354399
186	0xbdd122fb	-0.1021175
187	0x3d1d2f10	0.03837496
188	0xbc9d4772	-0.019199107
189	0x3dd7c488	0.10535532
190	0x3db5cfa4	0.08877495
191	0xbdca3a14	-0.09874359
192	0xbc9d841b	-0.019228032
193	0xbd83e45e	-0.06440042
194	0x3d928a34	0.071552664
195	0x3d16dffc	0.036834702
196	0x3e77d414	0.24201995
197	0x3de4dc7b	0.11174866
198	0xbadb1e1e	-0.001671735
199	0xbdea412c	-0.11438212
200	0x3d42c90e	0.047555022
201	0xbe0d9af5	-0.13828643
202	0x3db44b9d	0.088034846
203	0xbd8f6878	-0.07002348
204	0xbe3919e9	-0.1807629
205	0x3d06c782	0.03290511
206	0xbdc3e63f	-0.095654
207	0x3dc6c218	0.09704989
208	0xbbd6020a	-0.006531005
209	0x3e389d6c	0.18028802
210	0xbe49dfc9	-0.19714274
211	0x3df42d90	0.11922753
212	0x3dc68fcd	0.096953966
213	0x3db211ee	0.08694826
214	0xbe801fdc	-0.25024307
215	0xbe3472e7	-0.17621957
216	0x3e55f48e	0.20894071
217	0x3e09cf74	0.13458043
218	0x3e1bc25c	0.15210861
219	0x3e39e853	0.18155031
220	0x3d42ea8e	0.04758697
221	0xbc469975	-0.012121548
222	0xbe421954	-0.18954974
223	0x3cc9d2d5	0.024636665
224	0x3d4bb085	0.04972889
225	0xbe0becbc	-0.13664526
226	0x3d59a51f	0.053135987
227	0x3e55eae8	0.20890391
228	0x3dd6d64d	0.104900934
229	0xbdc625bd	-0.09675167
230	0xbced20b7	-0.028946264
231	0xbdc3d9c0	-0.09563017
232	0x3ce74ab5	0.028233865
233	0x3e09fe03	0.13475804
234	0x3d9b1394	0.075720936
235	0xbd27959a	-0.040914156
236	0xbe227735	-0.15865786
237	0x3dae0b81	0.08498288
238	0x3c3414d9	0.010991299
239	0xbd988995	-0.07448117
240	0x3bc2529f	0.0059302594
241	0xbd2c1c1c	-0.042018995
242	0xbc3fd42a	-0.011708299
243	0x3dcbf837	0.099594526
244	0x3e68de8c	0.22741145
245	0xbc0621e7	-0.008186794
246	0x3c37f3a4	0.011227522
247	0x3d732c00	0.059368134
248	0xbe1340c6	-0.14380178
249	0xbe083100	-0.13299942
250	0xbce2cf73	-0.02768681
251	0x3c1ae6e2	0.009454461
252	0xbe0973ca	-0.13423076
253	0x3dc2132a	0.094763115
254	0x3e2dcba2	0.16972211
255	0xbdd44431	-0.10364569

gru.bias_ih_l0 f4 [96]
0	0xbe28c168	-0.16480029
1	0x3dbc40c9	0.09192044
2	0xbe046cbf	-0.12932108
3	0x3abed730	0.001455998
4	0x3e382a88	0.17984974
5	0x3d175fbc	0.036956534
6	0x3b145a62	0.002263688
7	0xbde4caf4	-0.11171523
8	0x3d31eac9	0.0434368
9	0x3e2a1179	0.16608228
10	0xbdcb30f4	-0.099214464
11	0xbd612366	-0.0549654
12	0x3dd46446	0.10370688
13	0x3dc1ffd8	0.094726264
14	0xbd0a9722	-0.033835538
15	0xbd8a3d5a	-0.06749983
16	0xbe0df1c3	-0.13861756
17	0x3def64cb	0.116891466
18	0x3de1642b	0.11005434
19	0x3d85b61f	0.065288775
20	0xbc18a1f2	-0.0093159545
21	0x3e6260e2	0.2210727
22	0xbe45f711	-0.1933253
23	0xbdc224fb	-0.0947971
24	0x3debe4c7	0.11518245
25	0xbe16cf66	-0.14727554
26	0xbdc2bf56	-0.09509151
27	0x3e1cd3eb	0.15315215
28	0xbd0b86d1	-0.034064118
29	0x3ab6880c	0.0013926043
30	0xbc6ee3f9	-0.01458072
31	0x3d78736f	0.06065696
32	0x3e44348c	0.1916067
33	0x3df5e16f	0.12005889
34	0x3ca4b577	0.02010606
35	0xbde5a38a	-0.11212833
36	0xbdc9a60e	-0.098461255
37	0xbe2a4571	-0.16628052
38	0xbe5f4f92	-0.21807697
39	0x3e04fab9	0.12986268
40	0x3db47b7d	0.08812616
41	0xbd8b190c	-0.06791887
42	0x3df03749	0.11729295
43	0x3d91fbbf	0.07128095
44	0x3de82ad3	0.11336293
45	0x3dbe27d3	0.092849396
46	0x3d1492a9	0.03627268
47	0xbe029ee0	-0.12755919
48	0x3db5a3dc	0.08869144
49	0x3d27f078	0.041000813
50	0xbc935820	-0.017986357
51	0xbe16854c	-0.14699286
52	0xbb38002f	-0.0028076281
53	0xbe238a8c	-0.1597082
54	0x3daaa3c3	0.08332016
55	0xbdefeb04	-0.117147475
56	0xbe2379ad	-0.15964384
57	0x3c55f3cc	0.013058614
58	0xbd9653fa	-0.07340236
59	0x3d591520	0.052998662
60	0x3d16a746	0.036780618
61	0x3e0e495a	0.13895169
62	0xbd51e073	-0.051239442
63	0x3dc710f5	0.09720031
64	0xbc6a037d	-0.014283058
65	0xbdd291b7	-0.10281699
66	0xbd86bb76	-0.06578724
67	0x3e092dd0	0.13396382
68	0x3c168dc3	0.009189072
69	0x3db288ad	0.08717475
70	0xbc8595c4	-0.016306765
71	0xbdedb550	-0.11606848
72	0xbe0effef	-0.13964818
73	0x3d53b96e	0.05169051
74	0xbdebe0d4	-0.11517492
75	0x3cca0219	0.024659203
76	0x3da9dfd2	0.082946435
77	0xbdb60320	-0.08887315
78	0x3d5fa018	0.054596037
79	0x3e248e6d	0.16069956
80	0x3c972db1	0.018454405
81	0xbe191d5d	-0.14952607
82	0xbd75cca4	-0.060009614
83	0x3db92d3c	0.09041831
84	0x3db6f0ee	0.089326724
85	0xbe0f5570	-0.13997436
86	0xbdefb629	-0.11704666
87	0xbda6baaf	-0.08141076
88	0xbd765c80	-0.06014681
89	0xbc38bc7e	-0.011275409
90	0x3d29f91e	0.041497342
91	0x3d6a5b11	0.057215754
92	0x3c184ca0	0.009295613
93	0x3bf7c7f3	0.0075616776
94	0xbd9e1e05	-0.077205695
95	0x3e4ff8ea	0.20309797

gru.bias_hh_l0 f4 [96]
0	0xbd5b027b	-0.053469162
1	0x3d12d771	0.035849992
2	0x3cf0eb02	0.029408935
3	0x3cda00aa	0.026611645
4	0x3e2678ef	0.1625707
5	0xbe15b6b7	-0.14620481
6	0x3e4f6822	0.20254567
7	0x3d9bfee6	0.076169774
8	0x3d67811d	0.056519616
9	0x3dc18afd	0.09450338
10	0x3d1cf987	0.038323905
11	0xbe03d925	-0.12875803
12	0x3c5235ca	0.012830207
13	0xbda5f8ec	-0.08104119
14	0xbe579f7a	-0.21056929
15	0x3df9b25d	0.12192223
16	0x3d0633e3	0.032764327
17	0xbd9583bb	-0.07300516
18	0xbe0e5d11	-0.1390269
19	0x3e455868	0.19272006
20	0x3daa78e1	0.08323837
21	0x3de13f49	0.10998399
22	0x3da16a95	0.07881657
23	0xbe2796fc	-0.1636619
24	0x3de0e49e	0.10981105
25	0x3e23c1fb	0.15991966
26	0x3dcaaf9d	0.09896777
27	0x3dfb39e3	0.122669004
28	0xbd147cd1	-0.036251847
29	0x3e7d0045	0.24707134
30	0xbdd285eb	-0.10279449
31	0x3d9291b7	0.07156699
32	0x3e11dab4	0.14243585
33	0xbcd51d00	-0.026014805
34	0xbe7209a5	-0.23636492
35	0x3e3826d1	0.17983557
36	0x3d38feba	0.0451648
37	0x3e09a44b	0.13441579
38	0x3d5777a8	0.052604347
39	0xbe37bcb4	-0.17943078
40	0xbce46943	-0.027882224
41	0xbe645e46	-0.22301587
42	0xbe40d5ab	-0.18831508
43	0x3e03df83	0.12878232
44	0xbe23aa0d	-0.15982838
45	0xbe069d0b	-0.13145845
46	0xbd5d0960	-0.05396402
47	0x3df53d08	0.119745314
48	0x3cbf1c1f	0.023328839
49	0xbdcb9266	-0.09940033
50	0xbdfe2be4	-0.12410715
51	0x3d4b21b1	0.049592678
52	0x3d7e3ca3	0.062069546
53	0x3be8b419	0.0071015474
54	0x3b9749e9	0.004616965
55	0xbaeea926	-0.0018208369
56	0x3da13eba	0.07873292
57	0x3d155958	0.036462158
58	0x3d828260	0.06372523
59	0xbde1c20e	-0.11023341
60	0xbdab908c	-0.083771795
61	0x3e1905c3	0.14943604
62	0xbe25f5ac	-0.16206998
63	0xbe42aba0	-0.19010782
64	0x3dd1ad76	0.10238163
65	0x3dadc237	0.08484309
66	0xbdebddc5	-0.115169086
67	0x3cbf3be8	0.023343995
68	0x3cb3f3d6	0.021966856
69	0x3cfcbbcb	0.030851265
70	0x3cfb04ee	0.030642
71	0xbd2f7e4d	-0.04284506
72	0x3e214f1c	0.15752834
73	0xbd696929	-0.056985054
74	0xbe23fa4f	-0.16013454
75	0xbe1be92b	-0.15225665
76	0x3d72eef0	0.0593099
77	0x3e41ea54	0.18937045
78	0xbde169b0	-0.110064864
79	0xbd39f9c1	-0.0454042
80	0x3d3989cf	0.04529744
81	0x3e098395	0.13429101
82	0x3ccfdb42	0.025373105
83	0xbd6575b0	-0.05602044
84	0xbc3897e8	-0.011266686
85	0x3df55ee3	0.11980989
86	0xbd204d8c	-0.039136454
87	0xbde2a61e	-0.110668406
88	0x3dc7e902	0.097612396
89	0xbe04df3f	-0.12975787
90	0xbe2824e7	-0.16420327
91	0xbe120719	-0.1426052
92	0xbcb7d3f9	-0.022439944
93	0xbe361d46	-0.17784604
94	0xbdb073ff	-0.086158745
95	0xbcfeafb1	-0.031089636

gru.weight_ih_l1 f4 [96, 32]
0	0xbd9a4cd5	-0.07534186
1	0x3e3c0a51	0.1836331
2	0x3d1b03cd	0.03784542
3	0x3e07339d	0.13203283
4	0xbd353ca4	-0.044247285
5	0xbdd75d08	-0.10515791
6	0xbe0ec43b	-0.13942043
7	0xbe7dfea8	-0.24804175
8	0xbe2bf2a1	-0.16791774
9	0x3e4bbde6	0.1989666
10	0x39d115c1	0.00039879794
11	0x3d0a94c0	0.033833265
12	0x3d984819	0.074356265
13	0x3dfa57d5	0.12223784
14	0xbe174c30	-0.14775157
15	0xbe14f0e9	-0.14545025
16	0xbdb168e9	-0.08662588
17	0x3ce53cd2	0.027983103
18	0x3dcb1539	0.09916157
19	0x3ce3ea66	0.02782173
20	0xbd4f3404	-0.050586715
21	0x3d27b129	0.040940437
22	0x3e141fb6	0.14465222
23	0x3e199dea	0.15001646
24	0xbe845ecb	-0.2585357
25	0x3e312a45	0.17301281
26	0xbd80247e	-0.0625696
27	0xbd660a49	-0.056162152
28	0x3e0dc8b1	0.13846089
29	0x3d7a5afa	0.06112192
30	0x3d541773	0.051780175
31	0xbde48cd3	-0.111596726
32	0x3e5bd40a	0.21467605
33	0xbd0193e9	-0.0316352
34	0x3d9ff54c	0.078104585
35	0x3d85775c	0.065169066
36	0x3ddbea23	0.107380174
37	0x3dc3d953	0.09562936
38	0x3bcbd1b8	0.006220069
39	0xbd34fd40	-0.04418683
40	0xbdb8fe3b	-0.090328656
41	0x3e31487a	0.17312804
42	0x3e12000f	0.14257835
43	0x3de464ff	0.11152076
44	0x3d1a8c6f	0.037731584
45	0xbdc9381b	-0.098251544
46	0xbe38d1d1	-0.18048789
47	0xbd304ee5	-0.04304399
48	0x3c8885b0	0.01666531
49	0xbdaead09	-0.085290976
50	0xbc006765	-0.007837151
51	0x3d9660af	0.0734266
52	0xbe31ab06	-0.17350397
53	0x3e0850b0	0.1331203
54	0xbd9c2c06	-0.07625584
55	0x3d13b69d	0.036062825
56	0x3dae28cc	0.08503875
57	0x3dbf8374	0.093512446
58	0xbd0e3d71	-0.034726564
59	0x3d99ccae	0.07509743
60	0xbd0ceefb	-0.034407597
61	0xbd004df5	-0.031324346
62	0xbdea9bb6	-0.11455481
63	0xbd5ae1e1	-0.05343807
64	0xbdbf1314	-0.09329811
65	0xbe2492f9	-0.1607169
66	0x3d719c16	0.058986746
67	0x3da7bc8a	0.08190258
68	0xbe0b3622	-0.13594869
69	0xbccf57de	-0.025310453
70	0xbe4d0301	-0.20020677
71	0x3d8c61cd	0.068545915
72	0x3d85548a	0.06510265
73	0x3d1ecd31	0.038769905
74	0xbd68bbb9	-0.05681965
75	0xbd9be9dd	-0.07612965
76	0xbe5b8a9f	-0.21439599
77	0xbe27a4d6	-0.16371474
78	0x3defc36c	0.11707196
79	0xbdc7631e	-0.09735702
80	0xbd726134	-0.05917473
81	0xbd7b3584	-0.061330333
82	0xbe5eb346	-0.21748075
83	0x3c6a40ae	0.014297647
84	0xbe1425b0	-0.14467502
85	0x3d0b9be9	0.034084234
86	0x3da471e2	0.08029534
87	0xbe335b6d	-0.17515345
88	0xbd2ac97d	-0.04169606
89	0x3e1757b4	0.1477955
90	0x3e0d9a66	0.1382843
91	0x3b80b40e	0.003927714
92	0x3e1c5553	0.15266924
93	0x3dd7f743	0.10545208
94	0x3e04509f	0.1292138
95	0x3d957303	0.07297327
96	0x3c109f3a	0.008827025
97	0xbd5f93d7	-0.05458435
98	0x3e01ec82	0.12687877
99	0x3d8e877a	0.06959434
100	0x3db974f3	0.090555094
101	0x3d2f65a0	0.042821527
102	0xbd06aadb	-0.032877784
103	0x3e2070a1	0.15667965
104	0xbe1e1e97	-0.15441357
105	0xbe2991de	-0.1655955
106	0x3de10028	0.10986358
107	0x3e18f81f	0.149384
108	0x3d858f46	0.06521468
109	0x3c931413	0.017953908
110	0x3e0b10dc	0.1358065
111	0xbd41d3ac	-0.047321007
112	0xbe2a1ec2	-0.16613296
113	0x3c912f0b	0.017722627
114	0x3dd26f64	0.10275152
115	0x3c45b5fe	0.012067316
116	0xbc94cbdd	-0.018163616
117	0xbe1479e0	-0.14499617
118	0x3e7aab95	0.24479516
119	0x3d8fb934	0.070177466
120	0x3d8af7cf	0.06785547
121	0xbe30a684	-0.1725102
122	0xbe67b988	-0.22629368
123	0xbe25e460	-0.162004
124	0xbd0c7d25	-0.034299035
125	0xbddd6a6a	-0.108113125
126	0x3dbcd60d	0.092205144
127	0xbd13cfd0	-0.036086857
128	0x3d1c69b3	0.03818674
129	0x3b608846	0.0034260913
130	0xbd4cd5d7	-0.05000862
131	0xbe1dbbc7	-0.15403663
132	0xbd057c35	-0.032589156
133	0x3dd7d464	0.10538557
134	0xbe6ef56b	-0.23335807
135	0x3dae96f7	0.08524888
136	0x3df9be63	0.121945165
137	0xbddc9f3c	-0.10772559
138	0x3d18d5c5	0.03731324
139	0xbd08a913	-0.033364367
140	0xbe09c8f1	-0.1345556
141	0x3d997509	0.07493026
142	0xbe32aeec	-0.1744954
143	0x3e455ef9	0.1927451
144	0x3d8aa252	0.067692414
145	0xbdc843de	-0.0977857
146	0xbe6fda2f	-0.23423074
147	0xbdaefae6	-0.08543949
148	0x3b7d2904	0.0038629184
149	0xbe17098b	-0.14749734
150	0x3ddca425	0.107734956
151	0x3cf45205	0.029824266
152	0x3ddd278c	0.107985586
153	0x3d5d95f7	0.054098096
154	0xbb594c5c	-0.0033157086
155	0xbc136862	-0.008997055
156	0xbd99e026	-0.07513456
157	0x3cccad52	0.02498499
158	0x3807b39a	3.2353775e-05
159	0x3c5a14ff	0.01331067
160	0x3c803607	0.015650762
161	0x3c398be3	0.0113248555
162	0xbddf5570	-0.10904968
163	0x3dc114be	0.094277844
164	0x3e13814b	0.1440479
165	0xbe0fe8c7	-0.14053641
166	0xbc2a02a2	-0.010376604
167	0x3a445208	0.000748903
168	0x3defbf4c	0.11706409
169	0x3d3e9a3b	0.046533804
170	0xbe595806	-0.21224985
171	0x3d8837a3	0.06651237
172	0x3d584935	0.05280419
173	0xbe0ed3b7	-0.1394795
174	0x3e19deee	0.15026447
175	0x3d5841c3	0.05279709
176	0x3e273d03	0.16331868
177	0x3e1a202b	0.15051334
178	0x3d6e1f3e	0.058135264
179	0xbe23673f	-0.15957354
180	0x3c0f713d	0.008755025
181	0xbd70c5d0	-0.0587824
182	0xbdfcb508	-0.123392165
183	0x3d653aeb	0.05596439
184	0xbde53287	-0.11191278
185	0xbd033121	-0.032029275
186	0x3d97bbfc	0.07408902
187	0xbcb18bec	-0.021673165
188	0x3caf67fa	0.021411885
189	0x3d943bbb	0.07237955
190	0x3c64de21	0.013968975
191	0x3ba48191	0.0050203283
192	0x3e14c71a	0.14529076
193	0x3e381a43	0.17978768
194	0x3d1799ef	0.037012037
195	0xbbdc7249	-0.006727491
196	0xbd0559ae	-0.03255623
197	0x3e45d088	0.1931783
198	0x3daa3022	0.08309962
199	0x3bb6e399	0.005581331
200	0x3e01ca67	0.12674867
201	0xbd40c43d	-0.047062147
202	0x3d7fd998	0.062463373
203	0xbc29d2cb	-0.010365198
204	0x3d2eeef2	0.042708345
205	0xbe5d1c00	-0.21592712
206	0xbc795498	-0.015217923
207	0x3d9e1fb3	0.0772089
208	0xbe3d3b3b	-0.18479626
209	0x3c977aa7	0.018491102
210	0xbd48681e	-0.04892742
211	0x3ce67e2f	0.02813634
212	0x3e36a227	0.17835294
213	0x3e0e1bf8	0.13877857
214	0x3d0bf24c	0.03416662
215	0xbe37e34b	-0.17957799
216	0x3d8c92d1	0.068639405
217	0x3c62124d	0.013798309
218	0x3d09f661	0.03368223
219	0x3e1317f3	0.14364605
220	0x3e6ec9e3	0.23319201
221	0x3c94bf55	0.01815764
222	0xbe059fbd	-0.13049217
223	0xbd5a21b0	-0.053254783
224	0x3d966fe7	0.073455624
225	0x3c6b60be	0.014366327
226	0x3ca61262	0.020272437
227	0x3d6071e5	0.05479612
228	0xbcf53ba4	-0.029935665
229	0x3e2ef605	0.17086037
230	0x3e03489d	0.12820669
231	0x3e846d3d	0.25864592
232	0x3e15a63c	0.14614195
233	0xbe2b042d	-0.16700812
234	0xbd559ec9	-0.052153382
235	0x3d900869	0.07032854
236	0x3d7a476a	0.061103262
237	0xbe43e100	-0.191288
238	0x3d26dd2c	0.04073827
239	0xbd610227	-0.054933693
240	0xbe117d5f	-0.14207982
241	0xbd61c837	-0.05512258
242	0x3d8f8f14	0.07009712
243	0x3e3eab8b	0.18620126
244	0xbcff3936	-0.03115521
245	0xbd2dd42b	-0.042438667
246	0xbd15f34c	-0.03660898
247	0xbe0ce8f1	-0.13760735
248	0x3d3c3552	0.045949288
249	0x3cb57c1f	0.022153912
250	0x3e68d4f5	0.22737487
251	0x3e16d68a	0.14730278
252	0xbd68d12b	-0.056840103
253	0xbdc8edf1	-0.09811009
254	0xbe6b4b2d	-0.22977896
255	0xbd8dec53	-0.06929841

gru.weight_hh_l1 f4 [96, 32]
0	0xbdbdc971	-0.092669375
1	0xbdc36d98	-0.09542388
2	0x3d0d3431	0.0344736
3	0x3d82646f	0.063668124
4	0x3b983eff	0.0046461816
5	0xbda3f6e9	-0.08006079
6	0xbe420080	-0.18945503
7	0x3ceaffd2	0.028686438
8	0x3e0e0fe0	0.13873243
9	0x3e594df9	0.2122115
10	0xbddb7e85	-0.10717491
11	0xbde380e6	-0.1110857
12	0xbd92be8a	-0.07165249
13	0x3e3046df	0.17214535
14	0xbd388690	-0.045050204
15	0xbd40348b	-0.04692511
16	0xbe05d169	-0.13068165
17	0xbd0c2c24	-0.034221783
18	0x3df8b6a3	0.1214421
19	0xbe2dd323	-0.16975074
20	0x3d5cb6f9	0.053885434
21	0xbdf59898	-0.119919956
22	0xbe2b65fb	-0.16738121
23	0x3cb83c24	0.022489615
24	0xbd81f6d0	-0.06345904
25	0x3d0c2b62	0.03422106
26	0xbd9d87c7	-0.07691913
27	0xbdf8189c	-0.12114069
28	0xbdbdcdfb	-0.09267803
29	0x3e84e7b7	0.25958034
30	0x3df9204f	0.121643655
31	0xbe6cacc3	-0.23112778
32	0x3e506ecb	0.20354764
33	0x3d89fd75	0.06737796
34	0xbd867302	-0.06564905
35	0xbe3d555a	-0.1848959
36	0xbe786a25	-0.24259241
37	0xbd7661e0	-0.060151935
38	0xbe18f0d9	-0.14935626
39	0xbe96b3df	-0.29434106
40	0x3df8648c	0.12128553
41	0xbc876cac	-0.016531311
42	0xbe501dbb	-0.20323841
43	0x3e00ea97	0.12589489
44	0xbda6666d	-0.08125005
45	0x3d4de239	0.05026457
46	0x3e171ec7	0.14757834
47	0xbe8b31f3	-0.27186546
48	0xbd3c7459	-0.046009395
49	0x3e823129	0.2542813
50	0x3d86da3c	0.06584594
51	0xbe604163	-0.21899943
52	0x3c48c4d8	0.012253962
53	0x3e15cb41	0.14628316
54	0x3d9363b6	0.07196753
55	0xbe2e04a3	-0.16993956
56	0x3e7bbf7e	0.24584767
57	0xbd989771	-0.0745076
58	0xb99b2ad3	-0.0002959581
59	0x3e086a5a	0.1332182
60	0x3d94f36e	0.07272993
61	0x3e1e4aa6	0.15458164
62	0x3e17d7a1	0.1482835
63	0xbdd8dc39	-0.10588879
64	0x3e86b7df	0.26312158
65	0xbe0c88bf	-0.1372404
66	0x3e59bf1a	0.21264306
67	0x3e13221e	0.14368483
68	0xbce70c5a	-0.028204132
69	0x3d6e9b1e	0.0582534
70	0x3d21def2	0.039519258
71	0x3bbf338d	0.0058350028
72	0x3d40ec91	0.047100607
73	0x3e006dcd	0.12541886
74	0x3b85dd8d	0.004085249
75	0x3d050ced	0.03248303
76	0xbb9a6c3c	-0.0047126096
77	0x3e008269	0.12549748
78	0xbd98faba	-0.07469697
79	0x3d21cab9	0.039499972
80	0xbc83b80e	-0.016078975
81	0x3d18d464	0.037311926
82	0xbdb39711	-0.08769048
83	0x3c2c92a2	0.010533007
84	0xbe1a1597	-0.15047298
85	0xbda80c9c	-0.0820553
86	0xbd74a6f4	-0.05972953
87	0x3d39c980	0.04535818
88	0x3c1a45d4	0.009416062
89	0xbb77e519	-0.0037825762
90	0x3dc668b9	0.09687943
91	0xbe1de4a5	-0.15419252
92	0xbc5864c8	-0.013207622
93	0x3e176f11	0.14788462
94	0x3e329132	0.174382
95	0xbe486ba7	-0.19572316
96	0xbdc0184a	-0.09379633
97	0x3d974aea	0.073873356
98	0x3ddfacda	0.10921641
99	0x3c01fb8f	0.007933511
100	0xbe521670	-0.20516372
101	0x3da91df8	0.08257669
102	0x3cbf5b4c	0.023358963
103	0xbd1ed6f9	-0.038779233
104	0x3c833f54	0.016021408
105	0xbdcfec77	-0.10152524
106	0xbdf563e8	-0.11981946
107	0x3ba05195	0.004892538
108	0x3dbf60bb	0.09344622
109	0x3e29a6b6	0.16567501
110	0x3d9e4ef4	0.07729903
111	0xbdfff94a	-0.1249872
112	0x3cb6b03a	0.022300828
113	0x3c5837a4	0.0131968595
114	0xbc81c1a9	-0.015839415
115	0xbd993859	-0.074814506
116	0x3d020161	0.031739596
117	0xbe5d1e5c	-0.21593612
118	0x3e6db469	0.23213352
119	0x3de5858e	0.11207114
120	0x3d762786	0.060096286
121	0x3a67f202	0.00088480127
122	0xbda2fc0e	-0.07958232
123	0xbcb65856	-0.022258919
124	0xbe39e345	-0.18153103
125	0xbcf8ee2d	-0.030387009
126	0xbda91c81	-0.0825739
127	0xbdb4b48c	-0.08823499
128	0x3dab1517	0.08353632
129	0xbd9e6d0f	-0.07735645
130	0xbcf56eb6	-0.029960018
131	0xbdb1b0df	-0.086763136
132	0x3de9a9f4	0.11409369
133	0x3dc32a83	0.09529593
134	0x3d7f53e8	0.06233588
135	0xbddc5991	-0.10759271
136	0xbd9921b9	-0.07477135
137	0xbe414b1b	-0.18876307
138	0x3dd634d2	0.104592934
139	0xbdbcd118	-0.09219569
140	0x3dcef245	0.10104803
141	0xbc353e49	-0.011062213
142	0xbc0930e1	-0.00837347
143	0x3dd3654e	0.10322057
144	0x3e20c36e	0.1569955
145	0xbd6eea40	-0.058328867
146	0x3dfd2701	0.12360955
147	0xbe09ed39	-0.134694
148	0xbd89ccca	-0.067285135
149	0x3e8a839b	0.27053532
150	0x3c0837e6	0.0083141085
151	0xbe48cbd6	-0.19609007
152	0xbe612736	-0.21987614
153	0x3e5bd24f	0.21466945
154	0x3e726c66	0.23674163
155	0x3d7d7e70	0.06188816
156	0xbdb4f5cb	-0.08835944
157	0xbd12eba8	-0.03586927
158	0xbcd6f143	-0.02623809
159	0xbd28b5e7	-0.0411891
160	0xbcd9b62e	-0.026576128
161	0xbcee0e9b	-0.029059699
162	0xbe2b40ec	-0.16723984
163	0x3d16f81f	0.03685772
164	0xbdadaf13	-0.084806584
165	0xbd4f3b58	-0.050593704
166	0xbd0a78d9	-0.033806656
167	0xbe02275d	-0.12710328
168	0xbe1616d4	-0.14657146
169	0xbd933bd8	-0.07189149
170	0xbda87286	-0.082249686
171	0xbe1fafa4	-0.15594345
172	0xbd7cebb2	-0.061748214
173	0x3d6a282e	0.057167225
174	0xbe3dc9b4	-0.18533975
175	0xbdfad210	-0.122470975
176	0x3e03961e	0.12850234
177	0xbd44ae66	-0.04801788
178	0x3e25a2c8	0.16175377
179	0x3cf9f548	0.030512467
180	0x3e18c75d	0.14919801
181	0x3e0ba23e	0.13636109
182	0x3db58edc	0.08865139
183	0x3b5d1801	0.0033736231
184	0xbe3d5156	-0.18488058
185	0x3dfe1e11	0.124080785
186	0x3e28e996	0.16495356
187	0x3e2c3941	0.16818716
188	0xbde6315d	-0.11239884
189	0x3c34b9a3	0.011030587
190	0x3d9cf543	0.076639675
191	0xbd1a3f78	-0.037658185
192	0x3dbedd65	0.093195714
193	0xbd2310c8	-0.039810926
194	0x3e03672a	0.12832323
195	0x3c10691e	0.008814124
196	0xbd954792	-0.072890416
197	0x3de58b29	0.11208183
198	0xbe2abe70	-0.16674209
199	0xbd6b40b7	-0.057434764
200	0x3e10deed	0.1414754
201	0xbd95bc14	-0.07311264
202	0x3d02ac35	0.03190251
203	0x3d152daa	0.0364205
204	0x3d74fe3d	0.059812773
205	0x3e334d20	0.1750989
206	0x3e734b96	0.23759302
207	0xbe53a5f9	-0.20668782
208	0xbe13ded8	-0.14440477
209	0x3ca588cf	0.020206837
210	0xbcd94d76	-0.026526194
211	0xbd9c96cb	-0.07645949
212	0xbe9805dd	-0.29691973
213	0xbe103bd3	-0.14085321
214	0xbe03df0c	-0.12878054
215	0xbe18f2fb	-0.1493644
216	0x3dfb6cf0	0.122766376
217	0xbe99730a	-0.2997058
218	0x3e0dda34	0.13852769
219	0xbe12a72a	-0.1432158
220	0x3e8b8edc	0.2725743
221	0x3e6455cb	0.22298352
222	0x3e223c90	0.15843415
223	0xbc99f79e	-0.01879483
224	0x3e39d6b9	0.18148316
225	0xbe4abbec	-0.19798249
226	0xbd6aeb84	-0.05735351
227	0x3da65589	0.08121783
228	0x3d001958	0.03127417
229	0x3dea2082	0.114319816
230	0x3d92af0d	0.071622945
231	0xbe60e9fd	-0.2196426
232	0x3cdc8228	0.026917532
233	0x3e0256d4	0.12728435
234	0x3d4af183	0.04954673
235	0x3e216146	0.15759763
236	0xbde9036d	-0.113776065
237	0xbdaa9d63	-0.083308004
238	0x3e3b728a	0.18305412
239	0x3e1a1bb2	0.15049627
240	0x3e01a1d3	0.12659387
241	0x3e53fb22	0.20701268
242	0xbdb5f46f	-0.08884513
243	0xbc102338	-0.008797459
244	0x3d121352	0.035662957
245	0x3df4937b	0.11942192
246	0xbe1cf8fc	-0.15329355
247	0xbe5451c0	-0.2073431
248	0xbdc25801	-0.09489442
249	0xbe103f83	-0.14086728
250	0x3dde7c13	0.10863509
251	0xbdcbd555	-0.09952799
252	0xbd538618	-0.051641554
253	0x3e2cd5f4	0.16878492
254	0xbe19d317	-0.1502193
255	0xbe137747	-0.1440097

gru.bias_ih_l1 f4 [96]
0	0x3d369480	0.044575214
1	0xbd79e7f4	-0.061012223
2	0xbde4c887	-0.1117106
3	0x3e1baed7	0.15203415
4	0x3e395612	0.1809924
5	0xbdea3464	-0.11435774
6	0xbe14561c	-0.14485973
7	0x3e131314	0.14362746
8	0x3e13cf4d	0.14434548
9	0xbdf0a2d7	-0.11749809
10	0xbce56d19	-0.028006123
11	0x3e8f22f0	0.27956343
12	0xbe147b3c	-0.14500135
13	0xbcfd931f	-0.030953942
14	0x3e2c2320	0.16810274
15	0xbb0f594e	-0.0021873298
16	0xbd83334a	-0.06406267
17	0x3d171860	0.03688848
18	0x3bbf6414	0.0058407877
19	0x3d91ed01	0.07125283
20	0x3e131c9a	0.1436638
21	0xbc2d47a7	-0.010576165
22	0x3cf32fa2	0.029685799
23	0x3dd36835	0.1032261
24	0x3e09f6b5	0.13473018
25	0x3e28911e	0.16461608
26	0x3d9afb6f	0.075674884
27	0xbde0f987	-0.109850936
28	0xbb4c4e3b	-0.0031174559
29	0xbdbd1e33	-0.09234276
30	0xbdcf8364	-0.10132483
31	0x3e049e55	0.12951024
32	0x3df78127	0.12085181
33	0xbdbef08f	-0.09323227
34	0x3d3cac2f	0.046062645
35	0xbc7e3684	-0.015515927
36	0xbdaf08b8	-0.08546585
37	0xbe263ebb	-0.16234867
38	0x3df908bc	0.12159869
39	0x3e386360	0.18006659
40	0x3d9f29fe	0.07771681
41	0x3d3a17e4	0.04543294
42	0xbd7c6a97	-0.06162509
43	0xbdfae4f7	-0.12250703
44	0x3d573d33	0.0525486
45	0xbdf1fc4b	-0.11815699
46	0xbca5c8e4	-0.020237394
47	0x3e13a571	0.1441858
48	0xbdf5d916	-0.120042965
49	0xbdc850f0	-0.097810626
50	0x3dc71e8b	0.097226225
51	0xbd49e877	-0.04929396
52	0x3e2b0747	0.16701995
53	0xbd6a46c5	-0.057196397
54	0xbd877610	-0.066143155
55	0x3dc63dee	0.09679781
56	0x3dbbe2c5	0.09174112
57	0xbc501aaa	-0.01270167
58	0xbcaee275	-0.021348218
59	0xbd5ff67a	-0.054678418
60	0xbddfd90b	-0.109300695
61	0x3e78285a	0.24234143
62	0xbde3e88f	-0.111283414
63	0xbd84adb5	-0.064784445
64	0xbdbc07cc	-0.09181175
65	0x3dba57fe	0.090988144
66	0xbe0f90c5	-0.14020069
67	0x3d595a5f	0.0530647
68	0x3d6cfeb6	0.0578601
69	0x3e55c945	0.2087756
70	0xbdd5beb8	-0.10436767
71	0xbdc079da	-0.09398241
72	0xbdbcd9c4	-0.09221223
73	0xbdbedc88	-0.09319407
74	0xbe0a4042	-0.13501075
75	0xbda9d390	-0.082923055
76	0xbe275acc	-0.1634323
77	0xbcdaeb9b	-0.026723674
78	0x3d81d36f	0.06339156
79	0x3e1a1f55	0.15051015
80	0x3cadcf4b	0.021217009
81	0x3e28bc85	0.16478164
82	0xbdf88eee	-0.12136637
83	0x3dfc726b	0.12326511
84	0x3e280734	0.16408998
85	0x3e69720d	0.22797413
86	0xbd37c889	-0.04486898
87	0xb98f1613	-0.00027291532
88	0x3cccac18	0.024984404
89	0xbd8d2184	-0.06891158
90	0x3d144ace	0.03620415
91	0xbdf2a013	-0.11846938
92	0x398b9508	0.00026623183
93	0x3e0545d1	0.13014914
94	0x3dd8ad4e	0.1057993
95	0x3e3314e0	0.17488432

gru.bias_hh_l1 f4 [96]
0	0x3d6055d4	0.054769352
1	0xbd301d9d	-0.04299699
2	0xbdc25b47	-0.09490066
3	0xbe2cd359	-0.16877498
4	0xbd0c56f6	-0.03426262
5	0xbd8e0b6d	-0.06935773
6	0xbdb9eade	-0.090780005
7	0xbad15bea	-0.0015972827
8	0x3df51fce	0.11968957
9	0x3e2bf32e	0.16791984
10	0xbdf6ed76	-0.12057011
11	0x3e91c157	0.2846782
12	0xbde6e0e4	-0.11273363
13	0x3af5fb9b	0.0018767001
14	0x3cc1baae	0.023648586
15	0x3e0dbc95	0.1384147
16	0x3e129fd4	0.14318782
17	0x3dece469	0.11567003
18	0xbdc7950a	-0.09745224
19	0x3c964047	0.018341197
20	0x3c6806a3	0.014161739
21	0xbd860ef1	-0.065458186
22	0x3bdb439e	0.00669141
23	0xbc9d3241	-0.019189002
24	0x3d4f0b1e	0.05054771
25	0x3dd15960	0.10222125
26	0xbdb69794	-0.0891563
27	0x3cc5bd87	0.024138225
28	0x3d6ba5f8	0.057531327
29	0x3e4ae5f5	0.19814284
30	0x3e1d74a4	0.15376526
31	0x3df11b28	0.11772758
32	0xbe27f7a1	-0.16403057
33	0x3b86e085	0.0041161203
34	0x3e3f222f	0.18665384
35	0xbd6c56b0	-0.05769986
36	0x3d714a90	0.058909
37	0xbb84656b	-0.0040404103
38	0x3e19501d	0.14971967
39	0xbdacbd0a	-0.08434494
40	0xbd5949cb	-0.05304889
41	0xbdd066a6	-0.10175829
42	0x3ca6ec22	0.020376269
43	0x3dabe3be	0.08393048
44	0x3e1409a0	0.14456797
45	0xbde75705	-0.112958945
46	0x3c0138fb	0.00788712
47	0xbdaa8de0	-0.08327842
48	0x3de3ba2a	0.11119492
49	0x3e3fd0df	0.18732022
50	0x3e0986bc	0.13430303
51	0x3d8e1f11	0.06939519
52	0xbcc58492	-0.024111066
53	0xbdcb2aca	-0.09920271
54	0x3bab44ce	0.005226708
55	0x3d1831bc	0.037156805
56	0x3dfe2d12	0.1241094
57	0xbd402f6f	-0.046920236
58	0xbd159053	-0.03651459
59	0xbd1be3cd	-0.038059045
60	0x3d481824	0.048851147
61	0xbd4bc71e	-0.04975044
62	0xbdb7384b	-0.08946284
63	0x3e160f9b	0.1465439
64	0x3e2b8160	0.16748571
65	0xbe5dd597	-0.2166351
66	0x3e5d9157	0.21637474
67	0x3deaa335	0.114569105
68	0xbdab77f1	-0.083724864
69	0x3e2de0ec	0.16980332
70	0xbe045595	-0.12923272
71	0xbe2b5498	-0.16731489
72	0x3e37249d	0.1788506
73	0x3e492e84	0.1964665
74	0xbcbc958e	-0.023020532
75	0x3e56dfe2	0.20983842
76	0xbe0154c5	-0.12629993
77	0xbdd4b05c	-0.103852004
78	0x3dcf3fad	0.10119567
79	0x3e53198e	0.20615217
80	0xbe1c439d	-0.15260167
81	0xbd06b26d	-0.032885004
82	0x3e598663	0.2124267
83	0xbe060669	-0.13088383
84	0xbe514b98	-0.20438993
85	0x3d32940a	0.043598212
86	0xbe133f91	-0.14379717
87	0x3e340acd	0.17582245
88	0xbd21c4f9	-0.03949449
89	0x3e2f7d9a	0.17137757
90	0xbd9f932b	-0.07791742
91	0x3e7f1b45	0.24912746
92	0xbd87f94f	-0.06639349
93	0xbdbf3992	-0.093371525
94	0x3c6c5358	0.014424168
95	0xbe176263	-0.14783625

bn.weight f4 [32]
0	0x3f90447d	1.1270901
1	0x3f88ccea	1.0687535
2	0x3f8fa69d	1.1222721
3	0x3f8ac237	1.084052
4	0x3f84299d	1.0325199
5	0x3f89271b	1.0715059
6	0x3f8480f3	1.0351852
7	0x3f83e0e4	1.0303006
8	0x3f8d94e1	1.1061059
9	0x3f89473d	1.0724865
10	0x3f85ecd9	1.0462905
11	0x3f828393	1.0196403
12	0x3f85f2da	1.0464737
13	0x3f855024	1.0415082
14	0x3f862192	1.0478995
15	0x3f831637	1.0241154
16	0x3f848eef	1.035612
17	0x3f8bf1bf	1.093315
18	0x3f8b966b	1.0905279
19	0x3f874ee5	1.0570952
20	0x3f8b0ae4	1.0862699
21	0x3f87ca5e	1.0608633
22	0x3f8568a1	1.0422555
23	0x3f8ad83d	1.0847241
24	0x3f87f21e	1.0620763
25	0x3f85382c	1.0407767
26	0x3f90b447	1.1305016
27	0x3f85596e	1.0417917
28	0x3f8b1ea8	1.086873
29	0x3f874d7b	1.057052
30	0x3f8781a6	1.058644
31	0x3f84b6bd	1.0368267

bn.bias f4 [32]
0	0x3ddddbb6	0.10832922
1	0xbdf8ef58	-0.12155026
2	0xbd8d23de	-0.06891607
3	0xbe3b28a3	-0.1827722
4	0xbdc9878d	-0.098403074
5	0x3e566805	0.20938118
6	0x3e234b73	0.1594675
7	0xbdd78ef1	-0.10525311
8	0x3e28bdbd	0.1647863
9	0x3bf9fc0c	0.0076289233
10	0xbdb6da5d	-0.08928368
11	0xbcf07630	-0.029353231
12	0xbe2d0c25	-0.16899164
13	0xbdbd4238	-0.09241146
14	0xbdb55b5c	-0.08855316
15	0x3d9065c5	0.07050661
16	0xbddb2ec8	-0.10702282
17	0x3e508a99	0.20365371
18	0xbdd83eb9	-0.105588384
19	0x3dcd3a26	0.100208566
20	0x3e21a95e	0.15787265
21	0x3e2c1ccd	0.16807862
22	0xbd9a538e	-0.07535468
23	0xbe891205	-0.2677156
24	0xbdea3ae9	-0.114370175
25	0x3d6c863d	0.057745207
26	0x3dca4946	0.09877257
27	0x3e086f30	0.13323665
28	0xbdf55848	-0.11979729
29	0xbe0976a2	-0.13424161
30	0x3dbf7e8f	0.09350311
31	0x3e0982f6	0.13428864

bn.running_mean f4 [32]
0	0x3dd9c7d7	0.106338196
1	0xbe36d9bf	-0.17856501
2	0xbdcad204	-0.099033386
3	0xbed1369d	-0.4086198
4	0x3de6e8cf	0.112748735
5	0x3eedb498	0.46426845
6	0xbdbbcbdc	-0.091697425
7	0x3d1b967c	0.03798531
8	0x3e9e216a	0.30884868
9	0x3e7d8dca	0.2476112
10	0xbdb7d842	-0.08976795
11	0xbe3d1cba	-0.1846799
12	0xbe0c5c2f	-0.1370704
13	0xbeaa0e16	-0.33213872
14	0xbddd034d	-0.10791645
15	0x3eac9eaa	0.337148
16	0xbdd4b5a4	-0.10386208
17	0xbc8982e5	-0.016786048
18	0x3ecf8d45	0.40537468
19	0x3e72d978	0.2371577
20	0x3d36f33b	0.044665556
21	0x3eec52a6	0.46156806
22	0xbe1ee039	-0.15515222
23	0x3c98160a	0.018565197
24	0xbe78b32a	-0.24287096
25	0x3ea15352	0.3150888
26	0x3dcd37e1	0.10020424
27	0x3ee51fa8	0.44750714
28	0xbe8080bf	-0.25098225
29	0xbe898c72	-0.26864964
30	0xbe9e195a	-0.30878717
31	0x3e97dbfc	0.29660022

bn.running_var f4 [32]
0	0x3e829b62	0.25509173
1	0x3ed23481	0.41055682
2	0x3e91ec46	0.28500575
3	0x3eaa6af7	0.33284733
4	0x3ee9ada4	0.4564029
5	0x3e4bbec8	0.19896996
6	0x3e35455f	0.17702244
7	0x3f03ca04	0.51480126
8	0x3e8a89fa	0.27058393
9	0x3eaea20c	0.34108007
10	0x3e9e8069	0.30957344
11	0x3f3723b1	0.71538836
12	0x3e2b7268	0.16742861
13	0x3f24cba4	0.6437323
14	0x3ef1241e	0.47097868
15	0x3f27f86e	0.6561345
16	0x3eee16f9	0.46501902
17	0x3ea4415b	0.32081112
18	0x3eb20911	0.34772542
19	0x3f1f6fd3	0.62280005
20	0x3e9c38d7	0.30512115
21	0x3e900b92	0.28133827
22	0x3ed45a15	0.41474977
23	0x3e76af49	0.24090303
24	0x3f41488a	0.7550131
25	0x3eeb6e5f	0.45982644
26	0x3ea87a97	0.3290603
27	0x3ebe6f29	0.37194183
28	0x3ebcf682	0.3690682
29	0x3eb3595a	0.35029107
30	0x3e02371c	0.12716335
31	0x3f1843b7	0.59478325

fc.0.weight f4 [32, 32]
0	0xbb390a24	-0.0028234804
1	0xbde7a549	-0.113108225
2	0xbe5a37c0	-0.2131033
3	0xbe376a59	-0.17911662
4	0x3d92122b	0.071323715
5	0x3e40fa87	0.18845569
6	0x3b9ec8c4	0.0048457105
7	0xbe38690c	-0.18008822
8	0x3c22949b	0.009923126
9	0xbe05e30d	-0.13074894
10	0xbe77022e	-0.24121925
11	0x3e4844e0	0.19557524
12	0x3bd28c7d	0.006425439
13	0x3de45949	0.11149842
14	0xbd32e803	-0.043678295
15	0xbe1cbaac	-0.15305585
16	0xbe59e8f5	-0.21280272
17	0x3dd853b5	0.10562841
18	0x3d1f9d58	0.038968414
19	0x3caf4e9c	0.021399789
20	0xbde980c6	-0.11401515
21	0x3df75d04	0.12078288
22	0x3df38a80	0.11891651
23	0xbd707462	-0.05870474
24	0xbdb0983d	-0.08622787
25	0xbe585789	-0.21127142
26	0xbdc7bad5	-0.09752432
27	0x3e113526	0.14180431
28	0x3e462ac1	0.19352247
29	0x3cdd8150	0.0270392
30	0x3e509137	0.20367895
31	0xbe6054f7	-0.21907412
32	0x3e549662	0.20760491
33	0xbd0877cb	-0.03331737
34	0xbe5faba9	-0.21842827
35	0xbd96b035	-0.073578276
36	0x3c30471d	0.010759142
37	0xbd47f453	-0.04881699
38	0x3e300303	0.17188649
39	0x3e817ebb	0.25292
40	0x3e3fde8b	0.18737237
41	0x3c9e17e2	0.019298498
42	0x3d8f4496	0.069955036
43	0xbe163e1d	-0.14672132
44	0xbde63c78	-0.11242002
45	0xbe3664a2	-0.17811826
46	0xbca02be6	-0.019552182
47	0xbd8f7ad2	-0.07005848
48	0x3dcd4fde	0.10024999
49	0xbe19ad90	-0.15007615
50	0xbdd07faa	-0.101806
51	0x3e00abe2	0.12565568
52	0x3de1e87c	0.11030671
53	0x3e17fc2a	0.14842287
54	0xbc44c499	-0.012009763
55	0x3e261158	0.16217554
56	0xbd1dccb0	-0.038525283
57	0xbd8ce39c	-0.068793505
58	0x3e4ebf55	0.20190175
59	0xbdf9e561	-0.12201954
60	0xbe869311	-0.26284078
61	0xbdb5618d	-0.08856497
62	0x3b8752a4	0.0041297246
63	0xbd8f54e3	-0.06998613
64	0x3eabeb3d	0.3357791
65	0xbc3c7b70	-0.011504039
66	0x3e0ea913	0.13931684
67	0xbe0c98df	-0.1373019
68	0xbe251dce	-0.16124651
69	0x3d865c45	0.06560568
70	0xbe6d1670	-0.2315309
71	0xbe1b0a49	-0.15140642
72	0xbe12c9ec	-0.1433484
73	0x3e356a40	0.17716312
74	0xbdf0b4de	-0.11753248
75	0xbe174e78	-0.14776027
76	0xbe208d8d	-0.15678997
77	0x3d84f4c5	0.064919986
78	0x3e1c457f	0.15260886
79	0x3e1bca76	0.15213951
80	0x3e155f5c	0.14587158
81	0x3dcc7774	0.099837214
82	0xbd93a4e8	-0.07209188
83	0x3d38d523	0.045125138
84	0x3d6eff4f	0.05834895
85	0x3e642e30	0.22283244
86	0xbdb4e598	-0.08832854
87	0xbdd42555	-0.10358683
88	0xbe7698f4	-0.24081784
89	0xbe0afb57	-0.13572441
90	0x3e911f54	0.28344214
91	0x3e7aec55	0.24504216
92	0x3e8242d1	0.25441602
93	0x3e3b698d	0.18301983
94	0xbe671761	-0.22567512
95	0x3ca937ef	0.020656554
96	0xbe773afd	-0.24143596
97	0x3d4ca75c	0.049964294
98	0x3e0731b0	0.13202548
99	0xbcc7d5be	-0.024393912
100	0xbdb851e9	-0.08999998
101	0x3e178c7b	0.14799683
102	0x3d353241	0.04423738
103	0xbe580e6b	-0.2109925
104	0x3e375bfa	0.1790618
105	0x3e72ca29	0.2370993
106	0xbe651b3f	-0.22373675
107	0x3e0d4895	0.13797219
108	0x3d610e05	0.05494501
109	0xbd9c5345	-0.0763307
110	0x3c355b3f	0.011069118
111	0x3de8ff92	0.11376871
112	0xbe6daa36	-0.23209462
113	0x3dc749c1	0.09730864
114	0x3cf1a7f5	0.029499033
115	0x3da3ce3c	0.079983205
116	0xbc384be9	-0.011248567
117	0xbe3b8be7	-0.18315087
118	0x3e4ee3d5	0.20204099
119	0xbdfa4083	-0.12219336
120	0x3dd494d1	0.10379947
121	0xbe5016ae	-0.20321152
122	0xbcc83d3e	-0.024443265
123	0xbe23212a	-0.1593062
124	0xbe2989da	-0.16556492
125	0x3e1681cd	0.14697953
126	0x3e28de2d	0.16491003
127	0xbd16e29e	-0.036837213
128	0xbe65a5c4	-0.22426516
129	0xbdba679f	-0.091017954
130	0xbdff9f10	-0.12481511
131	0xbd87d587	-0.06632524
132	0x3e15ad6e	0.1461694
133	0x3e4a592f	0.19760583
134	0x3d3aa7d4	0.04557021
135	0x3e56e325	0.20985086
136	0x3e2121ff	0.15735625
137	0x3d9c1030	0.07620275
138	0x3e24c312	0.16090038
139	0x3e1c6cc3	0.15275864
140	0xbdf419ee	-0.11919008
141	0xbcce1a64	-0.025159068
142	0xbe3cde5d	-0.184442
143	0x3d033ef5	0.032042462
144	0x3d8e077b	0.069350205
145	0xbe26feee	-0.16308185
146	0x3c7f93cc	0.015599202
147	0xbd434ad0	-0.04767877
148	0x3da3d6c6	0.07999949
149	0xbd361dca	-0.044462003
150	0xbe18e521	-0.14931156
151	0x3e4f8033	0.20263748
152	0x3db8e348	0.090277255
153	0x3e1cd3ca	0.15315166
154	0x3db3b152	0.087740555
155	0x3dcf29d4	0.101154
156	0xbe2854a8	-0.16438544
157	0xbe6f515c	-0.2337088
158	0x3d8f40ec	0.06994805
159	0x3e5b763e	0.21431825
160	0xbd71affc	-0.059005722
161	0xbe792f87	-0.24334536
162	0x3c028520	0.00796631
163	0x3e064bca	0.13114849
164	0xbd2ea00c	-0.0426331
165	0x3e443d7c	0.1916408
166	0xbdb23207	-0.08700948
167	0x3d1d115b	0.03834663
168	0x3e80b18d	0.2513546
169	0x3e0e3b8e	0.13889906
170	0xbe11abad	-0.14225645
171	0x3de83929	0.113390274
172	0xbd57204b	-0.05252103
173	0xbdc46351	-0.095892556
174	0xbd04b75b	-0.032401424
175	0xbe445d79	-0.19176282
176	0xbb9cf3ed	-0.0047898204
177	0x3e14e178	0.14539135
178	0xbe4db86e	-0.20089886
179	0x3d116419	0.03549585
180	0xbd9e13c0	-0.07718611
181	0x3d2383ac	0.039920494
182	0x3d4b0d6c	0.049573347
183	0x3e306738	0.17226875
184	0x3e0f27d3	0.13980035
185	0x3c5c29e6	0.013437724
186	0xbd8af81b	-0.067856036
187	0xbe65d83b	-0.22445767
188	0xbe0401d5	-0.12891324
189	0x3de7db6e	0.1132115
190	0x3db26658	0.08710927
191	0x3d6f5ad7	0.05843624
192	0x3cb1bc0b	0.021696111
193	0x3df371d3	0.118869446
194	0x3dcbb201	0.09946061
195	0xbe701a60	-0.23447561
196	0x3e40665f	0.18789051
197	0x3e185922	0.14877751
198	0x3e3c47b2	0.18386725
199	0x3d805000	0.06265259
200	0x3d95fd60	0.07323718
201	0xbe6533ad	-0.22382994
202	0x3dc7afeb	0.097503506
203	0xbe36d897	-0.1785606
204	0x3d09ffc2	0.033691175
205	0x3c98953d	0.01862585
206	0xbdb575d3	-0.08860364
207	0x3e7036ba	0.23458377
208	0x3d5857f6	0.05281826
209	0xbdfd9b3c	-0.12383124
210	0xbe181692	-0.1485236
211	0x3d9aed30	0.07564771
212	0x3d2e18dd	0.04250418
213	0x3e3f66e1	0.18691589
214	0x3e00decf	0.12584995
215	0x3e5f5181	0.21808435
216	0x3d51f918	0.051262945
217	0x3e822848	0.25421357
218	0x3e3a6bfa	0.18205252
219	0x3e79956b	0.24373405
220	0xbd4165ad	-0.047216106
221	0xbe582900	-0.2110939
222	0xbccfc93b	-0.025364509
223	0xbd97d274	-0.074131876
224	0xbe47d0c9	-0.19513239
225	0xbd380ed2	-0.04493601
226	0xbd6a3750	-0.057181656
227	0xbdb2b12d	-0.087252
228	0x3e40d7ca	0.18832317
229	0x3d02394b	0.03179292
230	0x3e232177	0.15930735
231	0x3e4ca5d9	0.19985141
232	0xbde8aa7a	-0.11360641
233	0xbcc45df4	-0.023970582
234	0x3e44d106	0.19220361
235	0xbd9cb826	-0.07652311
236	0xbe446900	-0.1918068
237	0xbe6c7182	-0.23090175
238	0xbdc4e8c9	-0.09614713
239	0x3df90092	0.12158312
240	0xbd662ec8	-0.056196958
241	0xbd8bca30	-0.068256736
242	0xbb10c736	-0.0022091395
243	0x3e4efc97	0.20213543
244	0x3e0b46d8	0.13601243
245	0x3db7ea09	0.089801855
246	0xbe27316c	-0.16327447
247	0xbe55e015	-0.20886262
248	0xbe5670a2	-0.20941404
249	0x3e02de8a	0.12780204
250	0xbe1fddcf	-0.15611957
251	0x3e1b58e2	0.15170625
252	0xbdb79c81	-0.089653976
253	0xbe57730c	-0.2103998
254	0xbe1ca2a0	-0.15296412
255	0x3e054854	0.13015872

fc.0.bias f4 [32]
0	0x3eb5486d	0.3540682
1	0x3eac0c50	0.33603144
2	0x3e9c31a8	0.30506635
3	0x3e033957	0.12814842
4	0x3dca2734	0.09870759
5	0x3ebfb098	0.37439418
6	0x3e05eb38	0.1307801
7	0x3d3df79c	0.046378717
8	0x3ebb7a8b	0.3661693
9	0x3e1799ea	0.14804807
10	0x3dae76fd	0.08518789
11	0x3e4e11c4	0.20123965
12	0x3e94b869	0.29046944
13	0x3d24f50c	0.040272757
14	0x3e43bd84	0.19115263
15	0x3e909665	0.28239742
16	0x3ee8d0a9	0.45471695
17	0x3ebd220e	0.36940044
18	0x3e3479a2	0.17624524
19	0x3dfbcbb6	0.12294714
20	0x3eb87e3c	0.3603381
21	0x3e28e9ae	0.16495392
22	0x3ed23048	0.4105246
23	0x3e7fd911	0.24985148
24	0x3e12cd00	0.14336014
25	0x3e8a5907	0.27021047
26	0x3ed2a0c0	0.41138268
27	0x3ef60d79	0.48057154
28	0x3e3f80e3	0.1870151
29	0x3e87b84a	0.2650779
30	0x3e89198b	0.267773
31	0x3e0c360f	0.13692497
