model/best-LSTM.pth (torch, 75550 bytes, 16 tensors)

lstm.weight_ih_l0 f4 [128, 8]
0	0x3c898257	0.016785784
1	0x3dd2f7fd	0.10301206
2	0xbdae53e8	-0.085120976
3	0x3d5de4ac	0.054173157
4	0x3e01305e	0.12616107
5	0xbdb02952	-0.08601631
6	0xbe4edccc	-0.20201415
7	0x3d3785f1	0.04480547
8	0xbdf16d5e	-0.11788438
9	0x3db5978d	0.08866797
10	0x3e27e5c3	0.16396241
11	0xbbe1e660	-0.006893918
12	0x3d07e01b	0.033172708
13	0x3dfe3fac	0.12414488
14	0x3d91ec8d	0.071251966
15	0x3c680310	0.014160886
16	0x3dd180c5	0.10229639
17	0xbd8032f5	-0.06259719
18	0x3dbe3566	0.09287529
19	0xbd93c694	-0.0721561
20	0xbd43e175	-0.047822434
21	0xbd9aa456	-0.07550876
22	0xbe13e418	-0.1444248
23	0x3e0e9b71	0.13926484
24	0x3dbffe73	0.09374704
25	0x3e41037b	0.18848984
26	0xbde8fb51	-0.1137606
27	0x3e32128d	0.17389889
28	0x3e0edb09	0.13950743
29	0xbe0b1ba9	-0.1358477
30	0xbd6993fe	-0.057025902
31	0xbe386470	-0.18007064
32	0xbb20635f	-0.0024473292
33	0x3dda3fcd	0.106567
34	0xbd4f135f	-0.050555583
35	0x3e176df7	0.14788042
36	0xbe17fa4b	-0.14841573
37	0x3e18f876	0.1493853
38	0xbde2f41e	-0.11081718
39	0xbe0fe319	-0.14051475
40	0x3d7eb6c5	0.06218602
41	0xbcf1117f	-0.029427288
42	0xbdf258f9	-0.118333764
43	0x3e00a613	0.12563352
44	0xbe3eb16f	-0.18622373
45	0x3cc01d52	0.023451481
46	0x3df7038f	0.120612256
47	0xbe224c5c	-0.15849441
48	0x3d7dec26	0.061992787
49	0xbdae4dcc	-0.08510932
50	0x3d7ab15e	0.061204307
51	0x3b7d63c0	0.0038664192
52	0xbdd887ee	-0.105728015
53	0x3ddcf679	0.107891984
54	0xbe0d8fda	-0.13824406
55	0xbd8f0e35	-0.06985132
56	0x3dba2800	0.09089661
57	0xbad794ca	-0.0016447541
58	0xbdf3a404	-0.11896518
59	0xbe028db2	-0.12749365
60	0xbe05b61e	-0.13057753
61	0xbdf9e336	-0.1220154
62	0x3dc3574f	0.09538137
63	0xbde740b4	-0.11291638
64	0xbc098bc5	-0.00839514
65	0x3dd742d0	0.1051079
66	0xbe1106cf	-0.14162754
67	0xbe075fd8	-0.13220155
68	0xbc8ae4da	-0.016954828
69	0x3e1132de	0.1417956
70	0xbd9f0977	-0.07765477
71	0x3ddf63f7	0.10907739
72	0xbde611bb	-0.112338506
73	0x3e158715	0.14602311
74	0x3d8db1ce	0.06918679
75	0x3de85b82	0.11345579
76	0x3dbb13ab	0.09134611
77	0x3d05684d	0.032570172
78	0x3e6b0694	0.22951728
79	0xbe40dc1c	-0.18833965
80	0x3e2ba180	0.16760826
81	0xbdf7f065	-0.121063985
82	0xbd835da0	-0.06414342
83	0x3d48abfc	0.048992142
84	0xbd97f947	-0.07420593
85	0x3e2f27e0	0.17105055
86	0x3d933895	0.071885265
87	0xbe2b7e8d	-0.16747494
88	0xbe102201	-0.14075471
89	0x3cbe7f53	0.023254072
90	0xbe02c843	-0.12771706
91	0xbd1f1f68	-0.03884831
92	0xbd366d94	-0.044538096
93	0xbdd54d39	-0.1041512
94	0x3e240b2c	0.16019887
95	0x3e1bf2b5	0.15229304
96	0xbce3961e	-0.027781542
97	0x3e0f825a	0.14014569
98	0xbdb6324f	-0.08896314
99	0x3cbcfbd8	0.023069307
100	0xbbb88911	-0.005631574
101	0xbd7c5670	-0.06160587
102	0x3d684204	0.056703582
103	0x3d844011	0.06457532
104	0x3e87d2de	0.26528066
105	0x3de42e7c	0.11141679
106	0x3ddb6e4d	0.107143976
107	0xbe33df84	-0.17565733
108	0x3d8c47ba	0.06849618
109	0xbe1d5243	-0.15363412
110	0x3dfd9ac1	0.123830326
111	0xbdb582f8	-0.08862871
112	0xbca8773c	-0.020564668
113	0xbe14029e	-0.14454123
114	0x3cbcd306	0.023049843
115	0x3da926c2	0.082593456
116	0xbdd43634	-0.10361901
117	0xbd63aab4	-0.055582717
118	0xbe13c760	-0.14431524
119	0x3e217d4e	0.15770456
120	0x3e10312f	0.14081262
121	0x3de58288	0.112065375
122	0xbdad61f8	-0.08465952
123	0xbd218cf4	-0.039441064
124	0x3de20ba4	0.110373765
125	0x3cdeba98	0.027188584
126	0x3d05738d	0.0325809
127	0x3e07e5fd	0.13271327
128	0x3e412798	0.1886276
129	0x3e046a87	0.12931262
130	0xbbbe2fe0	-0.005804047
131	0xbc73aba0	-0.014872462
132	0x3d0bbfcd	0.034118462
133	0xbced5ea1	-0.028975787
134	0x3d7eceef	0.062209066
135	0x3dccfb64	0.100088865
136	0xbdb266ab	-0.087109886
137	0x3d699d8f	0.057035025
138	0x3e313700	0.17306137
139	0x3df8e86e	0.121537074
140	0x3c907a1f	0.017636357
141	0x3e1e9a8b	0.15488641
142	0xbd7b3667	-0.06133118
143	0xbd87f85f	-0.0663917
144	0x3e43ac13	0.1910861
145	0xbe090566	-0.13380966
146	0x3b02e2ae	0.0019971537
147	0x3da835ee	0.08213411
148	0x3db2f304	0.08737758
149	0xbe27c5ab	-0.16383998
150	0x3cc36574	0.023852088
151	0xbda536ee	-0.08067118
152	0x3dc10404	0.09424594
153	0xbdf0f42c	-0.11765322
154	0xbdd00773	-0.10157671
155	0xbdc5b610	-0.09653866
156	0x3d889ed0	0.06670916
157	0x3de8cd72	0.113673106
158	0x3df18e36	0.11794703
159	0xbd903a40	-0.0704236
160	0xbd97a3a8	-0.07404262
161	0x3e20169f	0.1563363
162	0x3d756ef6	0.059920274
163	0xbd592478	-0.053013295
164	0xbe1f750b	-0.15571992
165	0xbe10655d	-0.14101167
166	0x3d377b5c	0.04479538
167	0x3dd3741a	0.10324879
168	0xbe02dabe	-0.12778756
169	0x3da02f0d	0.07821474
170	0xbd45a029	-0.048248444
171	0xbcb85dd8	-0.022505686
172	0xbe0b41fc	-0.1359939
173	0xbd6b98b7	-0.057518687
174	0xbe5459cc	-0.2073738
175	0x3e57d5fc	0.21077722
176	0xbd58ae6d	-0.05290072
177	0xbcf01444	-0.029306538
178	0x3e182d8a	0.14861122
179	0xbe073113	-0.13202314
180	0xbd82e70f	-0.06391727
181	0xbddad429	-0.106849976
182	0xbdf7cf41	-0.121000774
183	0xbc0f2491	-0.008736745
184	0xbde7a136	-0.113100454
185	0x3daf2cf6	0.085534975
186	0xbdec2cc6	-0.11531977
187	0x3de8a3e6	0.11359386
188	0xbd6eb162	-0.058274634
189	0xbe3c3f99	-0.18383636
190	0xbd8f1996	-0.06987302
191	0x3e435d41	0.19078542
192	0x3c2ff9f9	0.0107407505
193	0xbd9fad84	-0.07796767
194	0x3b148f0e	0.0022668275
195	0x3c3f2310	0.011666074
196	0xbd88ea20	-0.06685281
197	0x3e310b00	0.17289352
198	0xbdd3a778	-0.103346765
199	0x3df8a88d	0.121415235
200	0x3daa8e6c	0.08327946
201	0x3da20b6b	0.07912334
202	0xbdfc5f4d	-0.12322865
203	0xbe0a6730	-0.13515925
204	0x3e0af6cd	0.1357071
205	0xbd885595	-0.066569485
206	0xbd72e68a	-0.05930189
207	0x3e2e8480	0.17042732
208	0x3dedb714	0.11607185
209	0xbdceb705	-0.10093502
210	0xbe4bc98f	-0.19901107
211	0xbe30ce63	-0.1726623
212	0xbd212b34	-0.039347842
213	0xbe1f4b7e	-0.15556142
214	0x3e49a42e	0.19691536
215	0x3bce13f7	0.006289001
216	0x3defe181	0.11712933
217	0xbe00afda	-0.12567082
218	0xbe18b52d	-0.14912863
219	0x3cae0b78	0.021245703
220	0x3d332854	0.04373963
221	0x3e09a810	0.13443017
222	0x3d11925d	0.035539974
223	0x3e38d940	0.18051624
224	0xbdb1c79c	-0.086806506
225	0x3e0277e1	0.12741043
226	0x3d887279	0.06662459
227	0x3b730ac0	0.0037085265
228	0xbe3dfb5f	-0.18552922
229	0x3e132227	0.14368497
230	0x3e4f5859	0.20248546
231	0xbe03f504	-0.12886435
232	0x3e074227	0.13208829
233	0x3cdcf35a	0.026971508
234	0x3dc1bd4a	0.09459932
235	0x3cdb6668	0.02678223
236	0x3d425f52	0.047454186
237	0x3cf3ade3	0.029746002
238	0xbd7d18cd	-0.06179123
239	0xbe245af6	-0.16050324
240	0x3e34a2ce	0.1764023
241	0x3c2f0ed4	0.010684688
242	0x3d70b010	0.058761656
243	0xbd81664b	-0.06318339
244	0xbce17cef	-0.027525393
245	0x3dea27d8	0.11433381
246	0x3df8e2f7	0.12152665
247	0xbdbdd4c6	-0.09269099
248	0xbd810710	-0.06300175
249	0x3de17488	0.11008555
250	0x3e016d75	0.12639411
251	0x3d9f5f32	0.07781829
252	0xbe04ca1c	-0.12967724
253	0x39b5e7c3	0.00034695686
254	0x3e3bbdfb	0.1833419
255	0x3cc521ca	0.024063963

lstm.weight_hh_l0 f4 [128, 32]
0	0xbe107f5a	-0.14111081
1	0xbe166333	-0.14686279
2	0xbbd140a6	-0.0063858805
3	0x3e0946be	0.13405892
4	0xbe1f111b	-0.15533869
5	0x3d0d9ab2	0.034571357
6	0xbd998175	-0.07495395
7	0x3e07fd77	0.13280283
8	0xbce5c80d	-0.028049493
9	0xbe3d0023	-0.18457083
10	0x3e080778	0.13284099
11	0x3e244aa8	0.16044104
12	0xbdcf1b26	-0.101126
13	0xbdf40c39	-0.11916394
14	0x3d4b166a	0.049581923
15	0xbc63d5ee	-0.013905985
16	0xbd3f95a4	-0.046773568
17	0xbdba8537	-0.0910744
18	0x3e3e55ff	0.18587492
19	0x3e0190e3	0.12652926
20	0x3daa9cff	0.08330726
21	0x3c77cc07	0.0151243275
22	0xbcfd74aa	-0.030939419
23	0x3d840977	0.06447118
24	0x3e2b4f51	0.16729476
25	0xbc02a812	-0.007974641
26	0xbd9c1d7d	-0.07622812
27	0xbdda6ec6	-0.106656596
28	0xbd4b0585	-0.04956581
29	0x3db986da	0.09058924
30	0xbdd14270	-0.1021775
31	0xbd5af7fd	-0.053459156
32	0xbe0999cb	-0.13437574
33	0xbdceb148	-0.100924075
34	0x3db4a1e8	0.08819944
35	0x3aa399e2	0.0012481774
36	0xbdeb726d	-0.11496434
37	0xbdc36d20	-0.09542298
38	0xbe198019	-0.14990272
39	0x3cc31b95	0.023816863
40	0xbe296c2e	-0.16545174
41	0x3d8dd388	0.06925112
42	0x3e008ea5	0.12554415
43	0xbe0ef8cc	-0.13962096
44	0x3d465f6d	0.04843085
45	0x3e3ea9ec	0.18619508
46	0xbcf51eb6	-0.02992187
47	0xbdfd9858	-0.12382573
48	0xbd5c9d66	-0.053861044
49	0x3e198156	0.14990744
50	0x3dfce0ff	0.12347602
51	0xbd932191	-0.07184137
52	0xbe29bb80	-0.16575432
53	0xbe5208aa	-0.20511118
54	0xbc53a37c	-0.012917396
55	0x3df8e0ab	0.12152227
56	0x3cd861a6	0.02641375
57	0xb9523f4b	-0.00020050739
58	0xbe059e8f	-0.13048767
59	0x3dc2f0bf	0.09518575
60	0x3d8459bf	0.0646243
61	0xbe0a14ab	-0.13484447
62	0xbe184351	-0.14869429
63	0x3e46dfd0	0.19421315
64	0x3c41c215	0.011826058
65	0xbba70e24	-0.0050981212
66	0x3d6f849a	0.058476068
67	0xbda2ff26	-0.07958822
68	0x3ccdfc42	0.0251447
69	0x3de18dca	0.11013372
70	0xbdc07cda	-0.093988135
71	0xbd797c1f	-0.060909387
72	0x3e03d8d8	0.12875688
73	0xbe04a217	-0.12952457
74	0xbe2ecbc4	-0.17069918
75	0x3e0b094c	0.13577765
76	0xbdc88cc5	-0.09792475
77	0xbdd1d8b0	-0.10246408
78	0x3d071d05	0.03298666
79	0xbc3687d0	-0.011140779
80	0x3ddb1922	0.10698153
81	0xbb0a95af	-0.0021146347
82	0xbe35a906	-0.17740259
83	0xbe2432f7	-0.16035067
84	0x3dee4c05	0.11635593
85	0xbd8de397	-0.06928175
86	0xbe0ea24f	-0.13929103
87	0xbe14fc38	-0.14549339
88	0xbdf399ef	-0.11894595
89	0x3d633d34	0.05547829
90	0x3d400a60	0.046884894
91	0xbe2683d9	-0.16261233
92	0xbd21e5d2	-0.039525814
93	0x3da6ea89	0.08150203
94	0xbcff7b29	-0.031186657
95	0xbd66103e	-0.056167834
96	0x3d7bc3a8	0.06146589
97	0xbdf97a7a	-0.12181564
98	0x3da79109	0.0818196
99	0xbe3b4fef	-0.18292211
100	0x3d91d5d7	0.07120865
101	0x3d5f368f	0.05449539
102	0x3d5cd868	0.05391732
103	0xbe04ddfe	-0.12975308
104	0x3c44aa9c	0.012003567
105	0xbe59d830	-0.21273875
106	0x3d576f5d	0.05259644
107	0xbd16bf0d	-0.036803294
108	0xbd4d4083	-0.05011035
109	0xbd4d19b0	-0.050073326
110	0x3def3de5	0.11681727
111	0xbddd2279	-0.10797591
112	0xbdb07d49	-0.08617646
113	0x3cfe04f4	0.031008221
114	0x3e08d184	0.13361174
115	0xbe03420b	-0.12818162
116	0x3d185b7c	0.03719662
117	0x3e2b7d40	0.16746998
118	0x3dad0119	0.08447475
119	0x3e12b4aa	0.1432673
120	0xbe0b670e	-0.13613531
121	0x3d94bb30	0.07262266
122	0x3da33dc6	0.07970767
123	0x3d91657a	0.07099433
124	0xbd838ec2	-0.06423713
125	0x3e26a030	0.16272044
126	0x3db2eefa	0.087369874
127	0x3d8cf62a	0.068828896
128	0xbe23ca46	-0.1599513
129	0x3da0bc99	0.07848472
130	0x3cb8e395	0.022569457
131	0xbd59aaa2	-0.053141244
132	0xbd9a27dc	-0.07527134
133	0xbdbe13f9	-0.09281153
134	0x3cf40f23	0.029792374
135	0xbbcdd60f	-0.0062816213
136	0xbd8d6365	-0.069037236
137	0x3d50c028	0.050964504
138	0x3d42e7f1	0.047584478
139	0xbdfb4416	-0.12268846
140	0x3e241e6a	0.16027227
141	0x3df34c8c	0.118798345
142	0xbe3af795	-0.18258508
143	0xbda92974	-0.0825986
144	0x3cc041fc	0.023468964
145	0xbd520120	-0.051270604
146	0xbe0f8a87	-0.14017688
147	0xbd8208f6	-0.063493654
148	0x3e0465bd	0.12929435
149	0xbdb1ea06	-0.086872146
150	0x3e17906d	0.14801188
151	0x3e28b281	0.16474344
152	0x3e0c24f7	0.13685976
153	0x3e01473b	0.12624829
154	0x3db142c4	0.08655313
155	0x3d2dfa2d	0.042474914
156	0xbc83ec0f	-0.016103772
157	0xbd9e4546	-0.077280566
158	0xbd98ab7e	-0.074545845
159	0x3e0ec42e	0.13942024
160	0x3d040414	0.03223045
161	0xbdfcb7db	-0.12339755
162	0x3d37f08e	0.044907145
163	0xbe34666e	-0.17617199
164	0x3cc9cd3e	0.024634
165	0xbe23dc3e	-0.16001984
166	0x3e11d05c	0.14239639
167	0xbd167089	-0.036728416
168	0xbe0a497c	-0.13504595
169	0xbda72bd4	-0.081626564
170	0x3dc4200b	0.09576424
171	0x3d4d16af	0.05007046
172	0xbe272344	-0.16322047
173	0xbdbc12eb	-0.09183296
174	0x3d4575f4	0.048208192
175	0xbddad8b8	-0.10685867
176	0xbd543179	-0.051804993
177	0xbd69cec1	-0.05708194
178	0x3addd29a	0.0016923726
179	0x3d8f9022	0.07009913
180	0xbe22679b	-0.15859835
181	0x3e12a205	0.14319618
182	0x3de98f73	0.11404314
183	0x3d7d0d9b	0.061780553
184	0xbdf877a0	-0.12132192
185	0xbe2e1c1e	-0.17002913
186	0xbcbf49d2	-0.02335063
187	0xbd9a36d0	-0.07529986
188	0xbdf3a7f5	-0.1189727
189	0x3db39980	0.08769512
190	0xbd8c76e8	-0.06858617
191	0xbe19d537	-0.15022741
192	0xbc61b8c2	-0.01377696
193	0xbe1f0671	-0.15529801
194	0xbba15eb6	-0.0049246205
195	0xbe162fc6	-0.14666662
196	0xbe20a393	-0.15687399
197	0x3e27f513	0.16402082
198	0xbe1f38f6	-0.15549073
199	0x3df6dc84	0.12053779
200	0xbd5496c4	-0.051901594
201	0xbdffe5bd	-0.12494991
202	0x3d140946	0.036141656
203	0x3dfc90c3	0.123322986
204	0x3ddf66c9	0.109082766
205	0xbd006bd3	-0.03135283
206	0x3e2d5ed2	0.16930702
207	0x3e0758c3	0.13217454
208	0x3e40bee4	0.18822819
209	0x3db3d365	0.08780555
210	0xbc740666	-0.014894104
211	0xbd3cd02a	-0.04609696
212	0x3d6babec	0.057537004
213	0xbc47d463	-0.012196633
214	0xbd2ab40a	-0.041675605
215	0x3dad313a	0.08456655
216	0x3d6f52e3	0.058428656
217	0x3e120a6f	0.14261793
218	0xbe240aaf	-0.160197
219	0xbe159a3f	-0.14609621
220	0x3e0f22f8	0.13978183
221	0x3d94553c	0.0724282
222	0x3dc3b589	0.095561095
223	0x3e23aa2a	0.15982881
224	0x3e386b9a	0.18009797
225	0x3dbe1a21	0.092823274
226	0x3d17e09f	0.03707945
227	0x3d3a2099	0.045441244
228	0xbe03515d	-0.12824006
229	0x3da090be	0.078401074
230	0xbd8c2f93	-0.068450116
231	0x3dc41dd3	0.09576001
232	0xbdc6e6e8	-0.097120106
233	0xbd9d9fd9	-0.07696504
234	0xbd08e3ce	-0.033420376
235	0x3e109038	0.14117515
236	0xbcc51fc0	-0.024062991
237	0x3e0544b5	0.13014491
238	0x3e4f8004	0.20263678
239	0x3dfb18e0	0.12260604
240	0x3e0b444d	0.13600273
241	0x3dcc01f4	0.0996131
242	0xbe54dcea	-0.20787397
243	0x3d0d0b79	0.03443477
244	0xbe41882a	-0.18899599
245	0x3d6cb65a	0.05779109
246	0xbdd7ea72	-0.10542764
247	0x3da07519	0.078348346
248	0x3dad02df	0.08447813
249	0x3d59ac4a	0.053142823
250	0x3e0d8115	0.13818772
251	0x3bec74fc	0.007216094
252	0xbe42da3f	-0.19028567
253	0x3de8292c	0.11335978
254	0xbcba732e	-0.02276
255	0x3da75541	0.08170558

lstm.bias_ih_l0 f4 [128]
0	0x3dee6b6f	0.11641585
1	0xbda9dbbe	-0.082938656
2	0xbde1a711	-0.110181935
3	0x3e53586c	0.20639199
4	0xbd8dc587	-0.06922441
5	0x3dfa2166	0.122134015
6	0x3df8e900	0.12153816
7	0x3d6baaa9	0.0575358
8	0xbe2277fd	-0.15866084
9	0xbe3fb89f	-0.18722771
10	0xbce8f113	-0.028435266
11	0xbda7956a	-0.08182795
12	0xbd6602a3	-0.05615486
13	0xbd7cc9a4	-0.061715737
14	0xbd642f31	-0.055709068
15	0xbd0fc1e6	-0.035097025
16	0xbe131f38	-0.14367378
17	0xbd059452	-0.032612152
18	0x3dbd8173	0.09253206
19	0x3d53bb13	0.05169208
20	0x3c961628	0.018321112
21	0x3e16815b	0.14697783
22	0xbdbe4a50	-0.09291518
23	0x3cb6cfa6	0.022315811
24	0xbcb1d862	-0.021709625
25	0xbd1e74a0	-0.03868544
26	0xbdd685bc	-0.104747266
27	0xbe261888	-0.16220295
28	0xbcf41c35	-0.029798606
29	0x3cc0d634	0.02353964
30	0xbce8c39c	-0.028413586
31	0x3cdd032b	0.02697905
32	0xbda21920	-0.079149485
33	0x3d3a4565	0.045476336
34	0xbd9f052c	-0.07764658
35	0x3d10d535	0.03535958
36	0x3e0d398f	0.13791488
37	0xbdae6d35	-0.08516923
38	0x3aebf3a6	0.001800169
39	0x3c15b2aa	0.009136835
40	0xbc35381e	-0.011060743
41	0x3dd0b8d0	0.101915
42	0x3e26b159	0.1627859
43	0xbe137ea6	-0.14403781
44	0xbe00e5b7	-0.1258763
45	0x3e03c07c	0.12866396
46	0xbc960f8a	-0.018317956
47	0xbdc66f1a	-0.0968916
48	0x3da3260e	0.07966243
49	0x3e0b7769	0.1361977
50	0x39d27b62	0.0004014625
51	0xbc176710	-0.009240881
52	0x3db01bd8	0.08599061
53	0xbd78bb3c	-0.060725436
54	0x3e39a4a3	0.1812921
55	0xbe0f519b	-0.13995974
56	0x3dd7e0a1	0.105408914
57	0x3dc8368f	0.09776031
58	0xba2f6dca	-0.000669208
59	0x3e253565	0.1613365
60	0x3b0fe151	0.0021954367
61	0xbde10dcf	-0.10988962
62	0xbd11b342	-0.035571344
63	0xbdace54a	-0.08442171
64	0x3c8b9bdb	0.017042091
65	0x3dbcd119	0.0921957
66	0x3d8c967c	0.0686464
67	0xbe2bca8d	-0.16776486
68	0x3dc29c7f	0.095025055
69	0xbe4a1095	-0.19732888
70	0xbc35ebef	-0.011103614
71	0x3e359362	0.17732003
72	0xbdbc81e3	-0.092044614
73	0xbb62130b	-0.0034496214
74	0x3e061a23	0.13095908
75	0xbe41afe1	-0.18914749
76	0x3dfce529	0.12348396
77	0xbdff4015	-0.124633946
78	0xbe167672	-0.14693621
79	0x3d96bcc7	0.07360225
80	0xbd568f70	-0.052382886
81	0xbe181832	-0.1485298
82	0x3dfc99c8	0.12334019
83	0xba1361d4	-0.00056221825
84	0xbc0290c3	-0.007969084
85	0x3d905db3	0.07049122
86	0x3cae47e1	0.021274509
87	0x3d8e8109	0.06958205
88	0xbd72ee26	-0.059309147
89	0xbdfc509d	-0.12320063
90	0xbb999194	-0.0046865437
91	0x3d835198	0.06412047
92	0x3e25c95a	0.16190091
93	0xbe211e30	-0.15734172
94	0xbc36b0cc	-0.01115055
95	0xbddf4254	-0.10901323
96	0x3e1c4f88	0.15264714
97	0xbe25b0ce	-0.16180727
98	0x3c274ed7	0.010211668
99	0xbe0268a8	-0.12735236
100	0x3c126efe	0.008937595
101	0xbde2caaa	-0.11073811
102	0x3d99f0aa	0.07516606
103	0x3db0fc97	0.08641928
104	0x3e0ba758	0.13638055
105	0xbe3377c4	-0.17526156
106	0x3da29e9c	0.079404086
107	0x3c20cc18	0.009814285
108	0x3e1bb593	0.15205984
109	0x3dd0e046	0.10199027
110	0x3dfb29c2	0.12263824
111	0x3dd350d3	0.1031815
112	0x3d1604dc	0.036625728
113	0xbe07999b	-0.1324219
114	0xbdc6a8c4	-0.09700158
115	0x3d00d1d2	0.0314501
116	0x3ce1201f	0.027481137
117	0x3d3d3ef0	0.0462026
118	0x3d484756	0.048896156
119	0x3e073b9c	0.13206333
120	0x3ca2c5d7	0.019869728
121	0x3e08b389	0.13349737
122	0xbe41a782	-0.18911555
123	0xbd4a86af	-0.04944485
124	0xbdb453ea	-0.08805068
125	0x3dca0e4f	0.098660104
126	0x3cfae539	0.03062688
127	0x3e34b07c	0.17645448

lstm.bias_hh_l0 f4 [128]
0	0x3bfeb89a	0.007773471
1	0x3d9dbede	0.07702421
2	0xbe29ced9	-0.16582812
3	0xbcb86503	-0.022509104
4	0xbcec22b1	-0.028825136
5	0x3db047d0	0.08607447
6	0x3db42c93	0.08797564
7	0xbcde6280	-0.027146578
8	0x3d4bbe9d	0.04974233
9	0x3d7a37c2	0.06108833
10	0x3e28049a	0.16408005
11	0xbd984a71	-0.074360736
12	0x3ddae0af	0.10687386
13	0x3e30e6c7	0.17275535
14	0x3cd5f327	0.02611692
15	0x3c42592e	0.011862082
16	0xbda2bdd9	-0.07946367
17	0x3dd9c4f1	0.10633267
18	0x3e2a51e0	0.16632795
19	0xbd531ec2	-0.051543005
20	0x3d5903dd	0.0529822
21	0x3db1fca9	0.08690769
22	0x3df61bb2	0.12017001
23	0xbe10f82f	-0.14157175
24	0xbe261274	-0.16217977
25	0xbda050f9	-0.07827944
26	0xbe0ce2f2	-0.13758448
27	0x3e0bdeb9	0.1365918
28	0xbe398972	-0.18118837
29	0x3da45c09	0.08025367
30	0xbd50e957	-0.05100378
31	0xbc566054	-0.01308449
32	0x3dd9af64	0.10629156
33	0x3d159193	0.036515784
34	0xbdd39863	-0.103318
35	0x3da97ede	0.08276151
36	0x3c9fdf50	0.019515663
37	0x3e11e22e	0.14246437
38	0x3c09dd0c	0.008414518
39	0x3e67cbd6	0.22636351
40	0xbe06a6ce	-0.13149568
41	0x3e2bcfa0	0.16778421
42	0xbdcb642f	-0.09931218
43	0x3e0dee7c	0.13860506
44	0xbd7aab2f	-0.06119841
45	0x3ce14157	0.027496977
46	0xbcc37bdc	-0.023862772
47	0x3c77eead	0.015132588
48	0xbdd403a8	-0.1035226
49	0xbd140a35	-0.036142547
50	0x3db33c48	0.08751732
51	0x3d8c6133	0.06854477
52	0x3cdcf630	0.02697286
53	0xbd5b0c74	-0.053478673
54	0xbca9721f	-0.0206843
55	0x3bf73c75	0.007545049
56	0x3d7d439e	0.061832063
57	0xbdd657fd	-0.10466001
58	0xbe2b93ba	-0.16755572
59	0xbda0baee	-0.07848154
60	0xbe2cb7b6	-0.16866955
61	0xbd9b1e43	-0.07574131
62	0x3cf4f8fb	0.02990388
63	0xbd6de934	-0.058083728
64	0xbe2c2592	-0.16811207
65	0xbe2dd6ef	-0.16976522
66	0xbc606c40	-0.013697684
67	0x3c8276b4	0.015925743
68	0x3d56a601	0.052404407
69	0xbe512b07	-0.2042657
70	0x3d865d31	0.065607436
71	0xbdd30b97	-0.10304945
72	0x3da80bd4	0.08205381
73	0xbe2c973c	-0.16854566
74	0xbe0b423d	-0.13599487
75	0xbd926e68	-0.071499646
76	0x3dfa2c1e	0.12215446
77	0xbdb1fe4c	-0.086910814
78	0x3d16aa75	0.036783654
79	0xbe3e37c2	-0.18575957
80	0xbdcdefa7	-0.10055476
81	0xbe394ef9	-0.18096532
82	0xbdb45eb6	-0.08807127
83	0xbdc6fd54	-0.09716287
84	0xbe1fd14f	-0.15607189
85	0xbd4e7b12	-0.050410338
86	0x3e1523fd	0.1456451
87	0xbe0e208f	-0.13879608
88	0xbdff09f9	-0.12453074
89	0xbde9ffcc	-0.114257425
90	0xbc73fd7a	-0.0148919765
91	0xbd9df090	-0.07711899
92	0xbd5b1f8f	-0.053496893
93	0xbd9fdfb7	-0.07806342
94	0x3e252611	0.16127802
95	0x3ce6a1be	0.028153297
96	0xbc94c0c1	-0.018158318
97	0x3daa6c19	0.08321399
98	0xbe0233b2	-0.12715033
99	0x3dd54714	0.10413948
100	0x3b3bd236	0.002865923
101	0xbc1f23fb	-0.009713168
102	0xbdc7bef2	-0.09753217
103	0x3e2d6414	0.16932708
104	0xbe2d9b53	-0.16953783
105	0x3dbb15f2	0.09135045
106	0x3e200ef8	0.1563071
107	0xbe24fbe1	-0.16111709
108	0x3ddb42ee	0.10706125
109	0x3e96371d	0.29338923
110	0x3e0fe468	0.14051974
111	0xbc0b16d5	-0.00848933
112	0xbde573c1	-0.11203719
113	0x3e350a97	0.17679821
114	0xbe14292c	-0.14468831
115	0x3d0329a6	0.03202214
116	0x3dd0acf5	0.10189239
117	0xbda98a10	-0.082782865
118	0x3c28a663	0.010293576
119	0x3e0c30a8	0.13690436
120	0xbd2b97b6	-0.04189273
121	0xbda877b2	-0.08225955
122	0xbe32f89e	-0.17477652
123	0x3e1fab12	0.15592602
124	0x3dcf81c8	0.10132176
125	0x3dfe31d5	0.124118485
126	0xbe1637c8	-0.14669716
127	0xbcee55a7	-0.029093577

lstm.weight_ih_l1 f4 [128, 32]
0	0x3a32e1a6	0.00068237854
1	0xbdd85bec	-0.10564408
2	0xbe01441f	-0.12623642
3	0x3dea2511	0.11432851
4	0x3d365549	0.044514928
5	0xbe0254ee	-0.1272771
6	0xbd8fb65b	-0.070172034
7	0xbd3d4ec2	-0.046217687
8	0xbdf535c2	-0.11973144
9	0xbcda3e8e	-0.026641157
10	0xbe0ab7e4	-0.13546711
11	0x3d5eed05	0.05442526
12	0x3e22fd64	0.15916973
13	0x3e71c576	0.23610482
14	0x3d19c80b	0.03754429
15	0xbdf5fc96	-0.120110676
16	0x3d694f70	0.056960523
17	0xbc983a20	-0.018582404
18	0xbd94604e	-0.07244931
19	0xbda720bc	-0.081605405
20	0xbe2657ce	-0.16244432
21	0x3d818e02	0.06325914
22	0xbd7094cb	-0.05873565
23	0xbda7131f	-0.08157944
24	0x3d50faa4	0.05102028
25	0x3d779225	0.06044211
26	0xbddfe609	-0.109325476
27	0xbd9be434	-0.07611886
28	0xbdde7ed5	-0.10864035
29	0x3db93c1a	0.090446666
30	0xba1ebe85	-0.00060556113
31	0x3e1cd8a4	0.15317017
32	0x3cc689f1	0.024235697
33	0xbdfea6a6	-0.124341294
34	0xbe2fd30c	-0.17170352
35	0xbdc647d4	-0.09681669
36	0xbdaa5b5d	-0.083182074
37	0x3e02a34a	0.12757602
38	0xbdeb77a5	-0.1149743
39	0xbc83936c	-0.016061507
40	0x3c907b22	0.01763684
41	0xbc951d3e	-0.01820242
42	0xbd8f3a17	-0.06993502
43	0xbd955563	-0.07291677
44	0xbdc00868	-0.09376603
45	0xbb576c30	-0.0032870881
46	0xbe129474	-0.14314443
47	0x3e2812c7	0.16413413
48	0xbcbffe7d	-0.02343678
49	0x3c48c934	0.012255002
50	0x3cd9ab3a	0.026570905
51	0x3c561ae5	0.013067936
52	0xbe1b5f47	-0.15173064
53	0x3df19aae	0.11797081
54	0x3e54f378	0.20796001
55	0xbd8b2a79	-0.067952104
56	0x3cb14732	0.021640394
57	0xbdfad861	-0.12248302
58	0xbd390ede	-0.045180194
59	0xbbc38de7	-0.005967844
60	0x3c50b079	0.012737387
61	0x3e12046f	0.14259504
62	0x3d84dc45	0.064873256
63	0xbd768c76	-0.060192548
64	0x3de6fefd	0.11279104
65	0xbd132d0a	-0.035931624
66	0x3e26b514	0.16280013
67	0xbd52dee1	-0.051482085
68	0xbd54d1c3	-0.051957857
69	0xbe3fbb6b	-0.18723838
70	0xbe4a4ae8	-0.19755137
71	0xbc8e5f7b	-0.017379513
72	0x3da41c07	0.08013158
73	0xbd8fadc9	-0.07015569
74	0x3e1c080a	0.15237442
75	0xbe4eb775	-0.20187171
76	0x3c33eeff	0.010982274
77	0xbe341a14	-0.17588073
78	0x3e18880b	0.14895646
79	0xbe40da3b	-0.18833248
80	0xbe047877	-0.12936579
81	0x3e3d4985	0.18485077
82	0xbe3e4b5f	-0.1858344
83	0xbde57be1	-0.11205269
84	0x3dc1eda6	0.09469156
85	0x3e08aee5	0.13347967
86	0x3dc8d117	0.09805506
87	0x3c27c4de	0.010239808
88	0xbe052164	-0.13001019
89	0x3e064734	0.131131
90	0xbcee6f6b	-0.029105863
91	0x3c15cdc0	0.009143293
92	0xbe57727d	-0.21039768
93	0x3e69def8	0.22838962
94	0x3d6c2a11	0.057657305
95	0xbe29af71	-0.16570832
96	0x3e30923b	0.17243282
97	0xbde8e39a	-0.113715366
98	0xbd9a8c9b	-0.075463496
99	0xbd112c68	-0.03544274
100	0x3df4f4f4	0.119607836
101	0xbcedc32e	-0.029023733
102	0xbde6d917	-0.11271875
103	0xbe3f58c8	-0.18686211
104	0x3e5467d7	0.20742737
105	0xbd7f4152	-0.062318154
106	0x3e787c0d	0.24266072
107	0xbe6cf1b8	-0.23139083
108	0xbb4f094f	-0.0031591242
109	0xbca67c0f	-0.020322828
110	0xbd997c74	-0.07494441
111	0xbe237a74	-0.15964681
112	0x3d95476d	0.07289014
113	0x3e44b6d5	0.1921037
114	0xbdb64857	-0.089005165
115	0x3c826f5a	0.015922237
116	0xbd14c207	-0.03631785
117	0xbe31ed9f	-0.17375802
118	0xbcb680aa	-0.022278149
119	0xbdeb5072	-0.11489953
120	0xbe4096a0	-0.18807459
121	0xbd5a1372	-0.0532412
122	0x3d0fca0f	0.035104807
123	0xbda93609	-0.082622595
124	0x3db4fadc	0.0883691
125	0x3e25acb2	0.1617916
126	0xbe21027b	-0.15723602
127	0xbdd846ec	-0.10560402
128	0x3de4ff2e	0.11181484
129	0xbd0d3f3b	-0.03448413
130	0xbd1b30ee	-0.03788846
131	0xbdb394de	-0.087686285
132	0xbc223c85	-0.009902124
133	0xbd6ed214	-0.058305815
134	0x3de6af90	0.11263955
135	0x3d0f038c	0.034915492
136	0xbdc0d2e4	-0.09415224
137	0xbe313933	-0.17306976
138	0x3d906461	0.07050396
139	0xbd098358	-0.033572525
140	0xbdd28a94	-0.10280338
141	0x3dc94e5f	0.09829401
142	0x3c5e4e64	0.0135684945
143	0xbe171343	-0.14753442
144	0x3def32f8	0.116796434
145	0x3ddc96c5	0.107709445
146	0x3d8918a2	0.066941515
147	0x3cb4c905	0.02206851
148	0xbaf5c0a6	-0.001874943
149	0xbe2e17b7	-0.17001234
150	0x3d54845c	0.05188404
151	0xbcc7d09d	-0.024391467
152	0xbd85456b	-0.06507381
153	0xbd73f426	-0.05955901
154	0xbccc9eb8	-0.024978027
155	0x3d56447b	0.0523114
156	0xbe573dd8	-0.21019685
157	0x3e2b8041	0.16748144
158	0x3c314a7a	0.010820979
159	0xbdc3d1eb	-0.09561523
160	0x3e89fa5c	0.26948822
161	0xbe137f4b	-0.14404027
162	0xbd56cc3f	-0.052440878
163	0xbe1d0884	-0.1533528
164	0x3ce2d666	0.027690124
165	0xbdf5cc0e	-0.12001811
166	0xbd4a9415	-0.04945763
167	0xbe49b55d	-0.19698091
168	0x3e7d678c	0.24746531
169	0xbe2d092f	-0.16898035
170	0x3e4b2f93	0.19842367
171	0x3cfdad08	0.030966297
172	0xbd720225	-0.059084076
173	0x3d8958a8	0.06706363
174	0x3e3f201f	0.18664597
175	0xbe0d7eed	-0.1381795
176	0xbcecb0da	-0.028892923
177	0xbca4c705	-0.020114431
178	0xbd95cd8c	-0.073145956
179	0xbe171b99	-0.14756621
180	0x3d13de1f	0.036100503
181	0xbe252e50	-0.16130948
182	0xbccc67d3	-0.024951851
183	0xbe2a9786	-0.16659364
184	0xbdffa7e8	-0.124831975
185	0x3c880176	0.01660226
186	0x3e1fe9cc	0.1561653
187	0x3e5a95d0	0.21346211
188	0xbdfa1d6e	-0.122126445
189	0xbd83d52e	-0.06437145
190	0xbe30d41f	-0.17268418
191	0x3cfdb178	0.030968413
192	0x3cd5263b	0.026019206
193	0x3debb6f4	0.11509505
194	0xbceabaaf	-0.02865347
195	0x3d99d392	0.07511057
196	0xbd969fbf	-0.07354688
197	0xbd8f614b	-0.07000979
198	0x3d529d4b	0.051419538
199	0x3dba2c36	0.09090464
200	0x3e1c88b4	0.15286523
201	0xbdc097f0	-0.0940398
202	0x3e1a4782	0.1506634
203	0xbe319ba4	-0.17344528
204	0x3bb6f3d9	0.005583268
205	0xbdef2a01	-0.116779335
206	0xbc5d774b	-0.013517211
207	0x3e0b03df	0.13575695
208	0xbde078f2	-0.109605685
209	0x3dc87248	0.097874224
210	0xbd6e220f	-0.05813795
211	0x3d555585	0.05208351
212	0x3d9b854c	0.07593784
213	0xbde609ce	-0.11232339
214	0x3db0c52c	0.086313576
215	0xbc991032	-0.01868448
216	0xbe24ecf8	-0.16106021
217	0x3cc09c73	0.0235121
218	0x3de11ef5	0.10992233
219	0x3d406ea7	0.046980526
220	0xbd862acc	-0.065511316
221	0xbda2c6aa	-0.079480484
222	0xbe2699f9	-0.16269673
223	0xbd9ec15f	-0.07751726
224	0xbd88d6ef	-0.0668162
225	0x3de61e61	0.11236263
226	0x3ddef8e4	0.10887316
227	0xbdb3c003	-0.08776858
228	0x3cd35336	0.025796514
229	0xbe3b9037	-0.18316732
230	0xbe0fb3a9	-0.14033379
231	0x3d055440	0.03255105
232	0x3cd3d8b9	0.025860177
233	0xbdbb25d9	-0.09138078
234	0x3e686d67	0.22697984
235	0xbe30b63e	-0.1725702
236	0x3cd1e80a	0.02562334
237	0x3d45d919	0.048302744
238	0x3d241ba9	0.04006544
239	0xbdafa19b	-0.08575746
240	0xbe4f3ff2	-0.20239237
241	0x3d2e6f54	0.04258664
242	0xbdb2551a	-0.08707638
243	0xbdd5e158	-0.104433715
244	0x3d977df1	0.07397068
245	0xbe11d9e8	-0.14243281
246	0xbe235046	-0.1594859
247	0x3e22bd50	0.1589253
248	0x3df14796	0.11781232
249	0xbcc74d59	-0.024328874
250	0xbdccb721	-0.099958666
251	0x3e4fa8d8	0.20279253
252	0xbdcc9a27	-0.0999034
253	0x3d42dbb8	0.04757282
254	0x3dc12e35	0.094326414
255	0xbe4e5bfa	-0.20152274

lstm.weight_hh_l1 f4 [128, 32]
0	0xbe78f47b	-0.24312012
1	0xbe74a68f	-0.23891662
2	0x3bb1e3dd	0.0054287747
3	0xbe0550c4	-0.13019091
4	0xbe22c697	-0.15896069
5	0x3d137e29	0.036008988
6	0x3e41a218	0.1890949
7	0x3d2850f2	0.04109282
8	0x3d9384f3	0.072030924
9	0xbe11a47c	-0.14222902
10	0xbe710a2d	-0.23539038
11	0x3d46d0ca	0.04853896
12	0xbdbbd69c	-0.09171793
13	0xbc1b9d35	-0.00949793
14	0xbda8fd31	-0.082514174
15	0x3db2b4db	0.08725902
16	0x3d28d6ea	0.041220583
17	0x3ddec99b	0.10878297
18	0xbd9d3386	-0.07675843
19	0x3d26b5bb	0.040700655
20	0x3ddfa372	0.109198466
21	0x3d816e45	0.0631986
22	0xbbea26ff	-0.007145762
23	0x3cf0b77d	0.029384369
24	0xbdcfe1d8	-0.10150498
25	0xbc4d9bf5	-0.01254939
26	0x3e26bd36	0.16283116
27	0xbdb5c0b0	-0.08874643
28	0x3e2bac3d	0.16764922
29	0xbdc2cfdf	-0.095123045
30	0xbd31424f	-0.043276127
31	0x3c9dccc8	0.019262686
32	0x3cecf80c	0.028926872
33	0x3e30ac1b	0.17253153
34	0xbdeb8dca	-0.115016535
35	0x3e017bf0	0.12644935
36	0x3cc8fc5c	0.024534397
37	0xbdd19d5c	-0.10235092
38	0xbd60b8d9	-0.054863784
39	0xbc7a74fe	-0.015286682
40	0x3d93842b	0.072029434
41	0xbe1347b9	-0.14382829
42	0x3d0fab5c	0.03507553
43	0xbd6d2c32	-0.057903476
44	0x3db17209	0.086643286
45	0xbdcaf404	-0.099098235
46	0xbc7c15e0	-0.015386075
47	0xbdc19199	-0.09451599
48	0xbd196205	-0.037446994
49	0x3d62bce1	0.05535591
50	0xbdbbd0b3	-0.091706656
51	0xbd555f28	-0.0520927
52	0x3d5feaa8	0.054667145
53	0x3c8220d5	0.015884796
54	0x3de56e8a	0.11202724
55	0x3d84db54	0.06487146
56	0xbde3141f	-0.11087822
57	0x3cbd2a7d	0.023091549
58	0x3c6d9c3d	0.014502582
59	0xbdef1742	-0.11674358
60	0x3dba0e1e	0.09084724
61	0x3d28d1e3	0.04121579
62	0xbd16e7af	-0.036842044
63	0x3e23e344	0.16004664
64	0x3d63ae72	0.055586286
65	0xbe25ae86	-0.16179857
66	0xbc472fd0	-0.0121573955
67	0x3cbcfae8	0.02306886
68	0x3e0b8af3	0.13627224
69	0x3e676d85	0.22600372
70	0xbe89eacf	-0.26936957
71	0x3c7059e5	0.01466987
72	0xbd8bfb9c	-0.068351
73	0xbd3d321c	-0.046190366
74	0x3d315a9d	0.043299306
75	0xbcb416f9	-0.02198361
76	0xbe3bb064	-0.18329006
77	0xbd8ff31f	-0.070287935
78	0xbe1672b1	-0.14692189
79	0xbe0af670	-0.13570571
80	0x3cab7e03	0.02093411
81	0xbd2c69ee	-0.04209321
82	0x3d0b6626	0.034032963
83	0xbcdcddef	-0.026961295
84	0x3d2601f9	0.040529225
85	0x3dc47bc3	0.09593918
86	0xbc55f453	-0.01305874
87	0xbe1b2644	-0.15151316
88	0x3cdd41ef	0.027008979
89	0x3d13926e	0.036028318
90	0xbda67df3	-0.08129492
91	0x3e106dc6	0.14104375
92	0x3d00feaa	0.031492867
93	0xbe28f8cf	-0.16501163
94	0x3b59779a	0.003318286
95	0x3e21faab	0.15818278
96	0x3dab7647	0.08372169
97	0xbe31d297	-0.1736549
98	0x3dc4a53f	0.09601831
99	0xbdcd669c	-0.10029337
100	0x3d8d3c53	0.068962716
101	0xbd554bc1	-0.052074198
102	0xbe6623a6	-0.22474536
103	0xbc811c7d	-0.015760655
104	0xbd70b894	-0.058769777
105	0xbe16fa1e	-0.1474385
106	0x3ca6ff89	0.02038552
107	0x3e5ea22d	0.21741553
108	0xbd934087	-0.07190042
109	0xbe4af622	-0.19820455
110	0x3c07627c	0.008263227
111	0xbca7ff74	-0.020507552
112	0x3de6722e	0.11252247
113	0x3e4235cd	0.18965836
114	0x3d29abda	0.041423656
115	0xbcb82c80	-0.022482157
116	0x3e084c11	0.13310267
117	0x3d9e2462	0.07721783
118	0x3e41b100	0.18915176
119	0xbdf57cc4	-0.11986688
120	0xbbd1884b	-0.006394421
121	0xbdbfe77f	-0.09370326
122	0xbe38c891	-0.1804526
123	0xbcdd9a25	-0.02705104
124	0x3db2bd2f	0.0872749
125	0x3d12c8c2	0.03583599
126	0xbdcac136	-0.09900133
127	0xbe16d001	-0.14727785
128	0x3da5b332	0.080908194
129	0xbd3fe7d9	-0.046851967
130	0xbe3765a5	-0.17909868
131	0xbe0a4dcb	-0.13506238
132	0xbe63872a	-0.2221953
133	0xbe015b81	-0.12632562
134	0x3db55f53	0.08856072
135	0xbda39a8b	-0.07988461
136	0x3e11fbba	0.14256182
137	0xbd419d2e	-0.04726904
138	0xbddf7d5d	-0.10912583
139	0xbcaf459e	-0.0213955
140	0xbce6426a	-0.02810784
141	0xbdb09c13	-0.08623519
142	0xbbff34a2	-0.0077882567
143	0xbce65ab8	-0.02811943
144	0xbe0d532b	-0.13801257
145	0xbda9e159	-0.08294935
146	0x3d624f6b	0.05525152
147	0x3e4ec217	0.20191227
148	0x3cac9234	0.021065809
149	0x3db401fd	0.08789442
150	0xbe510961	-0.20413734
151	0x3ce999fa	0.028515805
152	0xbb687406	-0.0035469546
153	0xbe4bdf53	-0.1990941
154	0x3e25c6d5	0.1618913
155	0xbe3bac49	-0.1832744
156	0xbe341560	-0.17586279
157	0x3e1b47b8	0.15164077
158	0xbdcd24c7	-0.1001678
159	0xbcc8702e	-0.024467554
160	0xbe79b6e2	-0.2438617
161	0xbe5e78b1	-0.21725728
162	0xbd05f5b7	-0.032705035
163	0x3c76f519	0.015073084
164	0xbe1f8985	-0.15579803
165	0xbe46f02b	-0.19427554
166	0xbd648d0a	-0.055798568
167	0x3d75a3e0	0.059970737
168	0x3d2b2d96	0.04179152
169	0xbe4538a6	-0.19259891
170	0x3dac6f34	0.08419648
171	0x3e716645	0.23574169
172	0xbe0d3048	-0.13787949
173	0xbd186fd5	-0.037216026
174	0x3e3ed79f	0.1863694
175	0xbe395372	-0.18098238
176	0xbe641204	-0.22272497
177	0x3e303470	0.17207503
178	0x3c861c79	0.016370999
179	0x3d654bdf	0.05598056
180	0xbdbffd3b	-0.09374472
181	0xbe8229db	-0.25422558
182	0x3dd7ac03	0.105308555
183	0x3d353c88	0.04424718
184	0x3df1a4c9	0.117990084
185	0xbd6631d9	-0.056199882
186	0x3d1db110	0.038498938
187	0x3e321629	0.17391266
188	0x3df1f8f2	0.11815061
189	0xbe4f4211	-0.20240046
190	0xbe2e2cbe	-0.17009255
191	0x3d22b18f	0.039720114
192	0xbd40cd54	-0.047070816
193	0xbd84232a	-0.064520195
194	0x3e5079bb	0.20358936
195	0xbc300fc1	-0.0107459435
196	0x3dddea1d	0.10835669
197	0x3e3c2cc1	0.18376447
198	0xbca0e226	-0.019639086
199	0xbe0fefdd	-0.14056344
200	0xbdb05c4c	-0.08611354
201	0xbd930d72	-0.07180299
202	0xbdd7a8c4	-0.10530236
203	0x3d5b240d	0.053501178
204	0xbe4020b4	-0.18762475
205	0xbe757a8a	-0.23972526
206	0xbd87c72a	-0.066297844
207	0x3a21d7c2	0.0006173813
208	0xbcbf4208	-0.023346916
209	0x3e122c54	0.14274722
210	0xbd49cf7f	-0.04927015
211	0x3c2cb8e4	0.010542128
212	0xbe4a89b1	-0.19779088
213	0xbd7f7d2f	-0.062375244
214	0x3e2cd1b6	0.16876873
215	0x3d68d243	0.056841146
216	0x3de06cc5	0.10958246
217	0x3d8db13d	0.06918571
218	0xbcc4c204	-0.024018295
219	0x3e5eb4eb	0.21748702
220	0x3e207e73	0.15673237
221	0xbcff3af7	-0.031156046
222	0x3cb87848	0.022518292
223	0x3c875944	0.016522057
224	0xbd4e2cd1	-0.05033571
225	0xbcca1317	-0.024667306
226	0x3d72f2a7	0.059313443
227	0xbcd0d0aa	-0.025490124
228	0x3dee78ae	0.116441116
229	0x3cc56f0c	0.024100803
230	0x3d0c425c	0.034242973
231	0x3d93fa8d	0.07225523
232	0x3e0ef6cc	0.13961333
233	0xbd7d6f3d	-0.061873663
234	0xbe393e59	-0.1809019
235	0x3decfba5	0.11571435
236	0xbcfa7435	-0.03057299
237	0x3d2b5a2d	0.041834045
238	0x3e28ab88	0.16471684
239	0xbe456fd4	-0.1928094
240	0xbe214bcb	-0.15751569
241	0x3e713571	0.23555543
242	0xbe185798	-0.14877164
243	0xbe4b8e22	-0.19878438
244	0x3d1fbc51	0.038997952
245	0x3dd7b5ff	0.1053276
246	0x3d35c6ca	0.044379033
247	0xbd21a4ae	-0.03946369
248	0xbd866370	-0.06561935
249	0xbd72e483	-0.059299957
250	0xbddc586a	-0.10759051
251	0xbd38d7b1	-0.045127574
252	0x3de70641	0.1128049
253	0x3d42f17c	0.04759358
254	0x3d8e1217	0.06937044
255	0xbdf65e33	-0.12029686

lstm.bias_ih_l1 f4 [128]
0	0x3dc755f6	0.097331926
1	0x3dd6dea1	0.10491682
2	0xb9db7506	-0.00041858124
3	0xbd82cb02	-0.06386377
4	0xbd525f1a	-0.051360227
5	0x3e461175	0.19342597
6	0x3d9d421b	0.07678624
7	0x3dd73fee	0.105102405
8	0xbd906add	-0.070516326
9	0xbcdb0361	-0.02673501
10	0xbde57809	-0.112045355
11	0xbdb871d4	-0.09006086
12	0x3e10ddb3	0.14147072
13	0xbd977de2	-0.07397057
14	0xbe5cb026	-0.2155157
15	0xbd4e6110	-0.050385535
16	0xbd4e0360	-0.050296187
17	0xbe2ee2cb	-0.17078702
18	0xbc9067d9	-0.017627643
19	0x3e56d7a7	0.20980702
20	0xbe25c5c2	-0.1618872
21	0xbe35a28d	-0.1773779
22	0x3df364aa	0.118844345
23	0xbd894fd4	-0.06704679
24	0x3e414068	0.18872225
25	0x3e3770dc	0.17914146
26	0x3d1e5da6	0.03866353
27	0xbdb55c7a	-0.08855529
28	0xbe2f7847	-0.17135726
29	0xbd8da926	-0.06917028
30	0x3e0662e4	0.13123661
31	0x3e5cb442	0.21553138
32	0x3e439c1f	0.19102524
33	0xbd0ac59a	-0.033879854
34	0x3e4a021c	0.19727367
35	0x3d8485b5	0.06470815
36	0x3c0f2435	0.00873666
37	0x3e035155	0.12823994
38	0x3e4e9d5f	0.2017722
39	0x3e1c3d57	0.15257774
40	0xbd186f05	-0.03721525
41	0x3c786188	0.015159972
42	0x3e646497	0.22303997
43	0x3e3c7dae	0.18407318
44	0x3bd73d94	0.00656862
45	0xbdc9133d	-0.098181225
46	0xbc9776e9	-0.018489318
47	0x3de22a2d	0.11043201
48	0x3da40afa	0.08009906
49	0xbc840f98	-0.016120717
50	0x3e2cda82	0.16880229
51	0x3e0136b1	0.1261852
52	0xbe4a2c0e	-0.19743368
53	0x3d6ec7fe	0.058296196
54	0x3e39aa05	0.18131264
55	0x3cfc74db	0.03081744
56	0x3e2fbacc	0.17161101
57	0x3e3fbef3	0.18725185
58	0x3e49bab1	0.19700123
59	0x3da8f317	0.08249491
60	0xbe258bd8	-0.16166627
61	0x3d32fb82	0.043696888
62	0x3e27d4be	0.16389748
63	0x3ca945ef	0.02066323
64	0xbd70f1d6	-0.058824383
65	0x3cfb4a8d	0.030675197
66	0x3e20845e	0.15675494
67	0x3c937fcb	0.018005272
68	0xbd36b440	-0.044605494
69	0xbd0660ca	-0.03280715
70	0x3d170ef8	0.03687951
71	0xbe0e99a9	-0.13925804
72	0xbe6db936	-0.23215184
73	0x3dc8a026	0.09796171
74	0x3b8d0ce5	0.0043045157
75	0x3de221fd	0.11041639
76	0x3df85563	0.12125661
77	0x3d848ba9	0.064719506
78	0xbd5d4925	-0.054024834
79	0xbd9f48d2	-0.07777561
80	0xbe34f03e	-0.1766977
81	0x3dccfb4a	0.10008867
82	0x3d60a36e	0.05484336
83	0xbde31011	-0.11087049
84	0xbd9dc118	-0.07702845
85	0xbd8b25ea	-0.06794341
86	0x3e183fb9	0.14868058
87	0xbd414cbb	-0.047192317
88	0x3d0c6f0c	0.03428559
89	0xbe0e6286	-0.13904771
90	0xbe21d212	-0.15802792
91	0xbdbdaa6c	-0.09261021
92	0xbdb296f5	-0.08720199
93	0xbd9ecd14	-0.07753959
94	0x3db6a250	0.089176774
95	0x3d3bf68e	0.04588943
96	0x3e5d94fa	0.21638861
97	0xbdfc0925	-0.12306432
98	0xbd8fefd2	-0.07028164
99	0x3e2e53fa	0.17024222
100	0x3e0bf815	0.13668855
101	0x3e78f0af	0.24310564
102	0x3e1d53f2	0.15364054
103	0x3da16201	0.07880021
104	0xbd3c9bf1	-0.046047155
105	0xbdcd50b0	-0.100251555
106	0x3cf9caf3	0.030492282
107	0x3e322571	0.17397095
108	0xbe178746	-0.14797696
109	0x3e4ddd6c	0.20103997
110	0x3dda64eb	0.1066378
111	0x3c87f004	0.01659394
112	0xbb88a836	-0.004170443
113	0xbd0899ea	-0.03334991
114	0xbdcea116	-0.100893185
115	0x3e6a290f	0.22867225
116	0x3ceae1e8	0.028672174
117	0x3dd514b7	0.10404342
118	0xbde12ab2	-0.109944716
119	0xbe14ba85	-0.14524277
120	0xbdbde134	-0.0927147
121	0xbdc115ae	-0.09427963
122	0x3e104536	0.14088902
123	0x3e4bc434	0.19899064
124	0xbd021495	-0.03175791
125	0x3c814a17	0.0157824
126	0x3e297a59	0.16550578
127	0x3c918466	0.017763328

lstm.bias_hh_l1 f4 [128]
0	0xbdc29880	-0.09501743
1	0x3d1f266f	0.038855013
2	0xbc94b0ea	-0.018150765
3	0x3e452e31	0.19255902
4	0x3bfc26a7	0.0076950374
5	0x3e16ff80	0.14745903
6	0xbd8ac328	-0.06775504
7	0xbe15c732	-0.14626768
8	0x3b606e76	0.0034245527
9	0x3c24fd0a	0.010070095
10	0x3e38af12	0.18035534
11	0x3cb20774	0.02173207
12	0xbdb067cf	-0.0861355
13	0x3e56be51	0.20971037
14	0x3dac743c	0.084206074
15	0xbd7823d2	-0.060581036
16	0xbd9ad374	-0.07559863
17	0x3deebe71	0.116574176
18	0x3e677fca	0.22607341
19	0x3d6bb1e4	0.057542697
20	0xbe31c730	-0.1736114
21	0x3e07d3ad	0.13264342
22	0x3e57d893	0.2107871
23	0x3e32d70a	0.17464843
24	0x3bcbce0c	0.006219631
25	0xbcb55e6c	-0.02213975
26	0xbd60d00e	-0.054885916
27	0x3e2a0bd0	0.16606069
28	0xbe05edc1	-0.13078977
29	0x3e1c6e21	0.15276386
30	0xbc497b30	-0.012297437
31	0x3cc6777d	0.024226898
32	0x3e639ae1	0.2222705
33	0xbe268c72	-0.16264513
34	0x3e6091d6	0.21930632
35	0xbdd155f7	-0.102214746
36	0xbdbcbbb1	-0.09215487
37	0x3e49ddf8	0.1971358
38	0x3d056e93	0.032576155
39	0x3e070203	0.13184361
40	0xbd9aab33	-0.07552185
41	0x3e17f06c	0.14837807
42	0x3e1f6738	0.15566719
43	0x3d1b1a6f	0.037867006
44	0xbc9f10a0	-0.019417107
45	0x3dc8b827	0.09800749
46	0x3d3c361d	0.045950044
47	0x3e116155	0.14197285
48	0x3de0e813	0.10981765
49	0xbdb2f224	-0.08737591
50	0x3e399ecf	0.18126987
51	0xbcd0fb18	-0.025510356
52	0xbd8bd1b3	-0.06827106
53	0x3e059d03	0.13048176
54	0xbd1d170d	-0.03835206
55	0xbd588436	-0.05286046
56	0x3e2d04b9	0.16896333
57	0x3d7fb254	0.062425926
58	0x3dba8b5b	0.09108611
59	0x3dcd8777	0.100356035
60	0x3ddff9d4	0.10936323
61	0x3dabe2ce	0.08392869
62	0xbdd30b5d	-0.10304902
63	0xbcb405b9	-0.021975385
64	0xbe2113f2	-0.15730265
65	0xbe12b7d8	-0.14327943
66	0x3bbdf45b	0.0057969517
67	0xbd4a6ee5	-0.049422164
68	0xbe2e2bc0	-0.17008877
69	0xbd5424d4	-0.051792935
70	0xbe00468f	-0.12526916
71	0xbd14aebd	-0.036299456
72	0xbe108ccd	-0.14116211
73	0xbd3828f8	-0.044960946
74	0x3dedb286	0.11606316
75	0x3e4db565	0.20088728
76	0xbb37824c	-0.0028001247
77	0xbdd1c105	-0.10241894
78	0x3e2da247	0.16956435
79	0x3ca3ecfc	0.020010464
80	0xbe292ee0	-0.16521788
81	0x3d043038	0.032272547
82	0x3db44686	0.08802514
83	0x3e0a1b2a	0.13486925
84	0x3bf3f8ea	0.0074454444
85	0xbdb4a74d	-0.088209726
86	0x3d778d32	0.06043739
87	0xbd4634a5	-0.04839005
88	0x3c4aba2e	0.01237349
89	0xbca82d28	-0.020529345
90	0xbe3abd9f	-0.18236397
91	0x3e1283de	0.14308116
92	0xbd89fa2e	-0.06737171
93	0xbdcb5435	-0.099281706
94	0x3d9a3f9e	0.07531665
95	0x3e119ae1	0.14219238
96	0x3d8056a4	0.062665254
97	0x3e0c146f	0.1367967
98	0xbd9a0f80	-0.07522488
99	0x3e24d9f1	0.16098763
100	0x3db05fe8	0.08612043
101	0xbab7944a	-0.0014005986
102	0xbdde3223	-0.108494066
103	0x3e264a78	0.16239345
104	0x3e08da9a	0.1336464
105	0x3e36bd3b	0.17845623
106	0xbdeb653b	-0.114939176
107	0x3e4ae1d8	0.19812715
108	0x3d0c8995	0.034310896
109	0x3cb9f10f	0.022697954
110	0xbe246ed7	-0.16057907
111	0x3cb31596	0.021860879
112	0xbdd9facc	-0.10643539
113	0xbd79a7bd	-0.060950983
114	0x3b8469b8	0.004040923
115	0x3dd95a1f	0.10612892
116	0xbe123b8b	-0.14280526
117	0xbc2bad82	-0.010478379
118	0xbddfcb8c	-0.10927495
119	0x3d371c42	0.044704683
120	0x3d9a6011	0.075378545
121	0x3da8b595	0.08237759
122	0xbd435407	-0.047687557
123	0x3e67898a	0.2261106
124	0xbdbd79e5	-0.09251765
125	0x3e2ea257	0.17054115
126	0x3e58a98f	0.21158431
127	0xbc0b327d	-0.008495924

bn.weight f4 [32]
0	0x3f88b763	1.0680965
1	0x3f861b73	1.0477127
2	0x3f86f3d3	1.0543159
3	0x3f857eb4	1.0429292
4	0x3f87889d	1.0588566
5	0x3f846af9	1.0345145
6	0x3f88a3bb	1.0674967
7	0x3f860d7d	1.0472866
8	0x3f856aec	1.0423255
9	0x3f865b49	1.0496608
10	0x3f8725ef	1.0558451
11	0x3f872da2	1.0560801
12	0x3f8a3d30	1.0799923
13	0x3f84a747	1.0363549
14	0x3f89f2a3	1.0777172
15	0x3f8543e2	1.0411341
16	0x3f88f3fa	1.0699456
17	0x3f88ca6c	1.0686774
18	0x3f88dc82	1.0692294
19	0x3f85a9dd	1.0442463
20	0x3f87b3e2	1.0601771
21	0x3f878198	1.0586424
22	0x3f87b158	1.0600996
23	0x3f886382	1.0655367
24	0x3f879d88	1.059495
25	0x3f86ee98	1.0541563
26	0x3f88ed1a	1.0697358
27	0x3f87302e	1.0561578
28	0x3f89a9ed	1.0754982
29	0x3f8a41b4	1.0801301
30	0x3f87b28c	1.0601363
31	0x3f8633d8	1.0484571

bn.bias f4 [32]
0	0xbe0b0f1e	-0.13579985
1	0xbdf06f88	-0.11740023
2	0xbd3cf4d9	-0.046131942
3	0xbd6b14d6	-0.057392918
4	0x3d11a391	0.03555638
5	0x3d9665e0	0.0734365
6	0x3dfdac2e	0.12386356
7	0x3d88ea04	0.0668526
8	0xbd88273c	-0.06648108
9	0xbdd57d7b	-0.10424324
10	0xbdc58d2b	-0.09646066
11	0x3d4973e6	0.049182795
12	0xbe057ef1	-0.13036706
13	0x3dad29a2	0.084552065
14	0xbe18b078	-0.14911067
15	0x3b4728f3	0.0030389398
16	0xbdb50911	-0.0883962
17	0xbdf56313	-0.119817875
18	0x3e0af77b	0.13570969
19	0x3d9dc42c	0.077034324
20	0x3e288e0a	0.16460434
21	0xbc24458e	-0.010026349
22	0xbdf1664f	-0.11787092
23	0x3db9991c	0.090624064
24	0x3e00624d	0.12537499
25	0x3d3ce54f	0.046117123
26	0xbe0c4ce6	-0.1370121
27	0xbd862fee	-0.065521106
28	0xbe08d6c5	-0.13363178
29	0x3def19d1	0.11674846
30	0xbd79da53	-0.060999226
31	0xbda44469	-0.08020861

bn.running_mean f4 [32]
0	0xbe58b4e9	-0.21162762
1	0xbd780c69	-0.06055871
2	0x3d99f52c	0.07517466
3	0x3e002c47	0.1251689
4	0xbebbd313	-0.36684474
5	0xbe94a863	-0.2903472
6	0xbe911521	-0.28336433
7	0xbe804574	-0.2505299
8	0xbe92404b	-0.28564677
9	0xbe46416a	-0.19360891
10	0xbec1b5df	-0.3783407
11	0x3e7ea99b	0.24869387
12	0x3e98d13b	0.2984713
13	0x3e75f0ce	0.24017641
14	0x3e80e192	0.25172096
15	0xbe418386	-0.18897828
16	0x3c56370a	0.013074646
17	0x3e1f0b08	0.15531552
18	0x3d1a9c5b	0.03774677
19	0x3d8994eb	0.06717857
20	0x3c1dcf10	0.009631887
21	0xbdd80487	-0.105477385
22	0x3e9975bd	0.2997264
23	0xbebee1a5	-0.37281528
24	0xbe55ae47	-0.20867263
25	0xbeadf078	-0.33972526
26	0x3d3907a1	0.04517329
27	0x3d995e52	0.07488693
28	0x3e89ecd4	0.26938498
29	0xbe6db754	-0.23214465
30	0xbd4272ea	-0.04747287
31	0x3eae4215	0.34034792

bn.running_var f4 [32]
0	0x3e51bad2	0.20481423
1	0x3d821cf7	0.06353181
2	0x3e558de0	0.20854902
3	0x3eb888fe	0.36042017
4	0x3e0c0348	0.13673127
5	0x3ea5a54c	0.32352674
6	0x3e508db0	0.2036655
7	0x3e85f981	0.2616692
8	0x3ddf28dc	0.10896465
9	0x3e53036e	0.20606777
10	0x3e073a67	0.13205872
11	0x3e1d61c8	0.15369332
12	0x3dc459e7	0.0958746
13	0x3e6a267e	0.22866246
14	0x3d850bd0	0.06496394
15	0x3e6b8470	0.2299974
16	0x3d823a2c	0.06358752
17	0x3da89004	0.08230594
18	0x3d15a3a9	0.03653303
19	0x3ee9a95b	0.4563702
20	0x3c25412d	0.01008634
21	0x3d5ee854	0.054420784
22	0x3e366228	0.17810881
23	0x3e21287e	0.15738103
24	0x3e816822	0.2527476
25	0x3e4bbb05	0.19895561
26	0x3e634140	0.2219286
27	0x3eb6f9fe	0.35737604
28	0x3e119b24	0.14219338
29	0x3e18f72c	0.14938039
30	0x3ef7a5b7	0.48368618
31	0x3e2217ee	0.15829441
