model/best-GRU.pth (torch, 61703 bytes, 16 tensors)

gru.weight_ih_l0 f4 [96, 8]
00000000: e5fd 48be f735 c13d 8a47 9b3d 161c b53d
00000010: c8b8 22be 1b25 b53d 214f f1bd 559f 90bd
00000020: 5a45 7dbd 51ed 2c3e 3cb2 553e 85c6 303e
00000030: 22d6 82bd 469d 2e3e 291e 6fbd 8aff 05be
00000040: b0a4 8cbd e4d3 4d3a 3f1e dcbd 41e5 193e
00000050: 1696 0e3e 8a99 1cbe 4f37 113e 3abf b6bd
00000060: 81f7 cc3d 98dd 7d3d 7922 3b3e ac0b 44bd
00000070: e5e6 5dbd 7559 23be 7326 3f3d f786 1f3e
00000080: 99aa a03c 3457 d43d 0199 42bc d881 89bc
00000090: 74d3 8bbd 10d1 9ebd 2fcc 153e 617f 80bb
000000a0: 6bc1 97bb 5e62 4dbd 4252 903d 4497 5c3d
000000b0: 248a 813e 9e88 413e e014 02be e0db b93d
000000c0: 1573 6e3e ca23 23bc 8b0c 833d 8022 d63c
000000d0: 0a2f 18bd 5bd1 13be 4959 053e 8eb6 e83d
000000e0: 8675 9e3d 7082 5c3d aede 893c 103d 8dbc
000000f0: 863e 60bc a1c9 10be 2a4c a9bd fbf0 d63c
00000100: 9a45 46bd 4ec3 223e 3107 723e 5383 00be
00000110: 730e 213e 2a68 793d a5cd b3bb 7a00 0abe
00000120: 1674 e13d b63a 53be 4247 2fbd 2301 f0bd
00000130: 0aef 353e 6bfb d9bd fd67 15be 9346 abbd
00000140: e153 b7bb 7a69 043d 05bb ff3d 2e9f a23d
00000150: d66b 823d 068d 8abd 4c19 c83d 7351 543e
00000160: fdbc 1ebe 3c2f aebd 57e9 ce3d 9fc6 113e
00000170: 38cb 0b3e e9b6 7a3d 9e21 dc3d 740c d7bd
00000180: f0d3 ad3d a873 a6bd 1455 793d 1665 76bd
00000190: 6922 663d 97a4 05bc 0ae2 003e 6951 703d
000001a0: 8dec b3bc 6038 6d3e bff1 8ebd 6084 2dbc
000001b0: 3cfa 8e3d 3809 d5bc 04c3 8ebd 175d 18be
000001c0: 931f 103e 317e 0c3e 96ad 393e a0c7 02bc
000001d0: 8778 1fbe 9093 8cbd 57ea b5bd 6978 323c
000001e0: 7ef8 05be 7bff b4bd 2abe 203e 06c2 de3d
000001f0: 70a0 1dbe 2425 23be 0b09 0abd bd2c 0bbe
00000200: d5f8 f63d 9d88 3dbd e0fe ef3c 4d1b 93bd
00000210: 00aa 613d 8967 aebd fb96 1cbc 4fd2 fb3d
00000220: 6844 1cbd f7ea a33d cbf9 143d 23b8 11be
00000230: 44e6 d1bd e0f5 0f3e abec 623e 92ac bdbd
00000240: e2df 09be fd15 5c3e e3d9 2d3e a64b eebd
00000250: 1dac 4f3e 8113 943d 8a6e fb3d 0635 3c3e
00000260: 5811 bfbd 462c 1dbe caff 11be a8b9 e7bc
00000270: 7727 173e 944c f93d ad59 033e b3a9 143e
00000280: 403b deba 0d06 c4bd 7a21 5cbe 8039 0ebe
00000290: 12e5 0cbe dd8c 0ebe 998e a03b 4e98 9fbd
000002a0: ff30 2ebe 698b 4aba 9d89 56be 6209 07be
000002b0: e52d 15be 0a1a 38bd 7b89 21be 3dd5 15be
000002c0: 9e19 283e 6290 223e 5c2d 1dbe 90ff 75bc
000002d0: 527c a93c afe0 08be 1290 2f3c 23df c53d
000002e0: 3048 cd3d c6a1 dabd bb7f 353e 58ba 53bd
000002f0: b894 943e 94e5 3e3e e072 b8bd 1051 25be
00000300: 2af7 883d 3ed5 87bd 8a0a c43d 9c41 42bd
00000310: efb0 73be 295b a13d 8601 54be 27fa 123d
00000320: ddc9 a73d a502 853e b389 81bd 3295 b83d
00000330: af29 eebd 9495 36bd 798d 483e 3f63 e23d
00000340: 9497 ed3d b9b2 5cbe 723f aa3c 14f7 0d3d
00000350: 7db0 21bd e081 1abe 026d 20be 72e5 85bd
00000360: 95ce 28bd 1203 4d3e 0dd1 893d a6e1 88bd
00000370: f6eb b9bd bb88 24be 6ce5 22be 5010 6cbd
00000380: 9f2e 693d 9d52 7dbd 1467 87bc fa1d 65bd
00000390: 2aeb 3cbe 066a 623d f810 0fbd 228c 083e
000003a0: 117a 5cbd 19e4 4f3e 7871 d9bd d5af 1b3e
000003b0: 8d8c 44be 3d16 3fbe 2075 5ebd 25e0 1e3c
000003c0: 3a08 bcbd b0a7 cdbd ce51 04be 3f61 0b3e
000003d0: 903d 993e 0ad6 393e 09c7 4abd 72ea 143e
000003e0: 38e7 d13c 2ded cf3d a03b 4b3e a811 383d
000003f0: 719f b83d 63cb 61be a676 c9bd c38c f13c
-0.19628103 0.09434121 0.07582004 0.088432476 -0.15890801 0.08844968 -0.11782671 -0.0706164
-0.061833717 0.16887404 0.20868772 0.17263229 -0.06388499 0.17052183 -0.058378372 -0.13085762
-0.06867349 0.00078517036 -0.107479565 0.1502886 0.1392444 -0.15292946 0.14181255 -0.08923192
0.10008145 0.061978906 0.18274869 -0.047862694 -0.054175276 -0.15952094 0.046667527 0.15578829
0.019612597 0.10368195 -0.011877299 -0.016785547 -0.06827441 -0.07754719 0.14628671 -0.0039214347
-0.0046312115 -0.05014264 0.070469394 0.053855196 0.25300705 0.18899772 -0.12703276 0.09075141
0.23286088 -0.009957263 0.06398877 0.026139498 -0.037154235 -0.14435332 0.13022341 0.113629445
0.077372596 0.053835332 0.016829815 -0.017241031 -0.013686782 -0.14139415 -0.0826648 0.026237955
-0.04840622 0.15894815 0.23635556 -0.12550096 0.15728168 0.060890354 -0.005487161 -0.13476744
0.1100847 -0.20627865 -0.042792566 -0.11718967 0.17766967 -0.10643657 -0.1459045 -0.0836307
-0.005594716 0.032327153 0.12486843 0.07940517 0.06368224 -0.06765179 0.0977045 0.20734195
-0.15501781 -0.08505103 0.101031 0.14235924 0.1365174 0.061209593 0.107485995 -0.10500422
0.084876895 -0.081275284 0.060872152 -0.060154997 0.05618516 -0.008156917 0.12586227 0.05867139
-0.021963382 0.23166037 -0.06979703 -0.010590643 0.06981322 -0.026005372 -0.0697079 -0.14879261
0.14074545 0.13720013 0.18132624 -0.007982165 -0.15573321 -0.06864083 -0.088825874 0.010892966
-0.13083073 -0.088377915 0.15697542 0.10876851 -0.15393233 -0.15932137 -0.03370003 -0.13591285
0.1205918 -0.046272863 0.029296339 -0.071829416 0.055093765 -0.085158415 -0.009557481 0.122959726
-0.038151175 0.080038 0.036371034 -0.14230399 -0.10248998 0.14058638 0.22160594 -0.09261431
-0.13464311 0.21492763 0.16977648 -0.116355225 0.202805 0.072302826 0.12276943 0.18379602
-0.0932948 -0.1534892 -0.14257732 -0.02828677 0.14761148 0.12172809 0.12827177 0.1451786
-0.0016954914 -0.095714666 -0.21497145 -0.13889122 -0.13759258 -0.13920923 0.0048998115 -0.07792722
-0.17010878 -0.0007726462 -0.20950933 -0.13187173 -0.14568289 -0.044946708 -0.15775101 -0.14632125
0.16416022 0.1587539 -0.15349334 -0.015014544 0.020689163 -0.1336696 0.010715501 0.096617006
0.10023534 -0.10675387 0.17724507 -0.051691383 0.29019713 0.18642265 -0.09006286 -0.16144204
0.06687768 -0.066324696 0.09572323 -0.04742585 -0.23797964 0.078787155 -0.20703706 0.035883095
0.08192799 0.2597858 -0.06325092 0.09012832 -0.11629044 -0.044576243 0.19585218 0.11054086
0.11601177 -0.21552552 0.020782206 0.03465946 -0.039474953 -0.15088606 -0.15666583 -0.06537904
-0.041212637 0.20020702 0.067293264 -0.06683664 -0.09078209 -0.16067784 -0.1590783 -0.057632744
0.056929227 -0.061846364 -0.016528644 -0.05593679 -0.18449083 0.055276893 -0.034928292 0.13334706
-0.05382735 0.20301856 -0.106173456 0.15203793 -0.19194241 -0.18660827 -0.054310918 0.009696995
-0.091812566 -0.100417495 -0.12921831 0.13611315 0.2992978 0.18148056 -0.04950622 0.14542559
0.025622949 0.101526596 0.19846964 0.044938713 0.09014786 -0.22050242 -0.098370835 0.029486066

gru.weight_hh_l0 f4 [96, 32]
00000000: 39c3 603d 5e4a eebc 055f d23c c3c2 37be
00000010: 212b 99bd 84ce bdbd 7f50 d3bd 6e6a 25bd
00000020: d7ba e23d d52f 3f3e 045f 32bb f925 cfbd
00000030: 24f5 0b3e c434 f9bd 5f2e ddbd a316 35be
00000040: cccc 85bd e84c ff3d 1729 943d 276c 353e
00000050: 13f3 94bc 2209 bbbd ab4b b63d b015 a13d
00000060: d11f 46be e464 5bbd 13f8 c23d 8829 27be
00000070: d9df 01be 7211 083e f435 b53d 364f e13d
00000080: fff2 053d b5ad 2a3e 07e5 ee3d 4151 ec3c
00000090: 5ecd e7bd e88c dc3d 15bc 813d eee9 573e
000000a0: a2be 6cbc c8a7 c9bd 836b 853c 2ea2 2c3e
000000b0: 6e5f 01bd cd3a 973c 5d57 d13d b922 643e
000000c0: 491f e63b 0d20 b13d c8ad 083d 3dbf 01bc
000000d0: 84a4 a3bd c06e c53d e9da ed3d 63ed ef3d
000000e0: 78d2 6bbd ff3c b83c 140b 32be a634 e8bd
000000f0: fa60 903b b534 e13d d076 e6bd fdb0 70bd
00000100: a7f0 813d 4cd0 2fbe bbcc 4dbc edb6 5bbc
00000110: af73 07be 50e7 3e3e 5577 563e ca9a d5bd
00000120: cf30 bd3d c939 8b3d 595b 9b3c ee61 e03d
00000130: 57a1 02bd 1f50 093e 4fdd 803d 5860 a63d
00000140: 2c84 95bd f696 babd 60ba ae3d 5df6 a03b
00000150: fcf9 6ebd f1d3 2c3e 0f2e bebd 3e7e 0c3c
00000160: 8745 213e 0e6c eabd 6204 f93d 4a54 5bbc
00000170: 6b09 a6bd 7b20 9f3d 7ac5 433e 6bb7 9ebd
00000180: 3cb3 32be 2d37 cc3d 9104 1f3e 812b 82bd
00000190: 87d8 a2bd c421 fc3d 5e7e a2bc 9f9f e23c
000001a0: a0c2 333e 2451 e03b 5b84 c03d caac 18bd
000001b0: 9a38 253d 9dbc 463e a59e 7cbd 2547 313d
000001c0: 8d30 6dbd 541a 4c3d 2c16 26bb 84f5 883d
000001d0: 531f 88bd a240 fabd a3ab fc3d 2b60 efbd
000001e0: 8637 ffbd e89d 4e3d 6914 353c 66ec a7bd
000001f0: 7578 acbc 7d85 0e3e 53c3 eb3d f92b 16be
00000200: 5f2b 0b3e dfbf afbd 9e28 293e a8ad 20bd
00000210: 008a 80bd 17ff 623d 9376 14be fc5b cebd
00000220: 9eb3 f63c e31d 9d3c 9e1d 283e 9db7 08be
00000230: afd3 15ba 3034 c83c f3b2 013c 6633 07bd
00000240: d351 d3bd bb92 e93d dbc3 3ebd b1de aa3c
00000250: 11dd f8bd 26bd 85bc 6aa5 cdbd 4fc5 bfbd
00000260: 1557 90bd 03e6 02be 8070 863d 7f77 3ebd
00000270: 928e 2a3e f38e 973c dd1e 543e e6dc 923d
00000280: c9c3 c8bd ffb4 853d 2a7c 8e3d a81e 2c3d
00000290: 0114 9e3d 2f29 febd cf5f 56be 4afc f63a
000002a0: 0d27 d83c 39ea 51bc aa2d 5c3b a888 c33d
000002b0: ac08 27bd ad92 36bd e41d a5bd 586f 2cbd
000002c0: 0e0f 00bc d828 72bd 120e 483e a19b 673d
000002d0: 605b 023e 39fe e1bc 188b b73d 14ad 28be
000002e0: 2ebd 41be 4251 373e 3702 493e def2 1bbe
000002f0: 7bb0 983d 2615 6b3d 09d6 15be 8ed9 46be
00000300: 2cbc 11be 3e14 40be faa0 02be 5064 20bc
00000310: 2285 2d3d 95ad 16bd 0a9e fa3d 5233 1ebc
00000320: ae06 bfbd 67ac c83d 3f1e 073d 00a2 6d3e
00000330: 1e7c b3bd 98bf b9bd 9c9d 043e f54e 613e
00000340: 4c9b 21bd 8660 a83d 2d30 3a3d ca92 48bd
00000350: 4ee9 1d3e 6004 a23d b1e6 c33c c828 04bc
00000360: 683d 6b3e 4d05 08bc 3f5c 83be 0497 04be
00000370: a4c4 9e3d b351 c63c 7367 713d 776f 27bd
00000380: b8df 223d 3f61 9abd 38de 9bbd 2d0f 4a3e
00000390: 15f7 40be b175 8abd 9f6c 4d3e 0536 05be
000003a0: 67f2 e8bd 122e 37bd a27b 423b 869f cf3d
000003b0: 0a86 5dbe 0868 223e d671 24be c241 cc3d
000003c0: 34ff edbd 89a9 b63d 3ee7 f73d 072d 50bd
000003d0: c7f2 d1bc dcaa a7bc bdce 243e 0538 21bd
000003e0: 0021 7dbd abd0 003e 6c7f 70bd 70e7 1c3d
000003f0: 0baf ecbd a75e 1ebe cd7d 423e 264c 41be
0.05487368 -0.029088195 0.025680074 -0.1794539 -0.07478929 -0.09267905 -0.10318088 -0.040384702
0.11070793 0.1867059 -0.0027217278 -0.101146646 0.13667732 -0.12168267 -0.1079986 -0.17684416
-0.065332025 0.124658406 0.072344 0.17717038 -0.018182313 -0.09132601 0.08901151 0.07865465
-0.19348074 -0.053563014 0.09519973 -0.16324437 -0.12683047 0.13287905 0.08848181 0.110014364
0.032702442 0.16667826 0.11664777 0.028847339 -0.113184676 0.10769063 0.06334702 0.21085331
-0.014449747 -0.09846455 0.016286617 0.16858742 -0.03158515 0.018460656 0.10221741 0.2227887
0.0070227725 0.08648691 0.033368856 -0.00791913 -0.07990363 0.096402645 0.116140194 0.117152
-0.057573766 0.022490023 -0.17387038 -0.11338167 0.0044060918 0.10996381 -0.112531304 -0.05876254
0.06344729 -0.17169303 -0.012561019 -0.013410312 -0.13227724 0.18642926 0.20943959 -0.10429914
0.09237825 0.06798131 0.018964456 0.109561786 -0.031892147 0.1340947 0.06292211 0.08123845
-0.073006004 -0.09110825 0.08531642 0.0049121813 -0.058343872 0.16877724 -0.09286129 0.00857502
0.15749179 -0.11446391 0.12159039 -0.013386795 -0.08107265 0.07769867 0.191183 -0.07749828
-0.17451185 0.099714614 0.15529086 -0.06355954 -0.079514556 0.12311128 -0.019835647 0.027664004
0.17554712 0.00684561 0.09400245 -0.03727416 0.040337183 0.19407888 -0.061674733 0.04328074
-0.05790763 0.049829796 -0.0025342805 0.066874534 -0.066465996 -0.12219359 0.123374246 -0.116882645
-0.12461762 0.05044356 0.011052229 -0.08199386 -0.021053532 0.13918109 0.115118645 -0.14665212
0.13590764 -0.085815184 0.165194 -0.03922811 -0.062763214 0.055419054 -0.14498357 -0.100761384
0.030114945 0.01917929 0.16417548 -0.13351293 -0.0005715442 0.024438947 0.0079162 -0.033008
-0.10318341 0.1140494 -0.0465735 0.02085814 -0.1215154 -0.016325545 -0.10041316 -0.093638055
-0.070478596 -0.12783055 0.065644264 -0.04650068 0.16655949 0.01850078 0.20714898 0.07171039
-0.09802968 0.06528663 0.06957276 0.042021424 0.07718659 -0.12410199 -0.20934986 0.0018843499
0.026385808 -0.012812191 0.0033596554 0.095475495 -0.040779755 -0.044573475 -0.08062342 -0.042098373
-0.007816089 -0.059120983 0.19536617 0.056544904 0.1273017 -0.027587043 0.08962077 -0.16472274
-0.18919823 0.17902091 0.19629751 -0.15229365 0.07455536 0.057393216 -0.14632429 -0.19418928
-0.14231938 -0.18757722 -0.1275672 -0.009789541 0.042363293 -0.036786634 0.12237175 -0.00965579
-0.09327446 0.09798508 0.03298783 0.2320633 -0.08763908 -0.09069747 0.12950748 0.22002776
-0.039454743 0.082215354 0.0454561 -0.048968114 0.1542103 0.07910991 0.023913713 -0.008066364
0.22972643 -0.008302045 -0.25656316 -0.12948233 0.0775235 0.02420888 0.058936547 -0.040877786
0.039764136 -0.075380795 -0.07610744 0.19732352 -0.18844254 -0.06760729 0.20060967 -0.13008888
-0.113743596 -0.04472167 0.0029675742 0.101378486 -0.21633163 0.15859997 -0.1605905 0.0997348
-0.11620942 0.08919055 0.12104653 -0.05082419 -0.02562846 -0.020467214 0.1609449 -0.039360065
-0.06179905 0.125796 -0.05871527 0.038306653 -0.11556824 -0.15465795 0.18993302 -0.18876705

gru.bias_ih_l0 f4 [96]
00000000: 96e7 f5bd 9721 3c3e fe24 463e f956 a0bd
00000010: d5ac 843d b27e c7bc 26a0 cdbc 639f 933b
00000020: d1ee 443d 6b5c 1bbe 67d4 3abd d4c5 3bbe
00000030: 9217 c8bd ce8b 9f3d 60b6 1f3d d1b5 6dbc
00000040: 6e0b 243d 2ed6 39bd 80ac 2fbe 61ad 06bd
00000050: 73fd 2dbe 66f3 da3d 1e79 40bd 8cc3 993d
00000060: 7de8 62bd 1f69 723e a975 35be dde4 a1bc
00000070: 7e84 343d 47aa e4bd bf3d 7f3d a16b 433e
00000080: d9c9 e8bd 9d20 c5bd 4c1c 08be cae0 86bc
00000090: 6ff2 143e 2215 cb3d 48b2 6e3d e1cf b03d
000000a0: a8cb dabd 8f5d dbbd f37f 48be badb a1bd
000000b0: 65f7 2d3c db6d 0a3e 4585 13be 0ca6 37bd
000000c0: a366 4ebe 22dc a93d 4040 33be 056a 33be
000000d0: 40a5 84be c245 6bbd a073 6c3d 1a74 90bd
000000e0: 292b 62bd 1c73 55be f565 833c 5675 21be
000000f0: e9c3 07be e3ad ca3c 1e24 c1bd 47a8 7fbd
00000100: 09ef 533c e775 cf3d 0d1e 233e 8626 b63c
00000110: cb07 663e 637a 3bbe e274 07bc 0ed2 df3d
00000120: 4d2b f33d b22e a53d 06a7 ad3d 37f7 2ebe
00000130: 7624 923d 7611 16be 7c5f 54bc 3701 c23d
00000140: 2051 74be cbe5 1bbe f807 fa3d ba5e c4bd
00000150: 8ed3 de3d bac3 e23d 4c4a da3d 1274 0bbd
00000160: b569 513b a09d 25be 03dc f33d ca73 9abc
00000170: 2806 b838 d674 143e 5c49 3f3d 5e19 6f3d
-0.12007062 0.18372189 0.19350049 -0.07829089 0.064782776 -0.024352405 -0.025100779 0.0045050844
0.048079316 -0.15171973 -0.04561272 -0.18337184 -0.09770121 0.077903375 0.038992286 -0.01450868
0.040049963 -0.045370273 -0.17155647 -0.03288019 -0.16991214 0.10690956 -0.046990506 0.07508001
-0.0553975 0.23672913 -0.17720665 -0.01976245 0.044071667 -0.1116529 0.062314745 0.19084026
-0.113666244 -0.09625361 -0.13292044 -0.01646461 0.14545606 0.0991614 0.05827549 0.086334
-0.106833756 -0.10711204 -0.19580059 -0.07903238 0.0106180655 0.13518469 -0.14406307 -0.04483609
-0.2015634 0.0829394 -0.17504978 -0.17520912 -0.25907326 -0.057439573 0.057727456 -0.070533946
-0.055216942 -0.20844692 0.016039828 -0.15767416 -0.13258328 0.024741119 -0.09430717 -0.06241634
0.012935408 0.1012991 0.15929432 0.022235166 0.2246391 -0.18308406 -0.008267613 0.109287366
0.11873493 0.08065547 0.08479123 -0.17086492 0.071358606 -0.14655098 -0.012962218 0.09472888
-0.23859072 -0.15224378 0.12208551 -0.0958838 0.108801946 0.11072488 0.10658702 -0.03404624
0.0031953875 -0.1617341 0.11907198 -0.01885404 8.7749504e-05 0.14497694 0.04670082 0.0583738

gru.bias_hh_l0 f4 [96]
00000000: 06cc 3bbd 6335 373c 91cc a23d 6e42 1c3e
00000010: 67c2 833d 8e35 fcbd fe14 563e 2309 a6bd
00000020: e358 ed3c be12 0ebe 8a48 083e e3bf 023e
00000030: 4305 7f3c e38a 0cbe 4e01 f8bd c02a 2e3e
00000040: 3ecc d13d 444d 683d f8e3 f23d 8df3 b6bd
00000050: 7bad cebd c3bd a83d 6da3 8a3c e03d fa3d
00000060: 62e1 ac3d b464 493e c0c0 c6bb b277 52bc
00000070: 9750 d4bd d42f 1e3e 28a4 11be ac0c afbd
00000080: 5638 193e a497 4ebe a252 9cbd 344d 453c
00000090: ad50 6b3e f8f3 c73c 719d b5bd bb1c 87bd
000000a0: dbc4 c1bc 4c9d 43be fd6a 28be c5b6 c13d
000000b0: 92f8 b3bc 5a80 f5bc 5afb 3dbd f8e3 d7ba
000000c0: d837 38bd 1c5e d4bd cc0f f6bd 0fe4 ab3d
000000d0: 4dd9 a0bd 4455 593d f4c2 cbbd edcd 823d
000000e0: b1e7 09be 94d0 51be 9d2c 59bb f0dd de3d
000000f0: c848 44bd 4c17 20be 9631 9cbd ec32 d93d
00000100: e5b1 703d a5a2 133d 5efe f23d 7f81 0a3e
00000110: 458d c43d 5bbf 2e3e 9267 e4bc 04fc f93d
00000120: 7b91 6cbd 147b 853d 149c 3fbd 4f35 66bc
00000130: 8387 12be aece 6e3d 2135 2d3e 1e89 4c3d
00000140: 6784 c639 cb2b b73d 1410 0b3d fa43 36be
00000150: 6617 e83c b092 ec3c e859 a0bd 5ae7 d7bd
00000160: ab52 fe39 57a8 b73d a2b3 8cbd 0fb1 b83d
00000170: 236d b0bd ef7a 32be a8c6 00be 08e4 103d
-0.04584887 0.011182162 0.07949174 0.15259716 0.06433564 -0.12314902 0.20906445 -0.081072114
0.028973049 -0.13874337 0.13308921 0.12768511 0.015565219 -0.13724856 -0.12109624 0.17008495
0.10244034 0.05671431 0.11859888 -0.089331724 -0.100916825 0.08239319 0.01692363 0.12218833
0.08441426 0.19667321 -0.006065458 -0.01284592 -0.10366934 0.15447932 -0.14222777 -0.08547339
0.14962897 -0.20175034 -0.076329485 0.012042332 0.22979994 0.024408326 -0.0886792 -0.06597277
-0.023653438 -0.19102973 -0.16447063 0.09458689 -0.021969113 -0.02996843 -0.046382286 -0.0016471138
-0.04497513 -0.103695124 -0.12014732 0.08393108 -0.07853947 0.05305983 -0.09949294 0.063869335
-0.1346729 -0.20489722 -0.0033138164 0.10882175 -0.047920972 -0.15633887 -0.07626645 0.10605416
0.058763403 0.03604378 0.11864923 0.13525961 0.095972575 0.17065184 -0.027881417 0.12206271
-0.05775593 0.06517616 -0.046779707 -0.014050796 -0.14309506 0.058302574 0.16914798 0.049935453
0.0003786415 0.089439 0.03395088 -0.17799369 0.02833147 0.02887854 -0.07829648 -0.10542174
0.00048508248 0.08967655 -0.068702 0.09018146 -0.08614566 -0.17429708 -0.12575781 0.035373718

gru.weight_ih_l1 f4 [96, 32]
00000000: 0f28 42be 7c52 17be cedb a53d b095 1f3e
00000010: 47a1 0bbd bc55 b9bd ed1d 593e 41b4 2dbe
00000020: e06c cc3d 9cf3 43be 1d04 69bd 1b6b eabd
00000030: 70d1 b5bd c08e 52bc 2804 75be cb33 103e
00000040: ab4d be3d 4480 9c3d 40ab 64bd 3d20 813d
00000050: f6c9 c9bd baab 9dbd 1391 8dbd 3400 b73d
00000060: cd88 823e edaf b8bd 32fa 47be f38d 11be
00000070: 706d 04bc 6f19 92bd 8043 bd3d 8406 14be
00000080: e982 c4bd d7c8 27be ae9d 0fbb d904 673e
00000090: 7d64 363d a569 603c afd6 c9bd 5218 b6bc
000000a0: cc8a 583e f576 5abe 0391 1ebe ee9e d53c
000000b0: bc08 6a3d b7d1 da3d 384f 78bc 516f 2a3d
000000c0: 296c 45be 53dd fbbc 8001 e23b dfd6 0c3d
000000d0: 82b9 78bd 51f5 ad3d 92cd 413e a491 8d3d
000000e0: ca4a 1b3e f8ae a3bd 2d1d d0bc ed1e 45be
000000f0: 80a5 e23d 6209 03be 4442 db3d b3a3 7bbe
00000100: 59a7 343d a67a 6cbd bb42 c43d 8a5b f0bc
00000110: da19 22bd 0d90 a63d 0112 cebd 0aee 06be
00000120: 21e3 cbbd beb5 04bd 0b43 e13d b722 90bc
00000130: 6a21 debd b0de cebd 934a 93bd 6cf7 433d
00000140: f92c 603d 4e6d 1ebd d48c 11bd 4e40 4e3d
00000150: 11e2 1b3d 82ec 25be 5ef3 bebd cdd4 2b3e
00000160: 19df cb3c 8d73 9b3d df11 183e d5a9 fb3d
00000170: d314 7ebd 7ba4 cd3d bd84 3c3e fd50 f23d
00000180: 22f5 b43d 2fe7 b03d 1a70 d73d d123 2abe
00000190: 904f ba3d 502f e73d e3d7 bb3d 4e8c 7fbd
000001a0: 830c 0b3e a961 593d d059 3ebe 6b90 c3bd
000001b0: 33a8 3dbe 53e9 223e 6ba2 68be ba6c 82bd
000001c0: 67c7 18be c2a6 bf3d 1f6d bd3c 123f b7bd
000001d0: 31e0 f9bd ddc6 b63d ef42 ad3c d5c6 5cbd
000001e0: eb53 d0bd 57e5 f33d 8491 e93d 2555 6dbc
000001f0: 4900 953d a82a 0fbe 6104 18be 3b75 cbbd
00000200: 280d 7bbe df0b 21be f6fa 813c b565 8ebd
00000210: dadb 593d 04c6 bdbc fa90 bf3d 3c1b 9b3d
00000220: 94da e8bc ab45 d2bd f8c4 f7bd 0996 8abe
00000230: 18c6 a83d 7295 3e3e 7357 4bbe 68f0 f13b
00000240: f610 633d 25c1 c83d 5dda 38bd 8e14 843a
00000250: b22b 0ebd 9bf8 393e 881e db3d 318f f33d
00000260: 7591 d43d ee78 1f3e 3613 503e 93cf 2b3e
00000270: d64e 463e dc44 4c3d 5d70 0a3d fd5e 8dbb
00000280: 190a 9c3d 119b 9dbd 8f58 923d 86ca f33d
00000290: 7bc5 88bd 30ec 063c e320 0f3e e6d7 1e3e
000002a0: f411 323d 21fa 1dbe 496c 0ebe ac35 16be
000002b0: 1509 c13c e129 00be 65c6 3ebe 532d 9b3c
000002c0: ce3a 2c3e 00a3 b6bd 818a 09be b15e 1cbe
000002d0: ddb4 933c 9779 4c3d be46 f2bc fa2a 45bb
000002e0: 98be 133d 2dbc 30be 11a4 443e 4f22 77bd
000002f0: 852d 2f3e 00c8 f03d c6e6 88bb 95eb 88bd
00000300: e0fe 11be bf53 64be dcc0 9d3b 6966 0f3e
00000310: f942 26bd 8924 14bd ec48 0ebd a02c 1e3e
00000320: db8a 043e 8120 e53d e16a 07be dcb7 e93c
00000330: 3d06 bc3d 3645 0a3e 90d1 92be 3df8 283d
00000340: 61c4 423d 9697 4b3e 0115 853e 32f6 863d
00000350: 6bdd 68bd fc88 453e d833 0e3e 5df9 4338
00000360: d1d7 263e 8ebd e0bd ddd8 cfbc 782f 733d
00000370: 39ba 8b3d 72eb adbd d1d5 1c3e bbcc aabd
00000380: 321f 093d ec64 7b3d 3a85 593e d0bc 29bd
00000390: 1851 d73b 152e 3b3e 6276 f63d fadc aabb
000003a0: de73 f83d e366 00bd 907b e0bd ee82 523e
000003b0: 3929 b93d d25c aabd 29a2 0f3e 0e10 b33b
000003c0: 9d15 8cbd add3 a03d 7feb 103e 90c9 08be
000003d0: 38a6 163e 3bf8 453d 8963 bc3b 7fdc 053e
000003e0: ced5 95bd dd23 13bd 0b7e 76be 74a8 903d
000003f0: 9578 463e a306 31bc 8eec e9bd d59b 023e
-0.18960594 -0.14777559 0.08098565 0.15584445 -0.034089353 -0.09049556 0.21202822 -0.16963293
0.09981704 -0.19135898 -0.05688869 -0.1144621 -0.08877838 -0.012851417 -0.23927367 0.14082257
0.09292158 0.07641652 -0.05582738 0.06304977 -0.09852974 -0.0769877 -0.06912436 0.089355856
0.25494996 -0.0901793 -0.19529036 -0.14214306 -0.008082733 -0.07133757 0.0924139 -0.1445561
-0.09595282 -0.16385208 -0.0021914053 0.22560443 0.044529427 0.013697063 -0.09855401 -0.022228394
0.21146697 -0.21334441 -0.15485005 0.02607676 0.057137236 0.10684531 -0.015155606 0.041610066
-0.19279541 -0.030745184 0.0068971515 0.034384605 -0.06072379 0.08494056 0.18926075 0.06912544
0.15165249 -0.07992357 -0.025404537 -0.19250078 0.11066723 -0.12796548 0.107059985 -0.24574165
0.044104908 -0.057734154 0.0958304 -0.029340524 -0.039575435 0.08132944 -0.10062028 -0.13176742
-0.09955431 -0.032399885 0.109991156 -0.017594678 -0.10846217 -0.10101068 -0.07191958 0.04784338
0.05473039 -0.03867846 -0.035534695 0.050354294 0.03805739 -0.16203502 -0.09323762 0.16780396
0.024886655 0.07590399 0.14850567 0.12288252 -0.06203158 0.10041138 0.1841001 0.118318535
0.08835818 0.08637845 0.105194286 -0.16615225 0.090972066 0.11288321 0.091720365 -0.062389664
0.13578992 0.05307165 -0.18588948 -0.0954903 -0.18521194 0.15909319 -0.22718208 -0.06368394
-0.14919816 0.093579784 0.023123322 -0.089475766 -0.12200964 0.08924649 0.02115008 -0.05390056
-0.10172256 0.119089775 0.11404708 -0.014485632 0.07275445 -0.13981116 -0.1484542 -0.09934469
-0.24516737 -0.15727185 0.015866738 -0.06952993 0.053188182 -0.02316571 0.09353824 0.07573554
-0.028424539 -0.10267194 -0.12098116 -0.27067593 0.082409084 0.18611696 -0.19857578 0.007383395
0.055436097 0.098024644 -0.045130122 0.0010076927 -0.03470964 0.18161242 0.10699183 0.11892546
0.10379306 0.15573475 0.20319828 0.16778402 0.19366011 0.049870357 0.033798564 -0.004314302
0.076191135 -0.07695592 0.071457975 0.11903863 -0.066782914 0.008235022 0.13977389 0.15512046
0.043474153 -0.15427448 -0.13908495 -0.14668912 0.023563901 -0.12515976 -0.18630369 0.01894251
0.16819307 -0.089178085 -0.13431741 -0.15270497 0.018030578 0.049920645 -0.029574748 -0.003008543
0.036070436 -0.17259283 0.19203211 -0.060335454 0.17107208 0.11756897 -0.004177901 -0.06685559
-0.14257383 -0.22297572 0.0048142504 0.1400391 -0.040591214 -0.036167655 -0.034737512 0.1544671
0.12943594 0.1118784 -0.13224365 0.028530054 0.09180877 0.13502964 -0.28675508 0.041252363
0.047550563 0.19882044 0.25992587 0.06589927 -0.056851786 0.19290537 0.13886964 4.672386e-05
0.16293265 -0.10973655 -0.025371963 0.05937144 0.068226285 -0.08492173 0.1531594 -0.083398305
0.033477016 0.061375543 0.21242228 -0.04143983 0.0065709464 0.18279298 0.120342985 -0.0052143307
0.12131475 -0.03134812 -0.10961068 0.20557758 0.09041066 -0.08318485 0.14026703 0.0054645604
-0.0684006 0.07852874 0.14152335 -0.1335814 0.14711845 0.048332434 0.00574917 0.13072394
-0.07316171 -0.035922874 -0.24071519 0.0706338 0.19381936 -0.010804805 -0.11422072 0.12754758

gru.weight_hh_l1 f4 [96, 32]
00000000: cb50 18bd 31b5 17be 6ccb 94bd cbff e23c
00000010: 6eed ce3d a75b b33d d011 1fbe db5d 4e3d
00000020: 684f 44be 3ee6 343e 098a 1fbd b1b0 783d
00000030: 4222 583c c634 22be b0b3 033e c092 52bd
00000040: d9c4 e83d b625 233e 2a90 b1bd 4b06 23be
00000050: 88ed 3a3e 7b8c d8bd 6031 703e e85b e43d
00000060: ab30 82be 6439 25bd 4671 00be 27d5 773e
00000070: a058 803a e518 f83d c6ae 8cbb 1fe3 343d
00000080: 9ff6 f0bd 386e ad3d 8d77 3a3e a2ea b03c
00000090: f2d2 143e a5bb 093e a625 5abe 6b2a 38be
000000a0: 50d5 563d d0a6 00be f989 8fbd 4762 0fbe
000000b0: f0a8 88be cb33 6a3d a124 2abe 3e5b 13be
000000c0: ec1a d73d 9fc2 9fbc 7e1c 19be 02dd 2cbe
000000d0: 58fb 3c3c 8dc1 87bd 8dcb 0fbd f6ed a93d
000000e0: eca9 c7bd 361a f63d 1df9 2fbe 82f4 273e
000000f0: 731f e03d 6ec7 1dbe 2d41 023e d68e d0bd
00000100: 88bc 38be ddd0 c7bc b7b1 003e 2c40 3cbe
00000110: 5a5f 08be 9d10 9e3d f638 663e 34b3 08bd
00000120: 1db9 d2bd f261 e8bd ea95 07bc d688 483e
00000130: 48a7 a7bd 4f66 c0bd b3ed 053d b1ba 91bd
00000140: 6e82 183e 0b85 f03a b3cf f33d 8216 193e
00000150: 2c52 84bd 3d36 8f3d daf9 efbd 28c9 463e
00000160: fec2 453e c77f 003c fcec 4dbd 0fb2 3c3d
00000170: 114f 07bc e24d eabd 7699 0a3e d245 b63a
00000180: 88de 81bc 5459 823d dbba ac3d 4d99 593d
00000190: b279 a33d 3f00 81bd e781 0a3e f0a8 4ebe
000001a0: c124 32be e724 92bd 9ad9 a53b f67c c63d
000001b0: 51be d0bc ad14 94bd 5b58 30be 2f7d 9ebc
000001c0: 4c9c 013d 1a02 363e bde1 febd 9563 1f3e
000001d0: 52dc 843d 36b0 c1bd 64ee dfbd 9cd2 133e
000001e0: 7da8 ce3d adad ad3d b6b8 eb3d c0f5 08be
000001f0: 3ade 633d feaa 46bd 29b4 5cbe afa8 d3bc
00000200: a592 2abe afd3 d7bd c407 f7bc ab0c e63d
00000210: ff63 e03c 683a 223c cd7d 04be f58a cdbd
00000220: d854 67be 5fc1 913a db2c 013e e937 c13d
00000230: a104 fb3d c9e6 a23d a013 043e 5e60 19bd
00000240: 9107 673e 3a66 243e c733 493e a683 93bd
00000250: b00c fcbd cb29 e63d 49a7 a73c ae03 a5bd
00000260: 08d2 ac3d 69a4 7c3e be02 303c 788e 973d
00000270: f878 333e 63ab 2f3e f352 4d3d 67e9 ad3d
00000280: c845 87bd 6d42 763d 5903 24bd bc24 8a3d
00000290: 0c54 143e a047 dc3c 685b a73d 8536 f73d
000002a0: 98dd 8b3c df77 ac3d c8b7 853d cd3d c93c
000002b0: 505c c73c c879 68bd 48ef 00bd 264f 93bd
000002c0: ef72 9a3d 361b c8bd e24c 20be 91ea d2bd
000002d0: f071 bfbd a79a 7fbe 3f82 f73d a6cc 46be
000002e0: a9f7 783d a077 30be d060 22be ad48 e23c
000002f0: 8ff3 9ebd 3045 35be 1a6f 043e 1dc4 603e
00000300: 06a0 41bd 81f3 4ebe 242f 333e b580 d33d
00000310: 761e 65be 80a8 3e3e a265 473d 5469 1e3d
00000320: 3c83 f6bc 65f8 0d3e 7e36 e23d 9745 323e
00000330: 5841 3ebe 417a 973d 272b f5bd 088d 01be
00000340: a0c4 02be 19c0 9c3d bd2e 31be 87b4 83bd
00000350: e633 d83d 31c4 803b 2ebc 00bd 83fc 0d3e
00000360: c4a7 39be ab4b 003e d2bf 58be 6b67 823d
00000370: 06f3 25be 4d89 e7bd cdd3 0c39 8391 1e3e
00000380: e30f c6bd dd98 02be af70 ff3c b655 403d
00000390: bb19 36bd fdd3 1b3c 8d2e 19be 31ca 6d3e
000003a0: 05de ffbd 09f2 ee3c f4a6 d1bd 9690 cebd
000003b0: 7862 173d 191f 76bd 9817 cfbd d881 253e
000003c0: b53c 51bd 7ec1 0cbc e545 fd3d d394 863d
000003d0: 5682 dfbc 75f1 04bd 656c 7d3d 76fa 80bd
000003e0: 551c 20be af2d 33be 871b 81bb 68cf f3bd
000003f0: ef0f cf3d 381f 673d 2a5e fabb e89b a8bd
-0.037186425 -0.14815213 -0.07265362 0.027709862 0.1010388 0.08757716 -0.15534139 0.050382476
-0.19170916 0.17665955 -0.03895 0.06071538 0.013191761 -0.15840444 0.12861514 -0.051409483
0.11365671 0.15932354 -0.08670075 -0.1592037 0.18254673 -0.105736695 0.23456335 0.11150342
-0.25427756 -0.040337935 -0.1254321 0.24202405 0.0009792037 0.12114123 -0.0042932956 0.044161912
-0.11765789 0.08468288 0.18209668 0.021596257 0.14533594 0.13450487 -0.21303424 -0.17984931
0.052449524 -0.12563634 -0.07008738 -0.14002334 -0.2669139 0.0571783 -0.16615535 -0.14390275
0.10503182 -0.019501982 -0.14952275 -0.16881183 0.011534534 -0.06628714 -0.03510623 0.082973406
-0.09749207 0.12016718 -0.17184873 0.16401866 0.109434985 -0.15408108 0.12720175 -0.10183494
-0.18040669 -0.024391586 0.12567793 -0.18383855 -0.13317624 0.077180125 0.22482666 -0.033374026
-0.10289214 -0.113468066 -0.008275488 0.19583449 -0.08186203 -0.09394514 0.03269739 -0.07115687
0.14893505 0.0018350197 0.1190485 0.14949992 -0.064609855 0.06992767 -0.11717577 0.19412673
0.19312665 0.0078429645 -0.050274834 0.046068247 -0.008258597 -0.11440636 0.13535103 0.0013906306
-0.015853181 0.06364694 0.08434077 0.053124715 0.07982196 -0.06298875 0.13526116 -0.20181632
-0.17396833 -0.07135945 0.0050613405 0.09691803 -0.025481375 -0.07230506 -0.17221205 -0.019346802
0.031643197 0.17774239 -0.124454 0.15565331 0.06487335 -0.09457438 -0.10934141 0.1443581
0.1009073 0.08480392 0.1150984 -0.13374996 0.055631854 -0.048502915 -0.215531 -0.02583727
-0.16657503 -0.10538422 -0.03015507 0.11232885 0.027391432 0.00990162 -0.12938614 -0.100362696
-0.22590959 0.0011120251 0.12614767 0.09434492 0.12256742 0.07954175 0.12898111 -0.03744542
0.2256148 0.16054621 0.19648658 -0.07202844 -0.123071074 0.1123844 0.02046551 -0.080573425
0.08438498 0.24672092 0.010742841 0.07400221 0.17526615 0.17155223 0.050127935 0.084917836
-0.066051066 0.060121942 -0.040042255 0.06745288 0.14485186 0.026889622 0.08171731 0.12070946
0.017073438 0.08421301 0.06529194 0.024565602 0.02433601 -0.056756765 -0.031478196 -0.07192831
0.07541453 -0.09770815 -0.15654328 -0.10298646 -0.09347904 -0.24961339 0.12085389 -0.19414005
0.060783062 -0.17233133 -0.15857244 0.027622545 -0.07761299 -0.17702174 0.12933007 0.21949811
-0.04727175 -0.20210077 0.17498451 0.10327283 -0.22374901 0.18618965 0.04868091 0.038674667
-0.030091874 0.13864286 0.1104555 0.17409359 -0.18579614 0.07396365 -0.11971121 -0.12651455
-0.12770319 0.07653827 -0.17302985 -0.06430917 0.10556774 0.003929638 -0.031429462 0.13865857
-0.18130404 0.12528865 -0.21166924 0.06367382 -0.16205987 -0.11305485 0.00013430342 0.15485196
-0.09670999 -0.12753625 0.031181661 0.04695674 -0.044458132 0.009510991 -0.14959164 0.23221661
-0.12493519 0.029168146 -0.10236922 -0.10086171 0.03695914 -0.06008825 -0.10111922 0.16162813
-0.051083285 -0.008591054 0.12366847 0.06571355 -0.027283829 -0.032456834 0.06187095 -0.06297772
-0.15635808 -0.17497896 -0.003940049 -0.11904794 0.10110461 0.056426257 -0.0076406198 -0.08232862

gru.bias_ih_l1 f4 [96]
00000000: f2a4 4e3e d893 0abe a556 073e e7b2 8abd
00000010: d278 9e3d 3ba6 03be a402 8c3d f68a 293e
00000020: f9e0 bc3c b53d 64bd c8fb 183e 24a3 e43a
00000030: 8038 cbbd 4d48 8fbd 8b69 23be a387 3cbd
00000040: eca5 c73d f2b1 bebd 3edc 013d eb2e 913c
00000050: 0f3e c4bd 52d8 013e f586 a13d d2e6 443e
00000060: 831f 1e3e 266a b83c 47d3 b5bd fd90 20be
00000070: 6385 fe3d 778f f2bb d624 7a3c 5b30 30be
00000080: d70d 9ebd b0bf 733d 81b6 503c 2f22 49be
00000090: 107f 1a3c 9336 b63d bb0c 5fbe 247d dbbd
000000a0: be2c c6bd 2251 b7bd 99ba 5a3c 3575 9abd
000000b0: 4c10 b63d e83c 973c 5bd1 de3d 3fc0 e0bd
000000c0: 1893 1a3e 5ae8 fdbd b517 563d 596a 753c
000000d0: 5abd 0e3a 62d3 05be 3369 3abd f26f 19bd
000000e0: 37b4 bc3d f61d 2cbc 0653 b7bd e6a5 1cbe
000000f0: 70d5 1fbd e2ca b6bd 108f e7bb 54f0 783c
00000100: f3f0 c83d 57b4 f13c a886 943c 3c32 483e
00000110: 088d cb3d 7932 213e 1a95 ed3d af97 d93d
00000120: 61f4 f1bd 962a 83bd fe9c 913d b0fb 293c
00000130: 0ad4 a2be cb67 263d b2da 02be 71f7 b1bd
00000140: 99ec 32bc 394a 04be 6ec3 633c 9176 2c3d
00000150: 24c1 c0bd a0cb 3fbe 83bf 9f3d 10a1 54be
00000160: 46d9 ebbc 45e5 643c 038f 943d c946 3fbd
00000170: 435f 123e b73a 0cbd 8eeb e1bc fd36 63be
0.20180109 -0.1353296 0.13216646 -0.06772404 0.077378884 -0.1285638 0.06836441 0.16556916
0.023056494 -0.05572291 0.14939797 0.0017443639 -0.09922886 -0.06996212 -0.1595823 -0.04602779
0.09748444 -0.09311284 0.03170418 0.017722568 -0.09582149 0.12680176 0.07887069 0.19228676
0.15441708 0.022511553 -0.088781886 -0.15680309 0.12427785 -0.0074023562 0.015267571 -0.17205946
-0.077174835 0.05950898 0.012738825 -0.19641946 0.009429708 0.08897128 -0.217822 -0.10717228
-0.09676503 -0.08951022 0.013350152 -0.07541887 0.08889827 0.01846166 0.10879775 -0.10974168
0.15095174 -0.12397833 0.052268703 0.014978969 0.00054450857 -0.13068917 -0.045510482 -0.037460275
0.09214061 -0.01050519 -0.08951382 -0.1529766 -0.03902191 -0.089254156 -0.007066615 0.015194017
0.098115824 0.029504938 0.018130615 0.19550413 0.09939009 0.1574191 0.116007045 0.106246345
-0.1181419 -0.06404607 0.07110022 0.010374948 -0.31802398 0.04062633 -0.12778738 -0.08689774
-0.010920667 -0.12918939 0.013901575 0.04210526 -0.09411839 -0.1873002 0.078002 -0.20764565
-0.028790127 0.013970678 0.0725384 -0.046698365 0.14294152 -0.034235682 -0.027578142 -0.22188945

gru.bias_hh_l1 f4 [96]
00000000: 34dd 2b3e 8682 913b 41e0 783d 02a9 14be
00000010: fffb 293e 501b 733d c17e 8f3d 59fa b83d
00000020: c8ee 8abd f867 fcbd 5c49 36bd 0cd7 253e
00000030: 1c84 e3bd 84f3 1d3e fd75 a13d 6e6e e0bb
00000040: 201d ad3d 2c0c 813e 05ed bc3d d2c9 cd3d
00000050: 581f bbbd d370 b6bd 92e0 eebc 248b 39bd
00000060: 814a 273e 119d 1d3e 2b6d 473e 46e6 47bc
00000070: ebb9 fc3d 26cc ba3d 7702 593d 5591 3cbe
00000080: f118 483e 1731 dcbc e3e3 24be 8242 ae3d
00000090: 0551 1bbe ffd4 cbbd 21e7 3cbe 24f5 5b3e
000000a0: 7203 413e 48e4 fa3c 8cf0 853a 96e4 89bc
000000b0: 254a b33d c30a c53d f08b 293e 4024 1d3e
000000c0: b4c7 a8bd 3695 6e3d 7e77 cabd df1f b6bd
000000d0: fbd0 4bbe ed65 c83d a404 b2bd 49f1 0d3d
000000e0: 1f31 e03d 16a2 16bd faac 073e 2067 5cbe
000000f0: 6220 e9bd 16ad 003e 24fd 303c ce0e aabd
00000100: c65a b73d 300c 17be 2f7b 48be 03d3 193e
00000110: f067 ebbd 1792 ed3d b2de 48be b22b b7bd
00000120: 1d48 543e 8cf8 403e 2260 25bc 173b b03c
00000130: 843d 3bbc 3389 d8bd ff34 00bd bebb b13b
00000140: 2078 a53d 5505 a7bd 0c8d 033e da59 043e
00000150: 04c2 0bbd 37ea e8bd 29f9 e6bd 018e 4dbd
00000160: 2291 20be 2bf2 2bbe 3af2 fdbc e7b3 22bd
00000170: fc9a f83d 1779 63be 50e9 d43d 5e0e 063e
0.16783601 0.0044406084 0.06076074 -0.14517596 0.16600035 0.05935222 0.07006598 0.09032125
-0.06783825 -0.12324518 -0.044503555 0.16195315 -0.11109182 0.15424925 0.078838326 -0.0068491017
0.08452821 0.252046 0.092248954 0.1004826 -0.09136838 -0.08908238 -0.029159818 -0.04529871
0.16337015 0.15391947 0.19475238 -0.012200898 0.123401485 0.091209695 0.052980866 -0.18414815
0.19540764 -0.026878877 -0.16102557 0.08508779 -0.15167625 -0.09952735 -0.18447544 0.21480232
0.1884897 0.030626431 0.0010218783 -0.016832631 0.08754376 0.09621193 0.16557288 0.1534586
-0.08241215 0.058247767 -0.098860726 -0.08892798 -0.19903938 0.09785066 -0.086922914 0.034653936
0.10946869 -0.03677567 0.13249579 -0.21523714 -0.1138313 0.12566027 0.010802541 -0.08303605
0.089528605 -0.14750743 -0.19578241 0.15021901 -0.11494434 0.1160013 -0.19616202 -0.08943881
0.20730634 0.18844813 -0.010093721 0.021512551 -0.011428241 -0.10573044 -0.03130054 0.005423992
0.08079553 -0.08155314 0.12846774 0.129249 -0.034120575 -0.11372798 -0.11277992 -0.050184254
-0.15680364 -0.16791598 -0.030999292 -0.03972235 0.12138936 -0.22214161 0.10396063 0.13091418

bn.weight f4 [32]
00000000: 01c4 853f d639 863f eab7 833f 2f8f 843f
00000010: 6af1 893f 5581 843f b5fc 843f 2aba 8a3f
00000020: 64ba 863f 4808 873f dc77 843f 3da0 843f
00000030: e972 863f 98a5 8a3f 2772 883f 1040 813f
00000040: 1e2b 933f 953d 853f c5ac 833f 271c 833f
00000050: 1d2b 863f 6d50 853f 9c2a 823f e22e 853f
00000060: 4e5c 853f e215 813f e909 863f 14ee 833f
00000070: 21d6 873f 57ae 823f 7976 893f 2f5a 883f
1.0450441 1.04864 1.0290501 1.0356196 1.0776799 1.0351969 1.038962 1.0838063
1.0525632 1.0549402 1.0349078 1.0361401 1.0503818 1.0831785 1.0659837 1.0097675
1.1497533 1.0409418 1.02871 1.0242966 1.0481907 1.0415169 1.0169253 1.0404932
1.0418794 1.0084803 1.0471774 1.0307031 1.0612222 1.0209454 1.073928 1.0652522

bn.bias f4 [32]
00000000: 87f1 2e3e 8bdd 9f3d f22c 09be 5d6a bb3d
00000010: 4023 643e 25cf 133e 4cb0 c6bd 23f7 3e3e
00000020: 5401 023e 11a8 5dbd c32c bdbd 9df9 87bd
00000030: ab7a 60be 7ff1 81bd a6b3 33be 999e 73bd
00000040: 208d 2c3b 172e 39be eea4 933d 40ac 0dbd
00000050: 8b8b 703d 94bd cdbd c908 983d 8c42 08be
00000060: ae56 133e 7855 32bd 2eee 413d 80b3 bfbd
00000070: df24 fc3c 90ea 3bbe 9c94 67bd 3130 44be
0.17084323 0.07805928 -0.13396052 0.091511466 0.22279072 0.14434488 -0.09701595 0.18648963
0.12695819 -0.05411536 -0.09237053 -0.06639407 -0.21921794 -0.0634489 -0.17548999 -0.059477422
0.0026329234 -0.18083988 0.07209192 -0.0345881 0.05872683 -0.10045925 0.07423551 -0.13306636
0.14388534 -0.04353854 0.047346286 -0.09360409 0.0307793 -0.18351197 -0.05653821 -0.19159009

bn.running_mean f4 [32]
00000000: d912 6c3e 5179 283d 124b a5bd 08ca ee3d
00000010: 520a 7b3e 9690 763e bab4 f2bd 0e0b 973e
00000020: 761d 6b3e 7864 123e 8d46 4e3e e437 15be
00000030: b8a9 d1be 4fde 91be dabc b8be d09f b3bb
00000040: a246 573c 39ac 88be d1fe 1a3e 0d81 19bd
00000050: 1ec1 d63c 2caf 47be d295 4cbc 5320 69be
00000060: 98f9 f8bd 9e7e 2bbe 08e6 843c 0207 b43d
00000070: 9fe4 513e cd7d e8be 14a2 7d3e 8536 aebe
0.23054065 0.04113132 -0.08070959 0.11659628 0.24515656 0.24078593 -0.11850877 0.29500622
0.22960457 0.14296138 0.201441 -0.14572102 -0.40949798 -0.2848992 -0.36081582 -0.0054816976
0.013139399 -0.26693895 0.15136267 -0.037476588 0.026215132 -0.19500417 -0.012486892 -0.22766237
-0.12156981 -0.1674752 0.016222969 0.08790399 0.20497368 -0.45408478 0.24768859 -0.3402597

bn.running_var f4 [32]
00000000: 1ea0 163e afe0 c03e ddaa f53e 4b7a 7d3e
00000010: d38d 393e 34cc a03e a79e 273f c831 8b3e
00000020: e4a9 603e e5d4 ec3e 7638 003f ae5b e33e
00000030: a866 c13d 9975 ec3d 9b42 243e 3c3b 023f
00000040: a0a2 723e 1c84 8b3e 5d60 fd3e 6df4 b73e
00000050: d224 0e3f 716d c33e 8fb6 353f 3f71 0c3f
00000060: a8c1 ba3e b903 ca3e 7ab7 1e3f 6546 dd3e
00000070: 9381 ae3e eca9 543e df3c a23e c67e 2f3e
0.14709517 0.3767142 0.4798192 0.24753682 0.18120508 0.31405795 0.6547646 0.27186418
0.21939808 0.46256176 0.5008615 0.44405884 0.09443408 0.115458675 0.16041033 0.50871634
0.23694849 0.2724923 0.49487582 0.3592867 0.55524933 0.38169435 0.7098169 0.548603
0.36475873 0.39455965 0.61998713 0.4321777 0.34083232 0.20767945 0.31687066 0.17138204

fc.0.weight f4 [32, 32]
00000000: a580 ecbd 857a 6fbd 6989 753e db33 6d3e
00000010: 0087 6bbd b9e3 fbbd 0ca8 14be 7798 873d
00000020: 1f17 b8bd d533 103e 0c93 2f3e 1f5b d23d
00000030: ddcf cbbd e41e a63d 3e9e 4dbd 46e8 43bd
00000040: 343f 87bd d986 9e3d ec2e 82be b0d4 1a3e
00000050: a984 3c3e 421d 7cbd cf5c ed3d 05fa 9dbd
00000060: 34a5 16be 3d95 a43d 8024 2dbe b378 c23d
00000070: 38d9 d7bd a7dc f23d a4ad 893b b9ff 563e
00000080: 21e3 583a 3f74 5a3e f64d 35bd 1505 2d3d
00000090: 71ea 9dbb e515 3cbe 5b84 8ebd 096d 0abd
000000a0: c9f7 64bc 8de1 10be 4416 2d3d 1573 4e3e
000000b0: 896e ecbd 4139 05be dd68 3d3e ab67 4d3e
000000c0: 0b8b b83d a006 c9bd 4b31 c0bd b69a 6a3e
000000d0: 022a 79be 99d8 333e 103d 36be 4800 7f3d
000000e0: debf 213e bf9e 413c e675 223c 8f03 22be
000000f0: 0f3b 333e 2fda 3e3e e787 bd3c 9237 98bc
00000100: ab2f 6c3e 89cd 2cbd e477 e5bc 39b9 fa3d
00000110: 4f01 f7bd 0888 c5bd b849 153e 113c 523e
00000120: 8682 aebd c906 41be b087 72be 9c3a 593e
00000130: 4804 8b39 951a d3bc a9ae 4c3d 3741 143e
00000140: 7044 0cbe 1b4f fa3d 0912 5d3e 98cc 233e
00000150: 09f8 81be 2674 cb3d 545c e73d bc99 45bd
00000160: a52f d93d 08ed 33bc f657 703d 59fa 29be
00000170: 3cbc a5bc c2fa f8bc b363 efbd d2e6 5c3d
00000180: 4997 7e3e feb9 743e 1bd2 6b3d a54e 63be
00000190: efed 023e 8ad7 623e 982a f03d b884 913e
000001a0: 899d 873e 33bb 8d3c 402d cdbd 33eb 40be
000001b0: d6a9 28be 6366 82be 62d9 61bc ee6f 643c
000001c0: fae7 93bd cd47 89bd e5c7 0f3e fe55 b93d
000001d0: 3d43 183e 62e7 2cbe 6021 adbd 0405 8e3c
000001e0: b345 b1bd 5900 8fbb 0de9 1f3e 99cb 92bd
000001f0: 6707 b23d c6f7 10be c22c 26be 9ec8 86bd
00000200: d0f0 e73b 0e11 303e f342 7cbd 7bb2 a2bd
00000210: 832b 26be 4e39 80bd e160 983d 5749 153e
00000220: 1445 383e 9dc0 3fbe 73b7 a4bd 779d 473e
00000230: 662c febc e0b6 febd ef2b 6a3e 7e00 e2bc
00000240: cd91 7a3d 18f5 c53c 1cfe 1abd 0355 ac3d
00000250: 0e1b 613d 7527 373d 3b41 07bc 0212 673e
00000260: b1f6 273c 6476 46bd a5e2 053e 3813 e2bd
00000270: dab0 253e d3e6 973d a29e 01be 2b1e d93c
00000280: 93a7 c5bc 6ad8 7f3d 734b 6f3d ee96 06be
00000290: b1b4 c0bd 61de e43c 0828 b43d 2a46 a23d
000002a0: 2338 70bc 685a 18bd d624 36bc 4f85 393e
000002b0: a133 7d3d b100 d9bd 957e f1bd 1db4 b3bd
000002c0: e345 99bd 70d8 a1bd 0429 363d 6005 153e
000002d0: 732f 07be 8fee 633d 5eee adbd f94e a0bd
000002e0: ac84 493e 826b 863c 8283 153e b282 3fbe
000002f0: d54e d73d 2435 143d f93e 823d 0724 3cbe
00000300: 1495 e7bd e657 173e 0de8 1fbd 49a4 6abd
00000310: 7e94 50bd 4f68 5fbe e424 5c3c 64f9 1fbe
00000320: 39ce 0abd daef 03bd 073d 1cbe 0f0d debd
00000330: 0a48 21be 89f5 14be 781b 953d 20c4 3d3e
00000340: 0d59 fc3d ffd3 de3d 037f 573e d5e8 133e
00000350: 9995 d33c 5dd3 163d c7b8 97bc 4bf4 6b3e
00000360: 91f3 913c 7476 5c3c 5feb 493e 0b14 23be
00000370: 3b25 363e 87e7 6dbd 5e80 f2bd a4b4 43be
00000380: 5f08 87bc 9ea7 113e 1959 883c ff03 a63d
00000390: 031c 023e 2203 edbd 9827 f6bd 63ea 52be
000003a0: 31c0 91be 6128 973d 85f8 023e 3fbe 6e3d
000003b0: 7891 81be 71fb 6dbd b796 d7bd 57a4 00be
000003c0: bc99 b73e 90f0 893e e184 10be 706d 633e
000003d0: b2f7 56be ea42 5e3e 5747 0cbe bd93 bebd
000003e0: dd7d 52bd af44 433e 9d1d 19be d256 173e
000003f0: 3041 0c3e 75b1 36be 6acd 03bd c175 50be
-0.115479745 -0.058466453 0.23978199 0.23164313 -0.057501793 -0.12299294 -0.1451723 0.06620877
-0.08988785 0.14082272 0.17145938 0.10271286 -0.09951756 0.08111361 -0.05019974 -0.047828935
-0.06603852 0.07740564 -0.25426424 0.15120196 0.18409981 -0.06155134 0.115899675 -0.07713703
-0.14711457 0.080362774 -0.16908455 0.09495678 -0.10539478 0.11858492 0.004201608 0.20995988
0.0008273591 0.21333407 -0.044263802 0.042241175 -0.0048192074 -0.18367727 -0.069588386 -0.03379539
-0.013975092 -0.14148541 0.042257562 0.20161088 -0.115445204 -0.13010122 0.18497033 0.20059077
0.09010895 -0.09815717 -0.09384402 0.2291058 -0.24332431 0.17563094 -0.17796731 0.062256128
0.15795848 0.011817633 0.0099158045 -0.1582167 0.17502998 0.18637918 0.023136092 -0.018581185
0.23065059 -0.0421882 -0.02801127 0.1224236 -0.120607965 -0.096450865 0.14578903 0.20530726
-0.08520989 -0.18850245 -0.23684573 0.21213764 0.00026515336 -0.025769511 0.049971256 0.14478002
-0.13697982 0.122221194 0.21588911 0.15996015 -0.25384548 0.09934263 0.11296907 -0.048242316
0.106047906 -0.010981806 0.058677636 -0.16599406 -0.020231359 -0.030393008 -0.11688938 0.053931065
0.24862398 0.23899075 0.05757342 -0.2219797 0.12786077 0.22152534 0.11726874 0.2842157
0.26487377 0.017301178 -0.100183964 -0.18839721 -0.16471037 -0.2546874 -0.013784738 0.013942702
-0.072219804 -0.06703148 0.14041097 0.09049605 0.148694 -0.1688514 -0.084536314 0.017336376
-0.08655872 -0.004364055 0.15616246 -0.071677394 0.08692818 -0.14157018 -0.16228011 -0.065812334
0.0070782676 0.17194006 -0.061587285 -0.07944199 -0.16227536 -0.0626093 0.07440353 0.14578758
0.17995101 -0.1872582 -0.08042803 0.19493662 -0.03102703 -0.124372244 0.22868322 -0.027588125
0.061174203 0.024164721 -0.037839994 0.08414652 0.054957442 0.044715364 -0.008255298 0.22565463
0.010251687 -0.04845275 0.1307474 -0.11038822 0.16180745 0.07417073 -0.1265817 0.026503643
-0.024127757 0.062462248 0.058421563 -0.13143513 -0.09409464 0.02793807 0.08796698 0.07923539
-0.014661822 -0.037195593 -0.011117181 0.1811726 0.061816815 -0.10595835 -0.11791722 -0.08774588
-0.07484033 -0.0790261 0.04447271 0.14552832 -0.13201694 0.05564743 -0.084927306 -0.07827563
0.19679517 0.016408686 0.14600947 -0.187022 0.10513083 0.03618349 0.06359667 -0.18373118
-0.11307731 0.14779624 -0.03903966 -0.05728558 -0.050922863 -0.21817134 0.01343653 -0.15622479
-0.033888076 -0.032211162 -0.15257655 -0.108423345 -0.15750137 -0.14546789 0.0728063 0.18531847
0.123216726 0.10880279 0.21044545 0.14444287 0.02582817 0.036822665 -0.018520726 0.23042409
0.017816337 0.013455976 0.19718693 -0.15925615 0.1778764 -0.05808213 -0.1184089 -0.19111878
-0.016483484 0.14224097 0.016644048 0.08106231 0.12705998 -0.11572863 -0.12019271 -0.20597224
-0.28466943 0.073807485 0.12790115 0.0582869 -0.25306296 -0.05810112 -0.105267935 -0.1256269
0.35859478 0.26941347 -0.1411319 0.22209716 -0.20992926 0.21705213 -0.13699089 -0.093055226
-0.051389564 0.1906917 -0.14952703 0.14779213 0.13696742 -0.17841132 -0.03217832 -0.2035742

fc.0.bias f4 [32]
00000000: 5589 0e3e 0fad 223e b6c0 723e 498e 623e
00000010: 806a 103e 919c a03e 03db 983e 51b1 b83e
00000020: cdc0 8a3e 448e 673e 79d4 7e3e 2a60 b53e
00000030: f15b a83e e062 473e 66e2 b93d 4949 113e
00000040: 1b4f 273e 56ba c33d be3d bf3e be47 5b3e
00000050: d650 8d3e 8b14 cc3e 5460 d63d 8a7e 093e
00000060: 1d08 bf3e facd 673d 1423 433e cf7a 053e
00000070: f85f d43d d305 833e 31bd ac3e 64b4 903d
0.13919576 0.15886329 0.23706326 0.2212459 0.14103127 0.3136945 0.29854593 0.36072782
0.2710022 0.22612864 0.2488574 0.3542493 0.32882646 0.19471312 0.09076385 0.14188112
0.1633877 0.09557025 0.37351793 0.21414086 0.27600735 0.39859423 0.10467592 0.13427177
0.37310877 0.05659292 0.1905635 0.13035129 0.10369867 0.2559038 0.33738092 0.07065657
