model/best-RNN.pth (torch, 34055 bytes, 16 tensors)

rnn.weight_ih_l0 f4 [32, 8]
0	0x3e0cb65f	0.13741444
1	0x3d892a9a	0.06697579
2	0x3dad3e38	0.08459133
3	0xbc25bec0	-0.010116279
4	0xbb9b9e97	-0.00474913
5	0x3e2f0ae1	0.17093994
6	0xbdde5cab	-0.10857519
7	0x3cfe544f	0.03104606
8	0x3e06277b	0.13100998
9	0xbe17e829	-0.14834656
10	0x3d95ae8a	0.07308681
11	0xbe0f4ec5	-0.13994892
12	0x3e11cfe0	0.14239454
13	0x3e393301	0.18085863
14	0x3d26dfbc	0.040740713
15	0x3e9469b2	0.2898689
16	0x3e26dc4e	0.16294977
17	0xb9c85617	-0.00038211115
18	0xbdd25ed1	-0.10271991
19	0x3c7370f0	0.014858469
20	0x3d2c9144	0.042130724
21	0x3dd0d624	0.10197094
22	0xbd67e6b4	-0.0566165
23	0x3dfab6fe	0.12241934
24	0xbd192b1e	-0.037394635
25	0x3de77771	0.113020785
26	0x3d32b332	0.043627925
27	0x3dd4f1ae	0.10397659
28	0x3d55e5f2	0.052221246
29	0xbe38c114	-0.18042403
30	0x3e64b169	0.22333302
31	0xbe921b9a	-0.28536683
32	0x3e0b4931	0.13602139
33	0xba2a53ff	-0.0006497502
34	0xbe1e064e	-0.15432093
35	0x3e329843	0.17440896
36	0xbcdc8adb	-0.02692168
37	0x3af7d33b	0.0018907556
38	0x3e629c9b	0.22130053
39	0xbe54b12a	-0.20770708
40	0x3cbd6f7f	0.023124455
41	0xbde4097a	-0.1113462
42	0xbda39dd6	-0.07989089
43	0x3d8716d4	0.06596151
44	0xbd913a75	-0.07091228
45	0x3d245141	0.040116552
46	0xbda3450e	-0.079721555
47	0xbce04613	-0.027377164
48	0xbdbbe743	-0.09174969
49	0xbd8fa4bf	-0.07013845
50	0xbdf0c0e7	-0.11755543
51	0x3d9b850e	0.075937375
52	0x3e216cfc	0.1576423
53	0xbe1dd96e	-0.15414974
54	0x3d679c52	0.056545563
55	0x3d9562d2	0.07294239
56	0xbcceda7d	-0.025250668
57	0x3e1c4830	0.15261912
58	0xbe01958b	-0.12654702
59	0xbe07a1ee	-0.13245365
60	0xbe0e756a	-0.13911977
61	0x3dcf7363	0.1012943
62	0x3cb22db3	0.021750307
63	0x3e3db04b	0.18524282
64	0x3d0db7f5	0.034599263
65	0x3d58555a	0.052815773
66	0xbbc63be9	-0.0060496223
67	0x3da880a2	0.0822766
68	0xbdc5e47f	-0.09662723
69	0x3d8f60de	0.07000898
70	0x3e35721a	0.17719308
71	0xbd95ad1c	-0.073084086
72	0xbd555379	-0.05208156
73	0x3ddef2b6	0.10886137
74	0xbdf96b71	-0.12178696
75	0xbc5ded20	-0.013545305
76	0xbcfe4ea0	-0.03104335
77	0x3db3ea19	0.08784885
78	0xbe3a0680	-0.18166542
79	0x3d96d4d3	0.07364812
80	0x3d996bd5	0.074912705
81	0x3dbab7dd	0.091171004
82	0xbe17e82c	-0.1483466
83	0x3da8b38e	0.08237372
84	0x3dd303d9	0.10303468
85	0x3cab0426	0.020876002
86	0xbda57730	-0.08079374
87	0xbe2998f2	-0.1656225
88	0xbd878682	-0.06617452
89	0xbdc7358f	-0.09727012
90	0xbdbf82f3	-0.093511485
91	0xbd808d2b	-0.06276926
92	0x3d4799d3	0.048730683
93	0x3cb855cf	0.022501854
94	0x3e7d09d2	0.24710777
95	0xbe32d14b	-0.17462651
96	0x3dbce4bf	0.09223317
97	0x3e2cd0fa	0.16876593
98	0x3e3af0a1	0.18255855
99	0xbd93e9d5	-0.07222334
100	0x3d22f284	0.039782062
101	0xbe0cef8f	-0.1376326
102	0xbda46747	-0.08027511
103	0x3e2c9be1	0.16856338
104	0xbda3bff5	-0.07995597
105	0xbdc7a028	-0.09747344
106	0x3adf62db	0.0017043011
107	0x3de3277e	0.11091517
108	0xbd8fde45	-0.070248164
109	0xbbacb808	-0.0052709617
110	0x3df27f47	0.118406825
111	0x3d933f23	0.07189777
112	0x3e256cbf	0.16154765
113	0x3d8049c6	0.06264071
114	0x3d8fae15	0.070156254
115	0x3d321cb8	0.04348442
116	0x3dc235ca	0.09482916
117	0x3e080346	0.13282499
118	0xbddf87c7	-0.10914569
119	0xbdaecf16	-0.08535592
120	0xbddee351	-0.10883201
121	0xbd7e5e23	-0.062101495
122	0x3e2d1450	0.1690228
123	0x3b5d3540	0.0033753663
124	0x3dfb8ce4	0.12282732
125	0x3e17552d	0.14778586
126	0xbe36917f	-0.1782894
127	0xbbb98332	-0.0056613917
128	0xbcf67ef6	-0.030089837
129	0xbd1dec84	-0.038555637
130	0xbd5af651	-0.053457562
131	0xbe2fcea6	-0.17168674
132	0x3d829e5c	0.06377861
133	0xbe0c4cb1	-0.1370113
134	0xbe0ea62e	-0.1393058
135	0xbdc691d5	-0.09695784
136	0xbc160079	-0.009155386
137	0xbda5279a	-0.08064194
138	0x3df5ec83	0.12008002
139	0xbd60adc4	-0.054853216
140	0x3e3f2c9a	0.18669358
141	0xbd8b6b33	-0.06807556
142	0xbcda5fdc	-0.026657037
143	0xbdca1d9d	-0.098689295
144	0x3e02dfeb	0.1278073
145	0xbd3b1ca2	-0.045681603
146	0x3c21ace9	0.009867885
147	0x3dc101a2	0.094241396
148	0x3d8cea29	0.068806
149	0xbcb004d8	-0.021486685
150	0xbc34aa53	-0.011026937
151	0xbe33bc1e	-0.1755223
152	0x3e1d3e69	0.15355839
153	0xbd9782a4	-0.073979646
154	0xbdf3b291	-0.11899293
155	0x3d908cb2	0.070580855
156	0x3ca57eb5	0.02020202
157	0xbde0ce93	-0.10976901
158	0x3e525246	0.20539197
159	0x3d11e862	0.03562201
160	0x3de48cb4	0.111596495
161	0x3d9661c2	0.073428646
162	0xbc44b7ca	-0.012006709
163	0xbe0d62d4	-0.13807231
164	0xbde52a0b	-0.1118966
165	0xbdbb0122	-0.091310754
166	0x3e50dcb8	0.20396698
167	0xbc987243	-0.018609172
168	0x3dcb11a1	0.09915472
169	0xbbda1246	-0.0066550104
170	0x3c67627a	0.0141226
171	0xbcc22478	-0.02369903
172	0x3e25f912	0.16208294
173	0xbdcbd33c	-0.09952399
174	0xbbfd74c0	-0.007734865
175	0xbe7991b5	-0.24371989
176	0xbe1ca256	-0.15296301
177	0x3de70fa6	0.112822816
178	0x3bb73cef	0.0055919806
179	0x3c271730	0.010198399
180	0x3e48dddf	0.19615887
181	0x3d4c999c	0.04995118
182	0x3e41f42a	0.18940797
183	0xbdf4eb09	-0.11958892
184	0x3d6b0f55	0.05738767
185	0x3d34ab5b	0.04410873
186	0x3dd6b674	0.10484019
187	0x3d3ef788	0.046622783
188	0x3ca48720	0.020083964
189	0x3d54bb7f	0.051936623
190	0x3d07687d	0.033058632
191	0x3e2887aa	0.16458002
192	0xbde92a5d	-0.11385033
193	0x3d8d32f4	0.06894484
194	0x3e094af9	0.13407506
195	0x3e08d7c9	0.13363566
196	0xbd84e730	-0.06489408
197	0x3de62cdc	0.11239025
198	0xbe26e597	-0.16298519
199	0x3de0af4b	0.109709345
200	0xbdea4963	-0.11439779
201	0x3cf13f1a	0.029449034
202	0xbe279ab8	-0.16367614
203	0xbdcbd9ce	-0.09953652
204	0xbda467c5	-0.08027605
205	0x3d9357a6	0.07194452
206	0x3d8a3d56	0.0674998
207	0x3d57dade	0.052698962
208	0x3dfc12e9	0.12308294
209	0xbe0d5966	-0.13803634
210	0x3daabc9f	0.08336758
211	0x3db58f02	0.08865167
212	0x3db392e4	0.087682515
213	0xbd67cca4	-0.056591645
214	0xbc2cee8b	-0.01055492
215	0xbe39e5be	-0.18154046
216	0x3d6549ff	0.05597877
217	0x3d9393ca	0.07205923
218	0x3dfb2145	0.12262205
219	0x3ad4cf80	0.0016236156
220	0xbd447b54	-0.047969177
221	0xbda667fc	-0.08125302
222	0x3bb8046f	0.005615763
223	0x3db1cbd0	0.08681452
224	0x3e1753f1	0.14778115
225	0xbd819c2b	-0.06328615
226	0xbdbe1d90	-0.09282982
227	0x3d403cac	0.04693286
228	0xbd0c019c	-0.034181222
229	0xbd94821c	-0.07251379
230	0xbe5fa518	-0.21840322
231	0x3e7c5359	0.2464117
232	0xbdbbd81a	-0.091720775
233	0xbdd8d5fa	-0.10587688
234	0xbddd5e3f	-0.10808992
235	0x3c391740	0.011297047
236	0xbdec36af	-0.115338676
237	0xbdabd59a	-0.08390351
238	0xbde7d720	-0.11320329
239	0x3c0f4c2e	0.00874619
240	0xbdb35d2e	-0.08758007
241	0x3da6e621	0.08149362
242	0xbe091bd8	-0.13389528
243	0xbcf20a18	-0.029545829
244	0xbd7b2ff2	-0.06132502
245	0x3d9e8f4e	0.07742177
246	0xbe2be355	-0.16785939
247	0xbd5b340a	-0.053516425
248	0x3d022848	0.031776696
249	0xbdb34992	-0.08754267
250	0x3d525937	0.051354613
251	0x3de0b83e	0.109726414
252	0x3db99e43	0.09063389
253	0x3e24a7f6	0.16079697
254	0xbd9f7759	-0.07786436
255	0xbda72531	-0.081613906

rnn.weight_hh_l0 f4 [32, 32]
0	0xbdcc090b	-0.09962662
1	0x3e19a83f	0.15005587
2	0xbd489b9f	-0.048976537
3	0x3db3fd7d	0.087885834
4	0xbe1cc33f	-0.15308855
5	0xbd4363b5	-0.04770251
6	0xbdb8fdf5	-0.090328135
7	0x3dc8506b	0.097809635
8	0xbd4d1595	-0.05006941
9	0xbdc28128	-0.09497291
10	0x3da80818	0.08204669
11	0x3db2eb51	0.08736289
12	0xbe0cd1ab	-0.13751857
13	0x3ddc25fb	0.10749432
14	0x3dd43486	0.103615806
15	0x3cfd1f59	0.030898737
16	0x3d46ee10	0.048566878
17	0xbce27d0c	-0.027647518
18	0xbda1fb3a	-0.07909246
19	0x3d4c511d	0.049882043
20	0xbe235cbe	-0.15953347
21	0xbcf81d02	-0.03028727
22	0xbe66e552	-0.22548416
23	0xbdae6e29	-0.08517105
24	0x3c698ba0	0.014254481
25	0x3d9fbf7a	0.07800193
26	0x3dad9a74	0.08476725
27	0x3e057a5e	0.1303496
28	0x3e338c9d	0.17534108
29	0x3d24bea0	0.040220857
30	0x3be24ff1	0.0069065024
31	0x3e248506	0.1606637
32	0xbbb6bd24	-0.0055767465
33	0x3dc041c0	0.09387541
34	0x3b79ad73	0.0038097769
35	0xbe93a03f	-0.28833196
36	0xbd89eb72	-0.06734361
37	0x3d08f09b	0.033432584
38	0x3d7cd08f	0.061722334
39	0x3dfacdcf	0.12246286
40	0x3bdf9e6b	0.006824305
41	0x3e5943bf	0.2121725
42	0x3d413914	0.047173575
43	0x3e2228a2	0.15835813
44	0xbe00371a	-0.1252102
45	0xbcec0341	-0.028810145
46	0xbde866e8	-0.11347753
47	0x3e2cab97	0.16862331
48	0x3dabd2e2	0.08389832
49	0x3d4d3a8a	0.050104655
50	0xbc9bf8b9	-0.019039499
51	0x3dd95bd2	0.106132165
52	0x3e0c4fc5	0.13702305
53	0xbe5e03d4	-0.21681148
54	0x3d995599	0.074870296
55	0x38fee6e1	0.000121546684
56	0x3e080b81	0.13285638
57	0xbcdbbb5d	-0.02682274
58	0x3da591bc	0.08084437
59	0xbe1e1eaf	-0.15441392
60	0x3e2fbe9b	0.17162554
61	0x3d94a782	0.07258512
62	0xbe212811	-0.1573794
63	0xbde278a4	-0.110581666
64	0xbe1e73fa	-0.15473929
65	0xbdbce0f1	-0.09222592
66	0xbd6fa1d1	-0.05850393
67	0xbe64f4c7	-0.22359
68	0xbd98a342	-0.07453014
69	0xbd32522e	-0.043535404
70	0xbe0b1807	-0.13583384
71	0xbceb3c04	-0.028715141
72	0xbc87c565	-0.016573617
73	0xbd91d780	-0.071211815
74	0xbe32c240	-0.17456913
75	0x3e0d82a4	0.13819367
76	0xbdb4828e	-0.08813964
77	0x39bc7f25	0.00035952884
78	0xbe3eeb90	-0.18644547
79	0xbda80733	-0.08204498
80	0x3db2da55	0.0873305
81	0xbe2455d9	-0.16048373
82	0xbbb18658	-0.0054176264
83	0xbc6ac1d9	-0.014328443
84	0xbd624f07	-0.055251148
85	0xbe1e1d55	-0.15440877
86	0x3d39d9f6	0.04537388
87	0x3c5d87b5	0.013521125
88	0x3e2d7f4f	0.16943096
89	0x3cc06864	0.023487277
90	0xbe37578a	-0.17904487
91	0xbe2aac08	-0.16667187
92	0x3e34d03d	0.17657562
93	0xbdce753e	-0.10080956
94	0x3d8afb90	0.06786263
95	0xbe0d4940	-0.13797474
96	0xbd5daf9a	-0.054122545
97	0xbda67dfa	-0.08129497
98	0x3d854558	0.06507367
99	0x3e09a426	0.13441524
100	0xbcdd788a	-0.027035017
101	0xbe18fde5	-0.14940603
102	0x3db7b0ab	0.089692436
103	0x3d08d0d0	0.033402264
104	0x3dd6caba	0.10487886
105	0xbc8b5bb7	-0.017011506
106	0x3dad3e28	0.08459121
107	0x3df253d2	0.11832394
108	0x3be927b7	0.00711533
109	0xbdb50457	-0.088387184
110	0xbdad3be0	-0.08458686
111	0xbce2bb28	-0.027677134
112	0x3de63993	0.1124145
113	0x3d026fac	0.03184478
114	0x3e2324c0	0.15931988
115	0x3e5215d8	0.20516145
116	0x3df1129c	0.117711276
117	0x3e19648a	0.14979759
118	0x3d22e905	0.039773006
119	0xbd95d0b4	-0.073151976
120	0xbd08173b	-0.03322528
121	0x3e026a1e	0.12735793
122	0x3b83d659	0.004023355
123	0x3e1cd0e1	0.15314056
124	0xbd81bfab	-0.06335386
125	0x3dafc1a7	0.08581858
126	0xbde99905	-0.11406139
127	0x3dd0f0e9	0.102022
128	0x3e06c9f4	0.13162977
129	0x3c003e0e	0.007827295
130	0x3dfc8568	0.12330133
131	0x3e24dabc	0.16099066
132	0xbe0a225b	-0.13489668
133	0x3c603e5a	0.013686741
134	0x3dbd5f13	0.092466496
135	0xbccba859	-0.024860548
136	0x3e2a093d	0.16605087
137	0x3e04fc8b	0.12986962
138	0x3d16aa6b	0.036783617
139	0x3e34268c	0.1759283
140	0xbc3e9e94	-0.011634488
141	0x3c34c2bd	0.011032757
142	0xbdf554f4	-0.11979094
143	0x3a2f6bbd	0.00066917745
144	0xbdce9701	-0.100873955
145	0x3e38a01f	0.18029831
146	0x3e00b130	0.12567592
147	0x3df9f76b	0.12205394
148	0xbd7c1d2e	-0.061551265
149	0xbdb4d5f0	-0.08829868
150	0xbda76853	-0.08174195
151	0xbe2ddfd2	-0.16979912
152	0xbcd82779	-0.02638601
153	0x3e057b87	0.13035403
154	0xbdcdf3df	-0.1005628
155	0x3d93caf9	0.07216448
156	0xbdb00724	-0.08595112
157	0x3cf2dac5	0.029645333
158	0x3d9e82df	0.077398054
159	0x3d6d0864	0.05786933
160	0xbd0f06df	-0.034918662
161	0x3e1c21db	0.1524729
162	0x3e126391	0.14295794
163	0x3d118cfe	0.03553485
164	0xbe198a2f	-0.14994119
165	0xbc6ba98c	-0.014383685
166	0x3dcf994b	0.1013666
167	0x3df5d5e7	0.12003689
168	0xbe200bcb	-0.15629499
169	0x3d1efa74	0.03881307
170	0x3d278ae3	0.040903937
171	0xbe194fb5	-0.14971812
172	0x3d5cdbe1	0.05392063
173	0x3d12f31c	0.03587638
174	0xbe076f42	-0.13226035
175	0xbe39aa4a	-0.18131366
176	0x3d1b007b	0.037842255
177	0xbd94b456	-0.07260959
178	0xbd2db336	-0.042407237
179	0xbd043ed1	-0.03228647
180	0x3d27f8d9	0.041008804
181	0x3d05304c	0.032516763
182	0xbe310163	-0.17285685
183	0x3e05d25c	0.13068527
184	0xbd1051b3	-0.035234164
185	0x3b1243c1	0.0022318217
186	0x3dbc9d75	0.0920972
187	0xbe02633e	-0.1273317
188	0x3df72440	0.12067461
189	0xbe41b977	-0.18918405
190	0xbd47d93c	-0.048791155
191	0x3e0c1c12	0.13682583
192	0xbe1c007c	-0.1523456
193	0x3bb4e337	0.00552025
194	0xbd802462	-0.062569395
195	0xbd34f4b2	-0.044178672
196	0x3d113072	0.03544659
197	0xbd60b17e	-0.05485677
198	0x3e409df3	0.18810253
199	0xbc929321	-0.017892422
200	0xbdd07e29	-0.10180313
201	0xbd67846d	-0.056522775
202	0xbdcc1210	-0.09964383
203	0xbd237193	-0.039903235
204	0xbdf76bf8	-0.1208114
205	0x3dcf8c95	0.10134236
206	0xbcbc91a1	-0.02301866
207	0xbc8ea086	-0.017410528
208	0xbc9e3b30	-0.019315332
209	0xbdd8ba4d	-0.10582409
210	0xbe3e58dc	-0.18588585
211	0xbbe0b5db	-0.0068576164
212	0xbd861783	-0.06547453
213	0xbe13fa26	-0.14450893
214	0x3d236f04	0.039900795
215	0xbde45d87	-0.111506514
216	0xbca1ded6	-0.019759577
217	0x3d21429d	0.039370168
218	0xbe3245b5	-0.17409404
219	0x3da2ba7e	0.07945727
220	0xbe40a3b0	-0.18812442
221	0x3e0b84e3	0.13624911
222	0xbdb42b53	-0.08797326
223	0x3ddeba12	0.10875334
224	0xbe052709	-0.13003172
225	0x3e109634	0.14119798
226	0x3db43b46	0.08800368
227	0x3c4a35d8	0.012341939
228	0xbe1218fa	-0.1426734
229	0x3c1b4392	0.009476559
230	0x3cf10f53	0.029426252
231	0x3c2920c6	0.010322755
232	0xbe1ada7d	-0.15122409
233	0x3e289cc7	0.16466056
234	0xbe0dce1a	-0.13848153
235	0xbbd56c98	-0.0065131895
236	0xbc93143d	-0.017953986
237	0x3e1e0ce5	0.15434606
238	0xbd514a7a	-0.051096417
239	0x3e093a35	0.1340111
240	0xbe093c1a	-0.13401833
241	0xbe0468e8	-0.12930644
242	0x3e132312	0.14368847
243	0x3e0b423e	0.13599488
244	0xbe3204e4	-0.17384678
245	0xbd79bbc4	-0.060970083
246	0xbe7eec5d	-0.24894853
247	0x3ce47b3b	0.027890792
248	0x3d8aad41	0.06771327
249	0xbe28da28	-0.1648947
250	0x3da6f0bd	0.08151386
251	0x3df29401	0.11844636
252	0x3e2b30d2	0.16717842
253	0x39499e6e	0.00019227873
254	0x3db92a3c	0.09041259
255	0x3e41ec24	0.18937737

rnn.bias_ih_l0 f4 [32]
0	0x3d8fd4c5	0.070230044
1	0x3e382b25	0.17985208
2	0xbd41e6c7	-0.047339227
3	0xbdda238d	-0.10651312
4	0x3d4a4682	0.049383648
5	0x3e1f684d	0.15567131
6	0xbdfbf81f	-0.12303185
7	0x3dbca0cd	0.09210358
8	0x3dde5484	0.10855964
9	0xbdeba9af	-0.11506974
10	0x3d2f8c1d	0.04285823
11	0xbc822d10	-0.015890628
12	0xbca7238f	-0.020402698
13	0x3dfabe08	0.12243277
14	0xbd443aa8	-0.0479075
15	0x3dc5699e	0.096392855
16	0x3c00f80f	0.007871642
17	0xbd45925d	-0.048235286
18	0xbde5e50e	-0.11225329
19	0x3ca82e0f	0.020529775
20	0x3db7027d	0.089360215
21	0x3d2ea11d	0.04263412
22	0xbd931d50	-0.07183325
23	0xbd95069d	-0.07276652
24	0xbdef0dca	-0.11672552
25	0xbd74a1c7	-0.059724595
26	0x3e19206f	0.14953779
27	0x3d0b666f	0.034033235
28	0x3d3ff3d4	0.046863392
29	0xbca77efc	-0.020446293
30	0xbde3c13f	-0.11120843
31	0x3d9208e9	0.07130606

rnn.bias_hh_l0 f4 [32]
0	0x3cfb681e	0.030689295
1	0x3be33910	0.0069342926
2	0x3e082618	0.13295782
3	0xbe06a70e	-0.13149664
4	0x3dcccd6b	0.10000118
5	0xbca11133	-0.019661522
6	0xbb9a09eb	-0.0047008893
7	0xbe10d106	-0.14142236
8	0xbe162adc	-0.14664787
9	0x3d1e2731	0.038611595
10	0x3def2809	0.11677558
11	0xbdbfdd55	-0.093683876
12	0xbd8fdb7f	-0.070242874
13	0xbd65afd6	-0.056075893
14	0xbd2fb14f	-0.042893704
15	0xbceba113	-0.02876333
16	0x3d364dd6	0.044507824
17	0xbd9829df	-0.07429861
18	0xbe289d5b	-0.16466276
19	0x3d927fe4	0.071532995
20	0xbe3516e1	-0.17684509
21	0xbd4ef89b	-0.050530057
22	0x3d2595b6	0.04042598
23	0xbd5812b3	-0.052752208
24	0xbdf6ec4b	-0.12056788
25	0x3d935050	0.07193053
26	0x3d2494dc	0.040181026
27	0xbc4f0244	-0.0126348175
28	0x3dc7168f	0.097210996
29	0xbc8926d0	-0.01674214
30	0x3e1989e3	0.14994006
31	0xbe5c48d0	-0.21512151

rnn.weight_ih_l1 f4 [32, 32]
0	0xbe30b3d8	-0.17256105
1	0xbca2be7d	-0.019866223
2	0xbe449b9f	-0.1919999
3	0x3e875942	0.26435286
4	0x3da688b5	0.081315435
5	0xbdb20ff3	-0.08694448
6	0x3d18ae62	0.03727568
7	0xbe0bc902	-0.13650897
8	0x3d6298f5	0.055321652
9	0xbe73fe87	-0.23827563
10	0xbd78dc47	-0.060756948
11	0xbcca73df	-0.024713455
12	0xbdbde4f0	-0.09272182
13	0xbdb68839	-0.08912701
14	0xbd0bf1fc	-0.03416632
15	0xbde170ac	-0.110078186
16	0x3e13c609	0.14431013
17	0x3d55677c	0.052100644
18	0x3da072bd	0.078343846
19	0x3d838888	0.06422526
20	0x3e0e3f4b	0.13891332
21	0x3dd60c64	0.10451582
22	0xbd63e17f	-0.05563497
23	0x3dd1fe81	0.10253621
24	0x3d7ee335	0.0622284
25	0xbc895015	-0.016761819
26	0x3b37ee85	0.0028065753
27	0xbd4a73a8	-0.049426705
28	0x3de3582c	0.11100802
29	0xbca66284	-0.020310648
30	0xbdd98ac9	-0.10622174
31	0x3df6c740	0.12049723
32	0xbd305351	-0.043048207
33	0x3ca3eec2	0.02001131
34	0xbdc8e236	-0.09808771
35	0xbd3d28bd	-0.04618143
36	0x3e447bfd	0.19187923
37	0x3db15c84	0.08660224
38	0xbd198e0d	-0.037488986
39	0xbde1d884	-0.11027625
40	0x3d5347cc	0.051582143
41	0xbd4d0c9b	-0.05006085
42	0xbcc04690	-0.023471147
43	0x3e201c69	0.15635838
44	0x3c922e27	0.017844273
45	0xbceda9c9	-0.029011624
46	0xbd68cd9e	-0.056836717
47	0x3d13285e	0.03592717
48	0xbe0c2ab7	-0.1368817
49	0x3e06ce7c	0.13164705
50	0xbe05ada7	-0.13054524
51	0xbde34c3e	-0.110985264
52	0x3e0e4804	0.1389466
53	0x3dcd5c98	0.100274265
54	0x3da2436e	0.079230174
55	0xbd359423	-0.044330727
56	0x3c3353ff	0.010945319
57	0x3d0f0a6a	0.03492204
58	0xbe2a979a	-0.16659394
59	0xbe62acd0	-0.22136235
60	0x3d97a3dc	0.074043006
61	0x3e37141f	0.1787877
62	0xbd140bb8	-0.03614399
63	0xbe2b09d4	-0.16702968
64	0xbca203df	-0.019777237
65	0xbda5f009	-0.08102424
66	0xbda58f7f	-0.0808401
67	0xbe06fbee	-0.13182041
68	0x3db138ac	0.086533874
69	0x3d621d56	0.05520376
70	0x3ddeaa7f	0.10872363
71	0x3e2f2839	0.17105187
72	0x3dfa3f3a	0.12219091
73	0x3e5b30ba	0.21405306
74	0xbe35b3fb	-0.17744438
75	0xbd3d4637	-0.04620954
76	0x3b2173eb	0.0024635743
77	0x3da8d205	0.08243183
78	0x3dc5e7a0	0.096633196
79	0xbdbedcae	-0.09319435
80	0x3e29e464	0.1659103
81	0x3d32b107	0.043625858
82	0xbe2b9c9e	-0.16758963
83	0x3b8366a7	0.00401004
84	0x3cc47e12	0.023985896
85	0xbe2a0c03	-0.16606145
86	0xbe1a0d05	-0.15044029
87	0x3dcc8f5c	0.09988281
88	0x3e4169c1	0.18887998
89	0x3d5938ea	0.053032793
90	0xbd30c1ec	-0.04315369
91	0xbe35d00d	-0.17755146
92	0x3e093e71	0.13402726
93	0xbd327cdb	-0.043576103
94	0xbc963f75	-0.018340806
95	0x3df6b558	0.12046307
96	0xbc9b55b3	-0.018961763
97	0xbd85bb4c	-0.06529865
98	0xbd40d42b	-0.04707734
99	0x3d3b612d	0.04574697
100	0x3e1f31e3	0.15546374
101	0x3d923223	0.07138469
102	0x3e03af59	0.12859859
103	0xbcd1c1de	-0.025605138
104	0xbde74461	-0.11292339
105	0x3e2d5639	0.16927423
106	0xbc63088e	-0.01385702
107	0xbdaac985	-0.08339218
108	0x3dd1d9c9	0.10246617
109	0xbd5247cd	-0.051338006
110	0x3c297d1b	0.010344769
111	0x3dc7fcc8	0.09765011
112	0x3d90b56c	0.070658535
113	0xbd89dac1	-0.06731177
114	0x3e0bc720	0.13650179
115	0x3d170a3d	0.036875
116	0xbc9128c3	-0.017719632
117	0xbdb478f7	-0.08812135
118	0xbe041ea0	-0.12902308
119	0x3e49be02	0.19701388
120	0x3e13abbc	0.1442098
121	0xbdf8f22b	-0.12155565
122	0xbd6b5c4c	-0.057461068
123	0x3dfef6e9	0.12449438
124	0x3e19cdec	0.15019959
125	0xbe0cdc32	-0.13755873
126	0xbd974089	-0.07385356
127	0xbdbafcd1	-0.09130252
128	0xbcf26e52	-0.02959362
129	0x3dfe4546	0.124155566
130	0x3b1620d1	0.0022907744
131	0xbe0c19f6	-0.13681778
132	0xbe3396c8	-0.17537987
133	0x3d65439c	0.05597268
134	0xbd5450fe	-0.051835053
135	0x3c8c79f5	0.017147997
136	0xbd194016	-0.037414633
137	0x3d65ca7b	0.056101304
138	0xbdca68fa	-0.09883304
139	0x3c572752	0.013131933
140	0x3d81d780	0.063399315
141	0xbd96e413	-0.073677205
142	0x3daaf2f0	0.08347118
143	0x3d0c99dc	0.03432642
144	0x3cc2bdbb	0.023772111
145	0xbd378611	-0.04480559
146	0xbe1bb357	-0.15205131
147	0xbe211190	-0.15729356
148	0x3d853f0e	0.06506167
149	0xbe6f070e	-0.23342535
150	0x3dae1476	0.08499996
151	0x3dca3eb7	0.09875243
152	0x3c3433b0	0.010998651
153	0xbc373913	-0.011183041
154	0x3cfefa14	0.031125106
155	0x3d047f2c	0.032347843
156	0x3e1a730d	0.15082951
157	0xbdca03ab	-0.09863981
158	0xbe3107f1	-0.17288186
159	0xbc4dd761	-0.012563557
160	0x3d81f9e2	0.063464895
161	0x3c4a3566	0.012341833
162	0x3d8ea779	0.069655366
163	0xbd1f3d14	-0.038876608
164	0xbe738c12	-0.23783901
165	0x3dc066cc	0.09394607
166	0x3b165110	0.00229365
167	0x3d8e49cc	0.069476694
168	0xbdb942c9	-0.090459414
169	0x3d96f2f7	0.073705606
170	0xbb08b914	-0.0020862268
171	0xbe099755	-0.13436635
172	0x3e06d6cd	0.13167877
173	0x3e1e8a19	0.15482368
174	0x3d3d4b02	0.04621411
175	0x3e2c2234	0.16809922
176	0x3d7a17e3	0.061057936
177	0xbe1b790e	-0.15182897
178	0xbdcb74da	-0.09934397
179	0xbd9543b3	-0.07288303
180	0xbd5cdba4	-0.053920403
181	0xbdca32ac	-0.09872946
182	0x3cd5963c	0.026072614
183	0xbe1865e9	-0.14882626
184	0x3db012ba	0.08597322
185	0x3dc1356b	0.09434017
186	0xbd8742e9	-0.06604559
187	0x3cca620b	0.024704954
188	0x3d8853dc	0.0665662
189	0x3c7e046d	0.015503985
190	0xbe0cd139	-0.13751687
191	0xbc58d1af	-0.013233586
192	0x3de8b79c	0.11363146
193	0xbe277c23	-0.16355948
194	0x3d07c991	0.033151213
195	0x3e6a7076	0.22894463
196	0xbc24fce9	-0.010070064
197	0x3e00d07a	0.12579527
198	0xbe214aa7	-0.15751134
199	0x3d9980f7	0.07495301
200	0x3d047362	0.0323366
201	0xbe6640b5	-0.22485621
202	0x3dfb314e	0.122652635
203	0x3dd45a1b	0.10368749
204	0x3d118e8d	0.035536338
205	0xbce82165	-0.028336236
206	0xbd2aa082	-0.04165698
207	0xbe047952	-0.12936905
208	0xba03610b	-0.0005011714
209	0xbdec3125	-0.11532811
210	0xbdb449d3	-0.08803143
211	0x3d6dca6c	0.058054373
212	0x3e28700c	0.16448992
213	0xbd43977b	-0.047751885
214	0x3e4ce7a6	0.20010242
215	0x3d227189	0.039659057
216	0x3d1dcd71	0.038526002
217	0xbdb9d364	-0.09073523
218	0xbd13cd38	-0.036084384
219	0x3d10aedd	0.035323013
220	0xbe27fa91	-0.16404177
221	0x3da70cf3	0.08156767
222	0xbda2ba65	-0.07945708
223	0xbe0c4c25	-0.13700922
224	0x3da402fb	0.08008381
225	0xbd3a4994	-0.045480326
226	0xbdab1de3	-0.0835531
227	0x3e677f5e	0.2260718
228	0x3d8b03c3	0.06787827
229	0xbe281a68	-0.16416323
230	0xbd9de18b	-0.077090345
231	0xbe02d9b2	-0.12778357
232	0xbda0f37d	-0.07858942
233	0x3da68418	0.08130664
234	0x3e02b63a	0.12764826
235	0xbe09a5d0	-0.13442159
236	0x3db8f29a	0.090306476
237	0x3e173aea	0.14768568
238	0x3c1a7152	0.009426432
239	0x3dbb90c0	0.09158468
240	0xbcac560d	-0.021037126
241	0xbce27f01	-0.02764845
242	0x3dc66424	0.09687069
243	0x3e4d947f	0.20076178
244	0x3d2bfce9	0.04198924
245	0x3db4b76c	0.088240474
246	0x3dd746a8	0.105115235
247	0xbcc648ec	-0.024204694
248	0xbe179df7	-0.14806353
249	0x390fe55b	0.00013722984
250	0x3d90f38c	0.07077703
251	0xbda4951f	-0.08036255
252	0x3c207355	0.009793122
253	0x3df6a8b3	0.120438956
254	0x3e104964	0.14090496
255	0x3e0c867e	0.1372318

rnn.weight_hh_l1 f4 [32, 32]
0	0x3da6982e	0.08134495
1	0xbd14fde7	-0.036374953
2	0xbe6167b3	-0.22012214
3	0xbdace130	-0.084413886
4	0xbe686f30	-0.22698665
5	0x3dc53442	0.09629108
6	0x3e420342	0.18946555
7	0x3e318a32	0.17337874
8	0xbc99e57a	-0.01878618
9	0xbdb46ae0	-0.08809447
10	0xbdaaf7e6	-0.08348064
11	0x3dee6f09	0.11642272
12	0x3d749ed0	0.059721768
13	0x3bcb91c7	0.0062124464
14	0x3e346740	0.17617512
15	0xbdb76fe7	-0.089568906
16	0xbde6f826	-0.11277799
17	0x3dc70eb3	0.097196005
18	0x3da344a7	0.07972079
19	0xbd1b1869	-0.037865076
20	0x3df99d19	0.12188167
21	0xbcd840b3	-0.026398038
22	0xbe2d955c	-0.16951507
23	0xbd27831e	-0.040896527
24	0xbcebf9d0	-0.028805643
25	0x3cd60703	0.02612639
26	0x3e0b3ce4	0.13597447
27	0xbd469837	-0.048485007
28	0x3d04c5c2	0.03241516
29	0x3e28bbbe	0.16477868
30	0xbe5f9520	-0.2183423
31	0x3dea2e76	0.11434643
32	0x3e3058c1	0.17221357
33	0xbcac3bc5	-0.021024594
34	0xbd54fab8	-0.051996917
35	0xbdf0bf87	-0.11755281
36	0x3d25b936	0.040459834
37	0x3bad1a24	0.005282657
38	0x3e225509	0.15852751
39	0xbd82c51c	-0.06385252
40	0x3ce6780f	0.02813342
41	0x3dd67283	0.1047106
42	0x3e300c54	0.17192203
43	0xbd5756e5	-0.052573103
44	0x3e252a98	0.1612953
45	0x3d99b56b	0.07505306
46	0x3dcdf5d9	0.10056657
47	0x3e0afc7d	0.13572879
48	0x3dddd67e	0.10831927
49	0x3c18bd00	0.009322405
50	0xbd873606	-0.06602101
51	0xbd95af75	-0.073088564
52	0x3e4cf65b	0.20015852
53	0xbe05d496	-0.13069376
54	0xbdf9d080	-0.12197971
55	0x3d57f6a9	0.052725468
56	0xbd022cb8	-0.03178093
57	0x3e32e738	0.17471015
58	0x3d149ccf	0.036282357
59	0xbdb6d53c	-0.0892739
60	0xbd7d1452	-0.061786957
61	0xbdbb9eba	-0.09161134
62	0xbe40e31a	-0.18836632
63	0xbcb4d4e5	-0.022074172
64	0xbd040d75	-0.032239396
65	0x3b5e0de3	0.003388279
66	0x3db7e32c	0.089788765
67	0x3e3cb4cb	0.18428342
68	0xbd9a5410	-0.07535565
69	0xbe0bb6c5	-0.1364394
70	0x3c5d7617	0.013516924
71	0x3daf00e7	0.08545094
72	0x3a3c1057	0.00071740657
73	0xbe2867cc	-0.16445845
74	0x3c672af5	0.014109363
75	0x3c17b2eb	0.009258966
76	0xbc432841	-0.011911453
77	0x3d431a92	0.04763276
78	0xbdb3a586	-0.087718055
79	0xbcec7700	-0.028865337
80	0x3e223bcc	0.15843123
81	0xbe0b28b6	-0.13589749
82	0x3d687a44	0.056757227
83	0xbdac671c	-0.08418104
84	0x3c038cd3	0.008029181
85	0x3cc029e0	0.023457468
86	0xbda2b519	-0.07944698
87	0xbde0e396	-0.109809086
88	0xbe640af9	-0.2226981
89	0xbd47612d	-0.04867666
90	0xbdfc8220	-0.12329507
91	0x3d1f4f9c	0.03889428
92	0xbe06b579	-0.13155164
93	0xbe3afc2c	-0.18260258
94	0xbcabef86	-0.020988237
95	0xbda161b1	-0.07879961
96	0x3d4810cb	0.04884414
97	0xbe53d49b	-0.20686571
98	0xbd978336	-0.073980734
99	0x3ab1b9b9	0.0013559378
100	0x3e2a452c	0.1662795
101	0xbce27ed9	-0.027648376
102	0xbe707d50	-0.23485303
103	0x3da3c703	0.07996943
104	0xbe5d8feb	-0.21636932
105	0xbd164820	-0.036689878
106	0xbdc10b08	-0.09425932
107	0xbdd212e9	-0.10257513
108	0x3d3eb989	0.04656366
109	0x3d16387e	0.03667497
110	0xbd248a63	-0.04017104
111	0x3dd08aaa	0.10182698
112	0xbe4f1a85	-0.2022496
113	0xbdabb71a	-0.08384533
114	0xbe2e9cce	-0.17052004
115	0xbd4ff836	-0.05077382
116	0xbe06b28c	-0.13154048
117	0xbe409bc3	-0.18809418
118	0xbda1f89d	-0.07908747
119	0x3b3c18ea	0.0028701373
120	0xbb944f56	-0.004526059
121	0x3e04ccf5	0.1296881
122	0xbd30fce5	-0.04320993
123	0x3dc707a8	0.09718257
124	0xbe19ae7e	-0.1500797
125	0xbd4be597	-0.0497795
126	0x3d13d6bb	0.036093455
127	0xbe04a59a	-0.12953797
128	0x3c889c23	0.016676014
129	0x3dec91c2	0.115512386
130	0x3dbc50ed	0.09195123
131	0x3e1ad15f	0.15118931
132	0x3cf2f0b9	0.029655801
133	0x3d108377	0.035281625
134	0xbda1bfd7	-0.07897919
135	0xbe671c35	-0.22569354
136	0x3d49cf4a	0.049269952
137	0xbdbe341d	-0.092872836
138	0xbd082a56	-0.0332435
139	0x3e246a08	0.16056073
140	0xbcc3d15f	-0.023903547
141	0x3c05feef	0.008178457
142	0xbe06ba3e	-0.13156983
143	0x3e2a43ff	0.16627501
144	0x3dd0377a	0.10166831
145	0x3e035c9d	0.12828298
146	0xbdeddb86	-0.116141364
147	0xbe3cbb28	-0.1843077
148	0xbe18a35e	-0.1490607
149	0xbe1f5bbd	-0.15562339
150	0xbd83b83f	-0.064316265
151	0x3d7f0ae3	0.06226624
152	0xbd6a048b	-0.05713324
153	0xbbdafd42	-0.0066830227
154	0xbd315b21	-0.043299798
155	0xbe099630	-0.13436198
156	0xbdc808cf	-0.09767305
157	0xbde5f949	-0.11229188
158	0x3e365706	0.17806634
159	0xbdd389f0	-0.10329044
160	0xbd65aaef	-0.056071218
161	0xbd8ee884	-0.069779426
162	0x3df3ed9f	0.11910557
163	0x3e152674	0.1456545
164	0xbdbf4a12	-0.093403
165	0xbd9b3e56	-0.07580249
166	0x3e41fce6	0.1894413
167	0x3e471df8	0.19445026
168	0xbdc0995e	-0.094042525
169	0x3e4f6dce	0.20256731
170	0xbdaaad11	-0.08333791
171	0xbd470a46	-0.048593782
172	0xbb8f7e08	-0.004379038
173	0x3bc823e4	0.006107794
174	0x3d07eabd	0.03318285
175	0x3da4e9a9	0.0805238
176	0x3e39532a	0.18098131
177	0xbcb1a299	-0.021683978
178	0xbda67f50	-0.08129752
179	0x3c54248a	0.012948165
180	0x3cc8e439	0.024522888
181	0x3d04ed91	0.032453123
182	0x3df7b149	0.12094361
183	0x3c661af2	0.01404451
184	0x3e226dbe	0.15862176
185	0xbd9acdac	-0.0755876
186	0x3d6a1aba	0.057154395
187	0xbe174a40	-0.14774418
188	0x3e6b5357	0.2298101
189	0x3e378458	0.17921579
190	0xbe38ef5b	-0.18060057
191	0x3dac3fe3	0.08410623
192	0x3e2544e1	0.16139556
193	0xbd23f8d3	-0.04003222
194	0xbe085718	-0.13314474
195	0xbdb67041	-0.089081295
196	0xbdd259c3	-0.10271027
197	0xbe26a4d6	-0.16273817
198	0x3d77f50a	0.06053642
199	0x3e4bae50	0.19890714
200	0x3d8c4d0b	0.06850632
201	0x3b7cfea7	0.0038603933
202	0x3c4ed426	0.012623822
203	0xbd3f71ca	-0.046739377
204	0x3e080155	0.13281758
205	0x3b696a4a	0.0035616332
206	0x3e34c325	0.17652567
207	0x3dced46d	0.10099111
208	0x3e361deb	0.1778485
209	0x3d034dbf	0.032056566
210	0xbd415ed9	-0.047209594
211	0x3d7b676f	0.06137794
212	0x3dead019	0.11465473
213	0x3e22aa08	0.15885174
214	0xbdff24a0	-0.124581575
215	0xba6a9373	-0.0008948363
216	0x3dcc2636	0.09968226
217	0xbe36f1bc	-0.17865652
218	0xbd248630	-0.040167034
219	0x3d0642a0	0.032778382
220	0x3e77ce66	0.24199829
221	0x3c9cfe07	0.019164098
222	0xbe54ba77	-0.20774256
223	0xbe067a8d	-0.13132687
224	0x3e08bc9e	0.13353202
225	0xbdd903ec	-0.10596451
226	0xbe0bd74f	-0.13656352
227	0xbe1b8f9b	-0.151915
228	0xbcc7d8a2	-0.02439529
229	0x3dfe4d92	0.12417139
230	0xbd490a18	-0.04908189
231	0x3d80d483	0.062905334
232	0x3e244b18	0.16044271
233	0x3e5a2c45	0.2130595
234	0xbdba3a52	-0.09093155
235	0xbe1687ff	-0.14700316
236	0x3e58c25d	0.21167894
237	0x3de98c7d	0.11403749
238	0xbd7d850d	-0.061894465
239	0xbdb77487	-0.08957773
240	0x3e43fd14	0.1913951
241	0xbe005678	-0.12532985
242	0x3e30e3cf	0.17274402
243	0xbd3856b9	-0.04500458
244	0x3d1da8b2	0.03849096
245	0xbd6ecbd5	-0.058299858
246	0xbe0a259b	-0.13490908
247	0x3bb7628f	0.005596466
248	0xbd3e7d83	-0.046506416
249	0xbe4d9e32	-0.20079878
250	0x3da3589a	0.07975884
251	0xbddfb5ba	-0.109233335
252	0x3cbfdfa0	0.023422062
253	0x3e7b831c	0.24561733
254	0xbda1f1a5	-0.07907418
255	0x3caa67ad	0.02080139

rnn.bias_ih_l1 f4 [32]
0	0x3d8e3288	0.06943232
1	0x3de6b330	0.11264646
2	0xbdf5a465	-0.119942464
3	0xbcf60664	-0.030032344
4	0xbce62c76	-0.028097373
5	0xbd1aaa13	-0.03775985
6	0x3de57338	0.11203617
7	0xbe097d0e	-0.13426611
8	0x3d070592	0.032964297
9	0x3d84d66a	0.06486209
10	0x3dbaba30	0.09117544
11	0xbe179a67	-0.14804994
12	0x3e29c803	0.16580205
13	0xbe401cd7	-0.18761002
14	0xbde5b1c6	-0.11215548
15	0x3d61abba	0.05509541
16	0x3dddf464	0.108376294
17	0xbd7963f6	-0.060886346
18	0x3d8bd001	0.06826783
19	0x3e18f673	0.14937763
20	0xbe5f8edd	-0.21831842
21	0x3d909fdd	0.070617415
22	0xbd807cd0	-0.06273806
23	0x3e81524f	0.2525811
24	0xbd9e7981	-0.07738019
25	0xbe313251	-0.1730435
26	0x3da79bd3	0.08184018
27	0xbe41eb7c	-0.18937486
28	0x3d8e1d8a	0.06939228
29	0xbe134953	-0.1438344
30	0x3d496d03	0.049176227
31	0x3d096204	0.03354074

rnn.bias_hh_l1 f4 [32]
0	0xbc63e9d8	-0.013910733
1	0xbd346a70	-0.04404682
2	0x3d916a19	0.07100315
3	0xbe0ab905	-0.13547142
4	0xbba71eac	-0.005100092
5	0xbe45621c	-0.19275707
6	0xbde68eac	-0.11257681
7	0x3dcea0a9	0.10089237
8	0xbdd1a702	-0.10236932
9	0xbb6702d6	-0.0035249493
10	0xbd560dc7	-0.052259233
11	0xbe45187e	-0.19247624
12	0xbdf5301c	-0.11972067
13	0xbe15a7fe	-0.14614865
14	0xbc83a584	-0.016070135
15	0xbcb025c2	-0.02150238
16	0xbe3f96fd	-0.18709941
17	0x3d9baafe	0.076009735
18	0x3e1b7f60	0.15185308
19	0x3e999101	0.29993442
20	0xbd93817e	-0.07202433
21	0xbdb7ae9f	-0.08968853
22	0xbe3182bf	-0.17335032
23	0x3e16a75e	0.14712283
24	0xbdc58f23	-0.09646442
25	0xbe47323d	-0.19452758
26	0x3c54b68f	0.0129829785
27	0xbcdaa47f	-0.026689766
28	0xbd9b37a4	-0.07578972
29	0xbcf0ce2e	-0.02939519
30	0x3dc1decc	0.09466323
31	0xbe146bd0	-0.14494252

bn.weight f4 [32]
0	0x3f83efe9	1.030759
1	0x3f839162	1.0278742
2	0x3f86495e	1.049114
3	0x3f844046	1.0332115
4	0x3f859c02	1.0438235
5	0x3f8e763e	1.1129835
6	0x3f86c756	1.0529583
7	0x3f852b3a	1.0403817
8	0x3f85312c	1.0405631
9	0x3f84509f	1.0337104
10	0x3f881509	1.063142
11	0x3f84805c	1.0351672
12	0x3f86c136	1.0527713
13	0x3f8a8970	1.0823193
14	0x3f85c577	1.0450886
15	0x3f87f4e8	1.0621614
16	0x3f8bf1d5	1.0933176
17	0x3f90afec	1.1303687
18	0x3f85a318	1.0440397
19	0x3f85a7a4	1.0441785
20	0x3f89dc20	1.0770302
21	0x3f84cbb4	1.0374665
22	0x3f85ce28	1.0453539
23	0x3f8c0a46	1.0940635
24	0x3f862b19	1.0481902
25	0x3f86084f	1.0471286
26	0x3f839546	1.027993
27	0x3f866a57	1.0501202
28	0x3f850bc0	1.0394211
29	0x3f84778e	1.0348985
30	0x3f883415	1.0640894
31	0x3f8464f5	1.034331

bn.bias f4 [32]
0	0x3d6911be	0.056901686
1	0xbdf1e781	-0.11811734
2	0x3d97c853	0.07411256
3	0x3e056c3d	0.13029571
4	0x3de88ec0	0.113553524
5	0xbdb7c133	-0.08972397
6	0xba271fdb	-0.0006375291
7	0xbdb62c9d	-0.08895228
8	0x3e078cab	0.13237254
9	0x3ca65d82	0.02030826
10	0xbdb8f67c	-0.09031388
11	0xbe06e697	-0.131739
12	0x3d75c3d8	0.060001224
13	0xbe983b57	-0.29732773
14	0xbda8d3cb	-0.08243521
15	0x3ddb1420	0.10697198
16	0xbcdbe1f9	-0.02684115
17	0xbe7bf2cd	-0.2460434
18	0x3da61318	0.081091106
19	0x3e7cf88a	0.24704185
20	0xbe9defb2	-0.30846936
21	0x3d347a6a	0.044062056
22	0xbe1f6b18	-0.15568197
23	0x3e9d33b8	0.3070352
24	0xbdca4924	-0.09877232
25	0xbe59cb5c	-0.21268982
26	0xbdcd9da5	-0.10039834
27	0x3dc7c010	0.0975343
28	0x3d3fe3f9	0.04684827
29	0xbccebb46	-0.025235783
30	0x3e0a73e4	0.13520771
31	0xbe2903c9	-0.1650535

bn.running_mean f4 [32]
0	0xbe895547	-0.26822874
1	0xbedfa356	-0.43679303
2	0x3dce1cb3	0.10064068
3	0x3e9993b8	0.29995513
4	0x3e845a8a	0.25850326
5	0xbbb16c48	-0.0054145195
6	0xbe685d6e	-0.2269189
7	0xbe55fc62	-0.20897058
8	0xbdf7f68a	-0.121075705
9	0xbe6ff387	-0.23432742
10	0xbe8d8fca	-0.27648765
11	0xbf118f4f	-0.56859297
12	0xbe054764	-0.13015515
13	0x3c546536	0.012963584
14	0xbe824269	-0.25441292
15	0x3ea60d96	0.3243224
16	0xbef0ed13	-0.47055873
17	0xbeacacae	-0.33725494
18	0xbe105bd9	-0.14097537
19	0x3f3c91d0	0.7365999
20	0xbf2ab728	-0.66685724
21	0xbe7b43f9	-0.24537648
22	0x3e28228c	0.16419429
23	0x3f7121bc	0.941921
24	0xbe8cdbe1	-0.27511504
25	0xbf00eb6a	-0.50359213
26	0xbe80eed6	-0.25182217
27	0xbf1ccc37	-0.6124911
28	0xbe5d4925	-0.21609934
29	0xbe824aec	-0.25447786
30	0x3e91188c	0.2833904
31	0x3e2e39b3	0.17014198

bn.running_var f4 [32]
0	0x3f5d0f18	0.86351156
1	0x3ed13679	0.40861872
2	0x3f2f0eab	0.68381757
3	0x3f3d7a49	0.7401472
4	0x3f598760	0.8497219
5	0x3dde9656	0.10868518
6	0x3f6a4db6	0.9152483
7	0x3f5d9297	0.86551803
8	0x3f071365	0.5276397
9	0x3f615f04	0.8803561
10	0x3f2d7fcd	0.67773134
11	0x3e08c0b9	0.13354768
12	0x3f2ff9db	0.68740624
13	0x3dc00eb0	0.093778014
14	0x3f6522dd	0.8950632
15	0x3f29ff7b	0.6640546
16	0x3f0676d2	0.52525055
17	0x3e57ee72	0.21087053
18	0x3f46d673	0.77670974
19	0x3d5c2d57	0.053754177
20	0x3e087b25	0.13328226
21	0x3f648a14	0.8927319
22	0x3f4d7901	0.8026276
23	0x3c1f3190	0.009716406
24	0x3f581b43	0.844166
25	0x3e3914f4	0.18074399
26	0x3f6554c6	0.8958248
27	0x3e9011aa	0.28138477
28	0x3f63464a	0.8877913
29	0x3f642026	0.89111555
30	0x3f4e432b	0.8057124
31	0x3f0a0495	0.5391324

fc.0.weight f4 [32, 32]
0	0x3d616513	0.055028033
1	0x3e53dccb	0.20689695
2	0x3cc9eff0	0.024650544
3	0x3e1c3d5d	0.15257783
4	0x3d8a732a	0.06760247
5	0x3e75c4d5	0.24000867
6	0x3d926b86	0.07149415
7	0x3e2dccaa	0.16972604
8	0x3db0524c	0.08609447
9	0xbb259f0c	-0.0025271801
10	0xbe0cb9a1	-0.13742687
11	0xbd4fc177	-0.05072161
12	0x3dc64a57	0.09682148
13	0x3e66bc36	0.22532734
14	0x3e1e47c8	0.1545707
15	0x3e382e68	0.17986453
16	0x3e028f4e	0.12749979
17	0xbe937cf0	-0.28806257
18	0xbe24ce09	-0.16094221
19	0xbe10fa0e	-0.14157888
20	0x3df14534	0.117807776
21	0xbcd28c24	-0.02570159
22	0xbe294d35	-0.16533358
23	0x3d2ecc48	0.042675287
24	0x3d02b4ca	0.031910695
25	0xbe75efad	-0.2401721
26	0xbe25723e	-0.16156861
27	0x3dc44fb6	0.09585516
28	0x3e3d13f9	0.1846465
29	0xbb6d81d0	-0.0036240704
30	0xbc0ffdc4	-0.00878853
31	0x3db9cf82	0.09072782
32	0xbe32b56d	-0.17452021
33	0xbccabb05	-0.024747381
34	0x3dccba55	0.099964775
35	0x3e2f5bc0	0.17124844
36	0x3db79f25	0.08965901
37	0xbe1a6082	-0.15075877
38	0xbb676371	-0.0035307074
39	0xbe73ebfd	-0.23820491
40	0x3e018a41	0.12650396
41	0xbd2da96e	-0.04239791
42	0xbe35818a	-0.17725196
43	0xbe06e73a	-0.13174143
44	0xbe2ae5ef	-0.16689275
45	0xbc0c73bb	-0.008572514
46	0xbd451ff2	-0.04812617
47	0x3e86979b	0.2628754
48	0x3d6b5605	0.05745508
49	0x3dc3db8e	0.09563361
50	0x3dcedf78	0.10101217
51	0x3d80402b	0.06262239
52	0xbde12308	-0.1099301
53	0xbe4bc004	-0.19897467
54	0xbd1c820c	-0.03820996
55	0x3e151ec3	0.14562516
56	0xbe067e12	-0.1313403
57	0x3cd050ea	0.025429208
58	0x3c1476c0	0.009061515
59	0xbe75ef0f	-0.24016975
60	0xbddb0bb2	-0.1069559
61	0xbe670844	-0.22561747
62	0xbd836a37	-0.06416743
63	0xbe22267a	-0.1583499
64	0xbe427d4b	-0.18993108
65	0xbe2b83f3	-0.16749553
66	0xbd05a149	-0.032624517
67	0xbd769843	-0.0602038
68	0x3d9bd777	0.07609456
69	0xbb152271	-0.0022756124
70	0xbe7e5521	-0.24837162
71	0xbe098898	-0.13431013
72	0xbe0cbc86	-0.13743791
73	0x3d8acb00	0.067770004
74	0xbe3dc9b8	-0.18533981
75	0x3cfa3e02	0.030547146
76	0xbd1f553b	-0.03889964
77	0xbe680df5	-0.22661574
78	0xbdffcdf9	-0.12490458
79	0x3e823c71	0.25436738
80	0xbe8ba2b8	-0.27272582
81	0x3e6c6dab	0.2308871
82	0xbe235a29	-0.15952362
83	0x3b86fefd	0.0041197524
84	0x3d94847a	0.072518304
85	0xbe57814b	-0.21045415
86	0xbdff5232	-0.124668494
87	0x3e0cdb0e	0.13755438
88	0xbd8ee64f	-0.06977522
89	0x3d4198dc	0.04726492
90	0xbe71dd8e	-0.23619673
91	0xbe5e29c3	-0.21695618
92	0xbe0d865e	-0.13820788
93	0xbd310d21	-0.04322541
94	0x3e357b89	0.17722906
95	0x3e32ebe7	0.17472802
96	0x3e34250a	0.17592254
97	0xbd2df902	-0.0424738
98	0xbccfa7c8	-0.025348559
99	0x3d0a96be	0.033835165
100	0xbe5543a6	-0.20826587
101	0x3e055ded	0.13024111
102	0x3b9e0cfe	0.004823326
103	0xbc9f5738	-0.019450769
104	0x3d229141	0.039689306
105	0x3d197c2e	0.037471943
106	0x3dfbd679	0.12296767
107	0xbe5a59b0	-0.21323276
108	0x3e0e0be3	0.13871722
109	0xbd0716d2	-0.032980748
110	0x3df9009f	0.121583216
111	0xbd8d814b	-0.06909426
112	0x3dda6719	0.106641956
113	0xbe3396e6	-0.17538032
114	0xbd8fa073	-0.07013025
115	0x3e13ea8d	0.14444943
116	0x3df63808	0.12022406
117	0x3e222b70	0.15836883
118	0xbe311789	-0.17294134
119	0xbc90499b	-0.017613223
120	0x3d5efadd	0.05443846
121	0xbc20e890	-0.009821072
122	0x3d90ce95	0.070706524
123	0x3dc5b8b4	0.0965437
124	0x3e00dd8e	0.12584516
125	0x3d2028b7	0.03910133
126	0x3c30b431	0.0107851485
127	0xbe38ede3	-0.18059497
128	0xbc4b9298	-0.012425087
129	0x3cd0da9d	0.025494868
130	0xbe5f8755	-0.21828969
131	0xbe1c12b9	-0.15241517
132	0x3e23eea0	0.16008997
133	0x3d77a7c4	0.06046273
134	0x3dfb7b14	0.12279335
135	0xb9e2adc2	-0.0004323554
136	0x3d94ba7f	0.07262134
137	0x3d32543d	0.043537367
138	0x3d3c0780	0.04590559
139	0xbe5560b9	-0.20837678
140	0x3e47eddc	0.1952433
141	0x3e0f78f8	0.1401099
142	0xbe1b08e7	-0.15140115
143	0x3e185e0c	0.14879626
144	0x3e0115a5	0.12605913
145	0x3d1e585b	0.03865848
146	0x3e12db29	0.14341415
147	0x3e44f8aa	0.19235483
148	0xbe656fa2	-0.22405866
149	0x3e2b2b22	0.16715673
150	0xbe11bd10	-0.14232278
151	0x3d7c07d5	0.061530907
152	0x3dd0cd22	0.10195376
153	0x3d0c3c23	0.03423704
154	0xbde468e0	-0.11152816
155	0x3e0a5b90	0.13511491
156	0xbc3e5d54	-0.011618931
157	0x3e28b1d3	0.16474085
158	0x3e31b300	0.1735344
159	0xbd4464bd	-0.047947634
160	0xbe1b572d	-0.15169974
161	0x3cf618d4	0.030041136
162	0x3dece73f	0.11567544
163	0xbe28da98	-0.16489637
164	0xbdc86182	-0.09784223
165	0xbe05b480	-0.13057137
166	0xbd8619a8	-0.06547862
167	0x3e3de129	0.18542923
168	0xbddb115b	-0.1069667
169	0xbddf2dde	-0.1089742
170	0x3e615609	0.22005476
171	0xbd823290	-0.063573
172	0xbd052d85	-0.032514114
173	0x3def3634	0.1168026
174	0x3e418eee	0.1890218
175	0xbdf8f92e	-0.12156902
176	0xbdc9db5e	-0.09856294
177	0xbe547cdb	-0.20750754
178	0x3dbf8cfb	0.09353062
179	0xbd71a15b	-0.05899177
180	0xbcb7fff6	-0.022460919
181	0x3d83e5ac	0.06440291
182	0xbdb6c313	-0.08923926
183	0xbc07eb93	-0.008295911
184	0x3bb8f8b7	0.0056448835
185	0x3e0765ab	0.13222377
186	0x3e08b5ee	0.1335065
187	0x3e4be425	0.19911249
188	0x3e3ec22e	0.18628761
189	0x3dc43a3f	0.09581422
190	0xbe189619	-0.14901008
191	0xbe03c681	-0.12868692
192	0x3da52f99	0.08065719
193	0x3cc83ce2	0.024443094
194	0x3e2b8166	0.1674858
195	0xbe1cf72f	-0.15328668
196	0x3e477bed	0.19480868
197	0xbe28723d	-0.16449828
198	0x3e10d61b	0.14144175
199	0xbc07a64f	-0.008279397
200	0xbd0e4b9b	-0.03474007
201	0xbe04f461	-0.12983848
202	0xbcccd2b9	-0.025002824
203	0xbe407c71	-0.1879747
204	0xbc472013	-0.012153643
205	0xbe705700	-0.23470688
206	0x3b28b84c	0.0025744615
207	0xbe59b765	-0.21261366
208	0xbe7a8dbb	-0.24468128
209	0x3e5446bd	0.2073011
210	0x3dba1b2b	0.09087213
211	0x3e85186b	0.25995192
212	0x3dde1c85	0.108452834
213	0xbe3183d4	-0.17335445
214	0xbd3102b2	-0.04321546
215	0x3e7cd9ce	0.24692461
216	0x3caa7f71	0.020812722
217	0x3dbdbc81	0.0926447
218	0xbdcc796f	-0.09984099
219	0xbd0da49f	-0.034580823
220	0x3bac55e4	0.0052592624
221	0xbd14c394	-0.03631933
222	0x3ccc62fa	0.02494954
223	0xbdfc9264	-0.12332609
224	0x3e3279dd	0.174293
225	0xbca79a31	-0.020459266
226	0xbcb51876	-0.02210639
227	0xbe2f515e	-0.17120883
228	0xbe507a93	-0.20359258
229	0x3d41a2c5	0.04727437
230	0x3e647bca	0.22312847
231	0x3e2debfd	0.16984554
232	0x3dc58991	0.09645379
233	0xbd8676aa	-0.06565602
234	0xbe07953d	-0.13240524
235	0xbe21e940	-0.15811634
236	0x3e3af682	0.18258098
237	0xbe51d878	-0.20492733
238	0xbdaf6cda	-0.08565684
239	0x3e13e265	0.14441831
240	0x3d3c00be	0.045899145
241	0xbd5395d4	-0.05165656
242	0x3e56352c	0.20918721
243	0x3dd4c9eb	0.10390075
244	0xbe5bc8ce	-0.2146332
245	0xbd8b035d	-0.06787751
246	0xbd9563b5	-0.07294408
247	0xbe08bedb	-0.13354056
248	0x3e4da8f2	0.20083979
249	0xbdab0f8f	-0.08352577
250	0x3d77a987	0.06046441
251	0xbdd751c4	-0.105136424
252	0x3e1b8d3f	0.151906
253	0x3e26a0fa	0.16272345
254	0x3cee085a	0.029056717
255	0xbe3ca9f2	-0.18424204

fc.0.bias f4 [32]
0	0x3e2ee8b3	0.17080955
1	0x3e9e4bb2	0.30917126
2	0x3e82f86a	0.2558015
3	0x3e979aa9	0.29610184
4	0x3e881f06	0.2658617
5	0x3e374a36	0.17899403
6	0x3ef5d026	0.48010367
7	0x3ea947de	0.33062643
8	0x3ec08120	0.37598515
9	0x3d64f82d	0.05590074
10	0x3dd73d3c	0.105097264
11	0x3e53fffd	0.2070312
12	0x3ec25e26	0.37962455
13	0x3ed0371b	0.40667042
14	0x3e672501	0.2257271
15	0x3e43fc84	0.19139296
16	0x3e169aa6	0.14707431
17	0x3e9bf434	0.3045975
18	0x3e2b81d0	0.16748738
19	0x3df22385	0.11823181
20	0x3e3213d0	0.1739037
21	0x3e270db0	0.16313815
22	0x3ecb3b57	0.3969371
23	0x3e8539b1	0.26020578
24	0x3eb2300f	0.3480229
25	0x3ee2d0ef	0.4430003
26	0x3e89462e	0.26811355
27	0x3db85e2d	0.090023376
28	0x3e1a1d01	0.15050127
29	0x3d065b99	0.032802198
30	0x3cf39aac	0.02973684
31	0x3e00c3ea	0.12574735

fc.3.weight f4 [72, 32]
0	0x3dce70fe	0.10080145
1	0x3d40ccc5	0.047070283
2	0x3db3ded7	0.08782738
3	0x3d444275	0.04791494
4	0x3d328341	0.043582205
5	0x3d91d781	0.07121182
6	0x3e1e1970	0.15439391
7	0x3db8cc06	0.090232894
8	0x3e4ed89c	0.20199817
9	0x3ddd9c98	0.108208835
10	0x3e1c8897	0.1528648
11	0x3de3a5a0	0.11115575
12	0x3e0846ab	0.13308208
13	0x3dbed476	0.093178675
14	0x3e003884	0.12521559
15	0x3d5fd541	0.054646734
16	0x3d3eee8c	0.046614215
17	0x3dfdb563	0.123881124
18	0x3dea8bc8	0.114524424
19	0x3e070335	0.13184817
20	0x3da83e63	0.08215024
21	0x3d850258	0.06494588
22	0x3dda5b48	0.10661942
23	0x3e54f15b	0.20795195
24	0x3dc14031	0.09436072
25	0x3dff3dbe	0.12462948
26	0x3d32444b	0.04352216
27	0x3dd135f1	0.10215367
28	0x3d31d9c0	0.043420553
29	0x3d6e9a26	0.058252476
30	0x3dcae6fd	0.09907339
31	0x3da0d427	0.07852965
32	0x3e8d8f43	0.27648363
33	0x3e45c514	0.1931346
34	0x3e9fd018	0.3121345
35	0x3e44fe1a	0.19237557
36	0x3d47c09d	0.048767675
37	0x3d2f5d51	0.042813603
38	0x3e5fb35d	0.21845765
39	0x3d00413f	0.031312224
40	0x3da35473	0.07975092
41	0x3e5db72d	0.21651907
42	0x3de45898	0.111497104
43	0x3e47ff2e	0.19530937
44	0x3e593d86	0.21214876
45	0x3e97f7e6	0.2968132
46	0x3e53433b	0.20631115
47	0x3e3c7444	0.18403727
48	0x3e730767	0.23733293
49	0x3e824892	0.25445992
50	0x3dfd0076	0.123536035
51	0x3e83f3dc	0.25771987
52	0x3dedaebf	0.11605596
53	0x3e2a5252	0.16632965
54	0x3dd66607	0.10468679
55	0x3e14535b	0.14484923
56	0x3e343348	0.17597687
57	0x3e89b9bc	0.26899517
58	0x3d94033c	0.072271794
59	0x3e77f8ac	0.24215955
60	0x3e5ed5f2	0.21761301
61	0x3d955c3c	0.07292983
62	0x3e00197b	0.1250972
63	0x3e66e2b5	0.2254742
64	0x3e32f872	0.17477587
65	0x3e0cd630	0.13753581
66	0x3dbcb601	0.09214402
67	0x3dd6b6f9	0.10484118
68	0x3c9ec7eb	0.019382438
69	0x3ce49b99	0.027906226
70	0x3e00e31b	0.12586634
71	0x3e021ecb	0.12707059
72	0x3dcf6710	0.101270795
73	0x3d10749d	0.03526746
74	0x3e15d6ec	0.14632767
75	0x3d37f7a6	0.04491391
76	0x3d083546	0.03325393
77	0x3d6105b6	0.054937087
78	0x3d02ffdd	0.03198229
79	0x3e171d7d	0.14757343
80	0x3d8c3a00	0.06847
81	0x3e2cc6ab	0.16872661
82	0x3df14d43	0.11782315
83	0x3ddbb293	0.1072742
84	0x3e05cdbb	0.13066761
85	0x3e0c39fa	0.13693991
86	0x3e16d949	0.14731325
87	0x3dd9dd14	0.106378704
88	0x3cf4a833	0.02986536
89	0x3e2752e0	0.16340208
90	0x3d0ecdb5	0.034864146
91	0x3daf6e2e	0.08565937
92	0x3cf5854c	0.029970787
93	0x3d4548f3	0.048165273
94	0x3df1d6be	0.11808537
95	0x3dc1f2c9	0.09470136
96	0x3d5c9a10	0.053857863
97	0x3e288c66	0.16459808
98	0x3d664ffd	0.056228627
99	0x3cdf4888	0.027256265
100	0x3dcb686d	0.09932027
101	0x3d2c5f65	0.042083163
102	0x3dd38984	0.103289634
103	0x3dd283b6	0.10279028
104	0x3dbc426d	0.09192357
105	0x3d2d1f5e	0.042266242
106	0x3dbd2155	0.09234873
107	0x3e05723b	0.13031857
108	0x3e17a2fa	0.14808264
109	0x3e5ce8fd	0.21573253
110	0x3d62a0f5	0.05532928
111	0x3d797899	0.060906027
112	0x3d36691c	0.044533834
113	0x3dbe5721	0.09293962
114	0x3dd71117	0.105013065
115	0x3e09faf6	0.1347464
116	0x3da5e61f	0.08100533
117	0x3db8ec6a	0.090294674
118	0x3e1558a4	0.14584595
119	0x3e31426a	0.17310491
120	0x3e0d031e	0.1377072
121	0x3e0eec6f	0.1395738
122	0x3e128674	0.14309102
123	0x3dd71cf1	0.10503567
124	0x3d51c389	0.051211867
125	0x3dea38a4	0.114365846
126	0x3de959b0	0.1139406
127	0x3d4a3bcd	0.049373437
128	0x3db81f36	0.08990328
129	0x3e803604	0.2504121
130	0x3e51db8d	0.20493908
131	0x3e13670a	0.14394775
132	0x3e787374	0.24262792
133	0x3dd8a8e4	0.10579088
134	0x3e5942a8	0.21216834
135	0x3d3743b5	0.044742305
136	0x3e501a2a	0.20322481
137	0x3df2b84f	0.1185156
138	0x3e1246ba	0.14284793
139	0x3df5c8ae	0.12001167
140	0x3e22d4bd	0.15901466
141	0x3e84636a	0.25857097
142	0x3e7d6de4	0.24748951
143	0x3e339720	0.17538118
144	0x3e22703b	0.15863125
145	0x3e1a255b	0.15053312
146	0x3e4b7392	0.19868305
147	0x3e75a544	0.23988825
148	0x3ded5bc0	0.115897655
149	0x3e80d158	0.25159717
150	0x3e498089	0.19677939
151	0x3e16e647	0.14736281
152	0x3dd7b725	0.10532979
153	0x3e3c92c8	0.18415368
154	0x3e30582a	0.17221132
155	0x3e053eb3	0.13012199
156	0x3e2a37ad	0.16622801
157	0x3e508735	0.20364077
158	0x3dd9333a	0.10605474
159	0x3e84196e	0.2580065
160	0x3b9ad1ba	0.0047247084
161	0x3d9e97e0	0.077438116
162	0x3dcfdd61	0.101496466
163	0x3daf000e	0.08544932
164	0x3e215a9e	0.15757224
165	0x3e22d854	0.15902835
166	0x3e321389	0.17390265
167	0x3daea821	0.08528162
168	0x3e37b321	0.17939426
169	0x3c52457c	0.012833949
170	0x3ddd4b54	0.10805383
171	0x3d59cb9d	0.053172696
172	0x3e302de0	0.17205
173	0x3d6adaac	0.057337448
174	0x3de6bcc6	0.112664744
175	0x3e356b34	0.17716676
176	0x3d85d41e	0.06534599
177	0x3e05e0de	0.13074061
178	0x3d39e187	0.045381095
179	0x3d9e0158	0.077151
180	0x3e11196a	0.14169851
181	0x3e1ad86d	0.15121622
182	0x3dfd12be	0.123570904
183	0x3d9bd599	0.076091
184	0x3e191a9a	0.14951554
185	0x3de67cd4	0.11254278
186	0x3cc63979	0.024197327
187	0x3e13b315	0.14423783
188	0x3dec2a80	0.11531544
189	0x3d4b2b61	0.049601916
190	0x3da5ca24	0.08095196
191	0x3cb8fbdb	0.022581032
192	0x3c8bb720	0.017055094
193	0x3d39913d	0.045304526
194	0x3d26f3ee	0.040759973
195	0x3db416d0	0.08793414
196	0x3e04141b	0.12898295
197	0x3d3e2054	0.04641755
198	0x3e13eda5	0.14446123
199	0x3cfe5189	0.031044738
200	0x3de3d6f0	0.111249804
201	0x3d13d63c	0.03609298
202	0x3de421d5	0.111392654
203	0x3d9e344b	0.07724818
204	0x3dbc44ec	0.09192833
205	0x3dd400f9	0.10351748
206	0x3ddceb75	0.10787097
207	0x3e1e071c	0.154324
208	0x3d8154ee	0.06315027
209	0x3da6bf97	0.081420116
210	0x3e0e8cdf	0.13920926
211	0x3e050c16	0.12992892
212	0x3ca0e836	0.019641977
213	0x3e1674a4	0.14692932
214	0x3dfcf84c	0.12352046
215	0x3e57f483	0.21089368
216	0x3d977f41	0.07397319
217	0x3e098e68	0.1343323
218	0x3dab5ad8	0.083669364
219	0x3dc07683	0.09397604
220	0x3dd8f027	0.105926804
221	0x3d999e10	0.07500851
222	0x3dbc8edd	0.092069365
223	0x3e0c5b4f	0.13706706
224	0x3e4fd93c	0.20297712
225	0x3e15502a	0.14581361
226	0x3de41e4a	0.1113859
227	0x3e45ab5b	0.19303648
228	0x3e1246c9	0.14284815
229	0x3e3b76b6	0.18307003
230	0x3e881ef0	0.26586103
231	0x3de3f23a	0.111301854
232	0x3e274bfe	0.16337582
233	0x3e319539	0.1734208
234	0x3dc3b113	0.095552586
235	0x3e564c1d	0.20927472
236	0x3d96aff4	0.07357779
237	0x3ea2187c	0.31659305
238	0x3e4c6cc4	0.19963366
239	0x3db02190	0.086001515
240	0x3d9ea9a6	0.077472016
241	0x3e2c946a	0.1685349
242	0x3de93c98	0.113885105
243	0x3e33dd99	0.17565002
244	0x3e8ec558	0.27884936
245	0x3e557495	0.20845254
246	0x3e89f6fc	0.26946247
247	0x3e3c2a12	0.18375424
248	0x3e12b217	0.14325748
249	0x3e1d4e64	0.15361935
250	0x3d95da51	0.07317031
251	0x3e4b1fe4	0.19836384
252	0x3df20b05	0.11818508
253	0x3dfe3fd4	0.12414518
254	0x3e0437de	0.12911937
255	0x3e29f36e	0.16596767

fc.3.bias f4 [72]
0	0x3e2971fb	0.16547386
1	0x3e1baa2f	0.15201639
2	0x3ec9c487	0.3940775
3	0x3daf5536	0.085611746
4	0x3e203567	0.15645371
5	0x3e9af93f	0.30268285
6	0x3e98a17d	0.29810706
7	0x3edc3399	0.43008116
8	0x3ed4f0ed	0.41590062
9	0x3ea9cf45	0.33165947
10	0x3e647b75	0.2231272
11	0x3dc859f0	0.09782779
12	0x3e84dd20	0.25949955
13	0x3eaf8b35	0.34285894
14	0x3e64f549	0.22359194
15	0x3e2ef77b	0.17086594
16	0x3e5d4e04	0.21611792
17	0x3e8504e3	0.2598029
18	0x3e438bb0	0.19096255
19	0x3e879d22	0.2648707
20	0x3eccbcb7	0.39987728
21	0x3ec6146f	0.38687465
22	0x3ecb5910	0.39716387
23	0x3e51ea1d	0.20499463
24	0x3e21ef4b	0.1581394
25	0x3ec035fc	0.37541187
26	0x3ebd4326	0.36965293
27	0x3db851a3	0.08999946
28	0x3e98b25f	0.29823586
29	0x3e0a20b4	0.13489038
30	0x3e1b7c34	0.15184098
31	0x3eac25a3	0.33622465
32	0x3e07c575	0.13258918
33	0x3dd64216	0.10461824
34	0x3e8204a1	0.25394157
35	0x3e7c0bcc	0.24613875
36	0x3ecbd0d8	0.39807773
37	0x3e30e116	0.17273363
38	0x3e8cd174	0.2750355
39	0x3ec26113	0.37964687
40	0x3e6f8ebd	0.23394294
41	0x3ea67715	0.32512727
42	0x3ebc2092	0.367436
43	0x3ebf80f8	0.37403083
44	0x3e8ab1f2	0.27088886
45	0x3e762a02	0.24039462
46	0x3e1f4579	0.15553845
47	0x3ecc9f78	0.39965415
48	0x3e2fc5ac	0.1716525
49	0x3ebff3e9	0.37490776
50	0x3de5318c	0.11191091
51	0x3ecaf19c	0.39637458
52	0x3ebdeb70	0.37093687
53	0x3e169c20	0.14707994
54	0x3ebece85	0.37266937
55	0x3e65cfdd	0.22442575
56	0x3e297829	0.16549744
57	0x3eaf6b2f	0.34261462
58	0x3ed0799d	0.40717784
59	0x3ec069f5	0.3758084
60	0x3e5d89d5	0.2163461
61	0x3e9f016c	0.31055772
62	0x3e97a86e	0.2962069
63	0x3e61a9ce	0.22037432
64	0x3ed0f934	0.40815127
65	0x3eb9abd1	0.36263898
66	0x3ebc7bd1	0.36813214
67	0x3ea1e2a4	0.31618226
68	0x3e9b747b	0.30362305
69	0x3daa0387	0.08301454
70	0x3ed4558e	0.41471523
71	0x3e6d0a29	0.23148407
