model/best-LSTM.pth (torch, 75550 bytes, 16 tensors)

lstm.weight_ih_l0 f4 [128, 8]
0.17748345 0.13235186 -0.09837901 -0.059726954 0.116401725 -0.15287405 0.07612761 -0.1041906
-0.10093298 0.04165084 -0.1256502 0.05863872 -0.17201293 -0.1818027 0.021797631 -0.07856724
0.13444899 -0.18878563 -0.16857585 0.0041324943 0.0897687 -0.017086081 0.028194612 0.07874178
0.012430909 -0.17044848 0.14119491 -0.052253574 0.074473 0.08816366 0.081099845 -0.23621066
-0.1551353 0.051717162 0.008754683 0.055543542 0.0642345 -0.011037712 0.20101197 -0.043638345
0.13136642 -0.08388785 -0.06619096 -0.072691806 -0.1377839 -0.14502257 -0.010805252 -0.062379096
0.093695834 -0.083998784 0.09286653 -0.11317438 0.07169408 0.16024193 -0.028458107 0.038036685
-0.12974663 -0.061220877 0.032266583 -0.17171197 0.08646453 -0.18947041 -0.040018477 -0.050759234
0.04231855 -0.14187716 0.11318248 0.13434671 -0.117916636 0.0073659285 0.102719486 -0.031714667
0.00057187025 -0.0058313133 -0.008531882 -0.15033194 -0.14638393 -0.014291253 0.14769354 -0.09491581
-0.1598233 0.0808943 -0.17205776 0.13007252 0.15368569 -0.062089354 0.1683985 -0.07681215
0.01020603 0.0043437798 0.17674457 -0.042018443 0.063018836 -0.005236819 0.008396216 -0.057254277
0.05887941 0.108839385 0.20091245 -0.13134713 -0.08746082 -0.04131156 -0.009569239 -0.09068151
-0.06234514 -0.09596846 -0.063361496 -0.12900986 -0.14391665 -0.08158595 -0.05180241 -0.13005245
-0.010436215 -0.10597761 0.08148268 -0.03537868 0.003378973 -0.0047884965 -0.003436348 -0.18000671
0.09098394 0.07862123 -0.18163697 0.093748376 -0.017269628 0.08072349 0.09089192 0.19240078
0.16317873 0.033287384 -0.122028835 -0.10875758 -0.10226117 -0.12818879 -0.12910466 -0.04001851
-0.10021179 -0.06077626 -0.013594702 0.085638836 -0.17845945 -0.0016813262 0.088530116 -0.16589105
0.09019039 -0.18109815 0.067418724 0.15750475 -0.06301505 -0.037445996 -0.08192395 0.24751982
-0.107066765 0.11986889 -0.16994318 -0.08344178 0.12396749 0.014318473 -0.08728821 -0.07454648
-0.0010644731 0.13007954 -0.18474838 0.019205093 0.07201873 -0.12338089 0.07986487 -0.16124001
-0.07925139 0.015720448 0.026452374 -0.05656457 -0.018116502 -0.02329407 0.058648773 -0.17012697
-0.19761038 -0.15439487 0.032870743 -0.010734156 0.15712531 0.12035644 0.20485862 -0.06626999
-0.04367863 -0.06601461 -0.07059107 0.02766274 -0.13993259 -0.027486306 0.11888519 -0.13493042
-0.07051667 -0.1514465 0.027476998 0.090107724 0.058470897 0.0042124507 0.16360675 -0.12338609
0.011256918 -0.15770642 -0.17254846 0.06474283 -0.07773849 -0.18885455 0.079865314 -0.04029935
0.004524501 0.036704518 -0.17266205 -0.066172466 -0.12444588 0.13628429 0.048350576 -0.20838101
0.1538527 -0.15900052 0.15756707 -0.13526374 -0.07351662 0.070072584 -0.0924081 -0.12920427
0.037993226 0.0868401 0.1006894 -0.088473566 -0.13893616 0.104028046 0.21150436 -0.012698619
0.030223815 -0.084843725 -0.1282881 -0.07650629 0.07485317 0.09960658 -0.093017735 -0.16097473
0.018324336 0.04903085 0.02738599 -0.14187407 -0.02730557 0.078925736 -0.0020823258 0.027277764
0.0006934027 -0.1258626 -0.11155501 0.002437055 -0.11861437 0.023565955 0.078630626 -0.22697292
00000000: 39be 353e 3f87 073e ef7a c9bd 40a4 74bd
00000010: 0764 ee3d 048b 1cbe cbe8 9b3d e261 d5bd
00000020: f3b5 cebd 129a 2a3d 72aa 00be 282f 703d
00000030: 2824 30be 7d2a 3abe f290 b23c dce7 a0bd
00000040: ffac 093e 0551 41be 269f 2cbe e069 873b
00000050: a7d8 b73d 1cf8 8bbc 63f8 e63c 5f43 a13d
00000060: 03ab 4b3c 0c8a 2ebe 6695 103e d807 56bd
00000070: 4d85 983d 268f b43d ad17 a63d 35e1 71be
00000080: cadb 1ebe 60d5 533d cd6f 0f3c a081 633d
00000090: 618d 833d 85d7 34bc 15d6 4d3e 1fbe 32bd
000000a0: eb84 063e 65cd abbd 208f 87bd 71df 94bd
000000b0: 3917 0dbe cc80 14be 8308 31bc 3981 7fbd
000000c0: 9ae3 bf3d 8e07 acbd cf30 be3d f8c7 e7bd
000000d0: 59d4 923d 7616 243e fa20 e9bc 5bcc 1b3d
000000e0: 4ddc 04be bec2 7abd f729 043d 43d5 2fbe
000000f0: 5114 b13d 8804 42be 6aea 23bd eae8 4fbd
00000100: 3756 2d3d 3f48 11be 37cc e73d 2f92 093e
00000110: 477e f1bd e35d f13b 985e d23d 3de7 01bd
00000120: 90e9 153a 9a14 bfbb 4fc9 0bbc 9ef0 19be
00000130: abe5 15be dc25 6abc fa3c 173e 3863 c2bd
00000140: b8a8 23be e9ab a53d e92f 30be bb31 053e
00000150: c85f 1d3e 6851 7ebd a870 2c3e b04f 9dbd
00000160: 3137 273c 4456 8e3b 87fc 343e 881b 2cbd
00000170: 0510 813d 9f99 abbb 4890 093c 7683 6abd
00000180: 892b 713d 2fe7 de3d febb 4d3e dd7f 06be
00000190: a91e b3bd 4f36 29bd 4cc8 1cbc 3ab7 b9bd
000001a0: 9e5d 7fbd 1d8b c4bd acc3 81bd 291b 04be
000001b0: e35e 13be 8916 a7bd c42e 54bd 782c 05be
000001c0: a9fc 2abc ca0a d9bd 64e0 a63d 3ce9 10bd
000001d0: c371 5d3b d2e8 9cbb 5a34 61bb ae53 38be
000001e0: ca55 ba3d 2b04 a13d 0bff 39be 26ff bf3d
000001f0: 0979 8dbc 5b52 a53d 8b25 ba3d b604 453e
00000200: 5318 273e 5a58 083d 41ea f9bd 4bbc debd
00000210: 4e6e d1bd ec43 03be 0334 04be 73ea 23bd
00000220: d73b cdbd 87f0 78bd 50bc 5ebc 6a63 af3d
00000230: 13be 36be f25f dcba 474f b53d 58df 29be
00000240: bdb5 b83d cb71 39be d412 8a3d ed48 213e
00000250: 090e 81bd f960 19bd bec7 a7bd d675 7d3e
00000260: d245 dbbd d27d f53d 9605 2ebe 86e3 aabd
00000270: abe2 fd3d 0798 6a3c 29c4 b2bd d3ab 98bd
00000280: ca85 8bba 9233 053e ae2e 3dbe 0054 9d3c
00000290: 8e7e 933d 1faf fcbd 3190 a33d 1a1c 25be
000002a0: 8e4e a2bd 2bc8 803c a6b2 d83c 40b0 67bd
000002b0: 0f69 94bc 35d3 bebc b239 703d c435 2ebe
000002c0: 605a 4abe b019 1ebe 79a3 063d 50de 2fbc
000002d0: 75e5 203e 707d f63d 75c6 513e 8fb8 87bd
000002e0: 5de8 32bd ab32 87bd 0d92 90bd f89c e23c
000002f0: 7d4a 0fbe f62a e1bc 147a f33d 332b 0abe
00000300: 0b6b 90bd cb14 1bbe 7117 e13c 668a b83d
00000310: 2e7f 6f3d 9908 8a3b 8788 273e d9b1 fcbd
00000320: f06e 383c cb7d 21be 8bb0 30be e497 843d
00000330: 5c35 9fbd 1663 41be 6d90 a33d ee10 25bd
00000340: 4442 943b 7a57 163d 52ce 30be 6e85 87bd
00000350: 7bdd febd 1c8e 0b3e 410b 463d d561 55be
00000360: 908b 1d3e 08d1 22be 4359 213e 9482 0abe
00000370: e28f 96bd 3782 8f3d 7540 bdbd 204e 04be
00000380: c99e 1b3d 39d9 b13d 3f36 ce3d a131 b5bd
00000390: 4845 0ebe a80c d53d 9994 583e de0d 50bc
000003a0: ef97 f73c 8cc2 adbd f55d 03be 54af 9cbd
000003b0: 9e4c 993d 89fe cb3d 1580 bebd 8fd6 24be
000003c0: eb1c 963c 93d4 483d 9558 e03c 7047 11be
000003d0: eeaf dfbc d1a3 a13d a177 08bb 9e75 df3c
000003e0: 78c5 353a 20e2 00be f476 e4bd 00b7 1f3b
000003f0: 17ec f2bd 640d c13c 1809 a13d 976b 68be

lstm.weight_hh_l0 f4 [128, 32]
-0.1280409 0.0759281 -0.105573475 0.07145698 0.000243691 -0.070228614 0.0521561 -0.018361336
-0.05362146 0.12338117 0.13100564 0.11622323 -0.0542794 0.039358996 -0.07845033 -0.014865022
-0.12993915 -0.054976355 0.0030594238 0.063959286 -0.07605049 -0.18908471 0.16668761 -0.13490623
0.11217517 -0.16153462 0.1389729 -0.023252485 -0.0308721 0.17175074 -0.1429039 -0.12044401
-0.036172662 -0.095267534 0.13861188 -0.005928365 -0.057032935 -0.0052713095 0.06872583 0.10817893
-0.18341681 0.024792314 -0.027503738 -0.1358055 0.19232431 -0.07181151 -0.0034648888 -0.029695395
0.0037046976 0.11666283 0.045190338 0.013406377 -0.07460858 0.029392283 -0.11397115 -0.057413727
0.10116412 -0.11942793 -0.13785028 -0.20269781 -0.0052301367 0.036043722 0.08777965 -0.11107959
-0.11693099 -0.026457027 0.019112928 0.0785853 0.2031604 -0.20200042 0.2503566 -0.02982204
0.029644798 -0.04033011 0.16254207 0.12701285 0.033190865 0.061761033 0.10934905 -0.030528834
0.09041126 0.007515712 0.122093916 -0.07645752 -0.035814125 0.1917755 -0.19029258 -0.030818282
0.07446731 0.1305072 0.06153444 0.05305616 0.19973409 -0.16482498 0.007061504 0.13763002
0.04994768 -0.12055612 -0.13708103 -0.019675141 0.0992173 -0.11773166 -0.11954105 -0.055333514
0.09958612 -0.002736624 -0.034243044 0.085380815 0.2210931 0.1683892 -0.10935061 0.18778273
-0.040380057 0.15601091 0.040512916 0.14527504 0.011775414 -0.006375306 0.1399498 0.122684635
-0.10006214 0.054604035 0.007333315 0.01806341 -0.08864626 -0.14506575 -0.06280854 0.14454216
0.14731234 0.07863891 0.050564867 -0.044162888 0.20093486 0.01557537 0.15234439 -0.052352674
0.11321405 -0.08218793 0.18880863 -0.14619498 -0.10642695 0.09857819 -0.107340366 -0.030378971
0.06076526 0.15688638 0.04599685 -0.10557394 -0.13382716 -0.014079344 -0.22012727 0.17614838
0.12102609 0.21082196 0.03940057 -0.08007032 0.14460804 0.07231554 -0.02468626 -0.17939425
-0.16508935 0.11302182 0.14256762 -0.031138746 -0.01866821 0.09097576 0.04490649 -0.034003936
0.07619932 0.17642786 0.1126127 -0.024381569 -0.02299867 0.0023376297 -0.014015686 -0.15963429
-0.09601126 0.07440491 0.11006551 0.16597597 0.13588442 -0.065183006 0.06420447 0.17412786
-0.062374473 -0.0921777 -0.019288862 0.06207382 -0.024308456 -0.020411182 -0.0114439195 0.2101797
-0.073852375 -0.17798948 0.04566349 -0.011406936 0.09438864 -0.03704851 -0.147093 0.024906721
-0.1540248 0.1798768 0.13352524 -0.0045855744 0.11593539 0.07152986 0.13472024 0.1672065
-0.10670749 0.022653146 -0.11922388 0.13169143 0.0055974727 0.007992358 -0.1370064 -0.008068663
-0.016610773 0.04438516 0.006560956 -0.093906984 0.18846542 -0.14678231 -0.14937073 0.06364496
0.06943515 0.054712817 -0.13581602 0.1682944 0.09895856 0.09916742 0.12373048 -0.049235288
-0.018839277 0.018899757 0.11213926 -0.11221624 -0.065377735 -0.16000983 -0.0248838 -0.13556947
-0.08717384 -0.114520386 0.14824106 0.07536777 -0.12880856 -0.024512092 0.13822842 0.018305508
-0.084506035 0.118033 0.024517711 0.036954332 -0.1288052 -0.06637066 -0.1270571 -0.040173694
00000000: 271d 03be 3180 9b3d e836 d8bd 0a58 923d
00000010: 4e87 7f39 05d4 8fbd a2a1 553d 836a 96bc
00000020: 2da2 5bbd 44af fc3d 5826 063e 7206 ee3d
00000030: 1354 5ebd e636 213d 91aa a0bd 6c8c 73bc
00000040: c50e 05be e32e 61bd 9d80 483b 16fd 823d
00000050: 5cc0 9bbd 6c9f 41be 28b0 2a3e dc24 0abe
00000060: 18bc e53d 5569 25be e94e 0e3e ff7b bebc
00000070: 7ce7 fcbc 6ddf 2f3e 6655 12be 59ab f6bd
00000080: c929 14bd a01b c3bd 46f0 0d3e bb42 c2bb
00000090: 5e9b 69bd f3ba acbb 21c0 8c3d ea8c dd3d
000000a0: 9ed1 3bbe 4019 cb3c 854f e1bc 9910 0bbe
000000b0: aaf0 443e ea11 93bd 3013 63bb c243 f3bc
000000c0: 83ca 723b ecec ee3d 8119 393d 6ca6 5b3c
000000d0: 62cc 98bd 16c8 f03c b569 e9bd a82a 6bbd
000000e0: 222f cf3d a196 f4bd a028 0dbe 0490 4fbe
000000f0: 9161 abbb 95a2 133d d1c5 b33d b27d e3bd
00000100: 8479 efbd 68bc d8bc b792 9c3c 54f1 a03d
00000110: 4809 503e 33d9 4ebe be2e 803e 5a4d f4bc
00000120: a6d9 f23c 2f31 25bd 6e71 263e a80f 023e
00000130: 25f3 073d 23f9 7c3d 65f2 df3d 9b17 fabc
00000140: 8a29 b93d 5d46 f63b 600c fa3d c395 9cbd
00000150: d5b1 12bd cc60 443e 0fdc 42be 9f76 fcbc
00000160: 5182 983d aea3 053e 890b 7c3d 6b51 593d
00000170: 1887 4c3e e1c7 28be 3064 e73b e2ee 0c3e
00000180: f095 4c3d 21e6 f6bd f85e 0cbe c32d a1bc
00000190: 7132 cb3d 4c1d f1bd f0d1 f4bd 65a5 62bd
000001a0: cff3 cb3d ef58 33bb 6f42 0cbd 23dc ae3d
000001b0: 3b66 623e 386e 2c3e 36f3 dfbd 1e4a 403e
000001c0: 8f65 25bd 53c1 1f3e dff0 253d fbc2 143e
000001d0: abed 403c f1e7 d0bb 004f 0f3e 1542 fb3d
000001e0: 61ed ccbd 7ba8 5f3d 4e4c f03b b7f9 933c
000001f0: 2c8c b5bd 1e8c 14be c4a1 80bd dc02 143e
00000200: 0cd9 163e 700d a13d 1b1d 4f3d 25e4 34bd
00000210: dec1 4d3e d62f 7f3c 2b00 1c3e c26f 56bd
00000220: c5dc e73d 2552 a8bd 0d57 413e 23b4 15be
00000230: 5ff6 d9bd 5de3 c93d 44d5 dbbd 52dd f8bc
00000240: fee4 783d d3a6 203e 3167 3c3d 2637 d8bd
00000250: fd09 09be 0dad 66bc 0b69 61be 3e60 343e
00000260: 87dc f73d b6e1 573e 7e62 213d e8fb a3bd
00000270: 2114 143e 2b1a 943d d73a cabc 20b3 37be
00000280: 2f0d 29be fc77 e73d 3ffd 113e af16 ffbc
00000290: 13ee 98bc 8051 ba3d deef 373d b647 0bbd
000002a0: 640e 9c3d 81a9 343e 7da1 e63d dbbb c7bc
000002b0: b567 bcbc eb32 193b 0ca2 65bc 2c77 23be
000002c0: 8da1 c4bd 9a61 983d 076a e13d 9bf5 293e
000002d0: 4925 0b3e ab7e 85bd a27d 833d 934e 323e
000002e0: 607c 7fbd a9c7 bcbd ad03 9ebc 1e41 7e3d
000002f0: 8722 c7bc 5a35 a7bc 477f 3bbc 5939 573e
00000300: ea3f 97bd e042 36be a409 3b3d 28e4 3abc
00000310: d54e c13d 2ec0 17bd 8c9f 16be 2e09 cc3c
00000320: adb8 1dbe a031 383e d7ba 083e 9642 96bb
00000330: 896f ed3d 3f7e 923d 1af4 093e 2e38 2b3e
00000340: 7589 dabd 1793 b93c a62b f4bd 1eda 063e
00000350: 016b b73b 61f2 023c 684b 0cbe 6d32 04bc
00000360: 5113 88bc 37cd 353d 4afd d63b 4e52 c0bd
00000370: 14fd 403e 1a4e 16be a4f4 18be 4a58 823d
00000380: 0434 8e3d 8c1a 603d 5b13 0bbe 5e55 2c3e
00000390: c9aa ca3d 4a18 cb3d 6866 fd3d f1aa 49bd
000003a0: d454 9abc aad3 9a3c 45a9 e53d a1d1 e5bd
000003b0: c3e4 85bd 9ed9 23be 1cd9 cbbc b9d2 0abe
000003c0: 3388 b2bd aa89 eabd 81cc 173e 6b5a 9a3d
000003d0: 64e6 03be 95cd c8bc c08b 0d3e 6ff5 953c
000003e0: 8011 adbd 49bb f13d 5ed9 c83c 6d5d 173d
000003f0: 83e5 03be 57ed 87bd 421b 02be 2c8d 24bd

lstm.bias_ih_l0 f4 [128]
0.07924453 0.15027626 -0.20595972 0.12164257 -0.15311043 -0.0024811162 0.07060184 0.0865696
-0.12196498 -0.088048324 0.06996087 -0.051939152 -0.062512174 -0.16494063 0.07956607 -0.004099627
0.0407227 0.10524753 0.015894696 0.12653027 -0.05229746 -0.112646654 -0.045882996 -0.06283872
0.077586725 0.044665787 -0.0015995156 0.1221247 -0.114661306 0.066406086 0.014118447 0.13193531
0.19246636 0.13498291 -0.026027465 0.010698363 -0.10000205 -0.11593491 -0.10780936 -0.0018917995
0.14256714 -0.10243203 -0.13869858 -0.17170432 0.2042692 -0.15143444 0.16699404 0.022261016
-0.1284629 -0.13981092 0.096785605 -0.094008796 -0.07117479 -0.19182038 0.019336915 -0.15212333
-0.03557089 0.024131663 0.015528396 -0.0024259 0.0033735787 0.01943465 0.024739115 -0.1315726
-0.1574438 0.016940096 0.1351817 0.039313648 0.07370478 -0.12745117 -0.13341606 0.067109585
0.05109669 -0.038903438 -0.17167306 0.054791998 -0.03851043 -0.13579713 -0.15647696 0.17611435
-0.0065260488 -0.027047036 -0.0017133727 -0.14842427 0.122930564 0.0067612915 -0.1462855 0.062095128
-0.09712327 -0.14868742 -0.16220935 -0.16629203 0.08167204 -0.09494877 0.03374424 0.096746184
0.042773783 0.13993329 -0.16634005 0.13372283 -0.11243855 0.21750347 0.12567504 -0.15597041
-0.17439952 -0.0638191 -0.04404762 -0.111206725 0.24004187 -0.14403522 -0.079679064 0.005546252
0.06604821 0.11032917 -0.11979652 0.15978391 0.0037100287 -0.0035389406 -0.06431019 -0.1261368
-0.16468814 0.015004298 0.12528013 -0.046315517 0.15721312 0.046409223 -0.1623069 0.012356684
00000000: f54a a23d 05e2 193e 1be7 52be bd1f f93d
00000010: fbc8 1cbe 399a 22bb b397 903d 674b b13d
00000020: c7c8 f9bd ae52 b4bd a547 8f3d 26be 54bd
00000030: 6206 80bd 32e6 28be 89f3 a23d 2a56 86bb
00000040: d9cc 263d 048c d73d 9835 823c 2791 013e
00000050: dd35 56bd 4ab3 e6bd cfef 3bbd 96b1 80bd
00000060: cae5 9e3d 79f3 363d d6a6 d1ba 841c fa3d
00000070: 8cd3 eabd eaff 873d 0f51 673c 0d1a 073e
00000080: e715 453e f638 0a3e 8d37 d5bc 3048 2f3c
00000090: e0cd ccbd 486f edbd 27cb dcbd 42f6 f7ba
000000a0: 1ffd 113e e2c7 d1bd 0007 0ebe 42d3 2fbe
000000b0: f22b 513e a111 1bbe 7c00 2b3e bc5c b63c
000000c0: c78b 03be 982a 0fbe 8837 c63d af87 c0bd
000000d0: 17c4 91bd 906c 44be 7368 9e3c 38c6 1bbe
000000e0: c8b2 11bd c4af c53c d06a 7e3c d9fb 1ebb
000000f0: 4217 5d3b 6a35 9f3c afa9 ca3c f8ba 06be
00000100: f338 21be f5c5 8a3c 126d 0a3e 5907 213d
00000110: 88f2 963d 8f82 02be 389e 08be c070 893d
00000120: c34a 513d 3659 1fbd 10cb 2fbe 936d 603d
00000130: 1dbd 1dbd 670e 0bbe 7f3b 20be 5257 343e
00000140: 77d8 d5bb bf91 ddbc 3f93 e0ba 88fc 17be
00000150: 05c3 fb3d d38d dd3b decb 15be 7657 7e3d
00000160: 91e8 c6bd 8441 18be 351a 26be 7548 2abe
00000170: ac43 a73d 8074 c2bd 6637 0a3d dd22 c63d
00000180: 9033 2f3d ac4a 0f3e 0c55 2abe a3ee 083e
00000190: 2f46 e6bd 3bb9 5e3e f5b0 003e b5b6 1fbe
000001a0: ca95 32be 97b3 82bd 476b 34bd 5ac0 e3bd
000001b0: 89cd 753e f87d 13be c72e a3bd 55bd b53b
000001c0: 4944 873d 43f4 e13d e157 f5bd 659e 233e
000001d0: f423 733b 92ed 67bb 10b5 83bd 012a 01be
000001e0: 02a4 28be 96d4 753c 6f49 003e 57b5 3dbd
000001f0: 7afc 203e 9917 3e3d c833 26be b073 4a3c

lstm.bias_hh_l0 f4 [128]
0.044337254 0.06318613 0.10954447 -0.14355959 -0.0019513568 0.20763524 -0.15560967 -0.05613033
-0.031873167 0.008608661 -0.06621673 -0.12405323 -0.0974593 -0.08807334 0.16996035 0.096775845
-0.17356104 -0.11193603 0.028962446 -0.108823344 0.026784776 0.04643533 -0.045273323 0.09979726
-0.098210305 0.069788456 0.13569386 0.01811647 0.025089055 0.0021917727 -0.06714305 0.13737954
0.14184172 0.08286732 0.017931016 0.018488333 -0.15413335 6.971561e-05 0.05052102 -0.12925752
0.12701415 0.051271 -0.21841294 -0.19483745 -0.05191981 -0.19987229 0.10542102 -0.13439119
-0.07279694 -0.18171374 0.019475522 -0.18749544 0.024652125 -0.018085178 0.02524329 -0.06976127
0.029881625 0.1513981 0.12959407 0.003190003 0.1744595 -0.13821268 0.023433562 0.03900951
0.07049957 0.14660697 0.01785585 0.069064274 0.13761978 -0.1535006 0.17144315 -0.05670618
-0.12769188 0.10686847 -0.023900867 -0.08873806 -0.018961573 -0.048614647 0.09583996 -0.04725246
-0.078242935 0.052198566 0.13087614 -0.14252993 -0.042966425 -0.01864152 0.047537345 -0.09510648
-0.100676514 0.124772444 0.14548136 -0.04312928 -0.110715404 0.08857235 0.028272133 0.08765132
0.045289643 -0.023793291 -0.08901031 0.2295479 0.1060475 -0.0016056485 -0.1754129 -0.099651314
-0.18452421 -0.031887975 -0.037157413 0.06058632 0.19704233 0.030147703 -0.16008882 0.0686218
-0.12808722 0.01494621 0.06251518 -0.16532488 0.14300838 0.13933237 -0.21288028 0.03338281
-0.09740668 0.1126512 -0.070971444 0.1077536 -0.10620765 0.06737641 -0.036202732 -0.12897697
00000000: fb9a 353d bb67 813d da58 e03d 4901 13be
00000010: abc4 ffba 559e 543e 2458 1fbe ebe8 65bd
00000020: 708d 02bd 570b 0d3c a39c 87bd 9f0f febd
00000030: be98 c7bd cc5f b4bd 160a 2e3e 6a32 c63d
00000040: fcb9 31be b83e e5bd a742 ed3c c6de debd
00000050: bf6b db3c f932 3e3d 8570 39bd 8162 cc3d
00000060: 7c22 c9bd 40ed 8e3d 55f3 0a3e fe68 943c
00000070: 9087 cd3c d8a3 0f3b 4c82 89bd 39ad 0c3e
00000080: f53e 113e 57b6 a93d 11e4 923c d874 973c
00000090: 22d5 1dbe 4834 9238 21ef 4e3d 155c 04be
000000a0: ff0f 023e 8a01 523d a4a7 5fbe 7883 47be
000000b0: dea9 54bd 52ab 4cbe fae6 d73d d89d 09be
000000c0: 9016 95bd 2b13 3abe 218b 9f3c cefe 3fbe
000000d0: 41f3 c93c 5e27 94bc 04cb ce3c ffde 8ebd
000000e0: 4fca f43c 1b08 1b3e 4fb4 043e 5f0f 513b
000000f0: 83a5 323e a087 0dbe bef7 bf3c 70c8 1f3d
00000100: 1462 903d 2320 163e 6e46 923c 9271 8d3d
00000110: 33ec 0c3e 432f 1dbe cb8e 2f3e bd44 68bd
00000120: a9c1 02be dbdd da3d c0cb c3bc 4dbc b5bd
00000130: 4d55 9bbc 2720 47bd be47 c43d cc8b 41bd
00000140: d53d a0bd 2ace 553d 6504 063e 5ef3 11be
00000150: 90fd 2fbd 1ab6 98bc 85b6 423d 30c7 c2bd
00000160: 7d2f cebd b288 ff3d 11f9 143e 54a8 30bd
00000170: c2be e2bd 6c65 b53d f69a e73c 8982 b33d
00000180: a281 393d 26ea c2bc 0a4b b6bd 9b0e 6b3e
00000190: 6f2f d93d a074 d2ba 709f 33be fd15 ccbd
000001a0: eaf3 3cbe f79c 02bd 5f32 18bd 5c29 783d
000001b0: 77c5 493e 51f8 f63c 53ee 23be 9689 8c3d
000001c0: 4c29 03be f3e0 743c f507 803d ed4a 29be
000001d0: ca70 123e 25ad 0e3e 4afd 59be 6abc 083d
000001e0: 277d c7bd acb5 e63d 7a59 91bd ebad dc3d
000001f0: 6583 d9bd a5fc 893d 5149 14bd 8a12 04be

lstm.weight_ih_l1 f4 [128, 32]
-0.01981515 0.03701978 -0.13310444 -0.13697325 -0.018613983 0.12514965 0.15209441 -0.0543899
-0.14481853 -0.095217966 -0.04522889 -0.07082969 -0.03300879 0.07115272 0.093655184 0.20054474
-0.05772202 0.10400208 -0.019488228 0.07568861 0.1220822 0.047349945 0.074464865 0.020114219
-0.12064485 -0.029904772 -0.07100916 -0.10120047 -0.07004335 0.010750995 0.051793907 0.052168455
0.13394728 0.1823798 -0.12237623 -0.104008846 0.08040597 -0.04157668 0.13694666 0.068645276
-0.047888998 0.14954048 -0.189027 -0.16445656 0.15680374 0.05695396 0.24044804 0.13598031
-0.1515683 0.11264551 -0.013862822 0.09240715 -0.009809928 0.14887066 -0.20900245 -0.0122311935
0.052356306 -0.12445801 0.11043152 -0.21561538 0.2239112 -0.020267261 0.018878603 -0.08272219
-0.07133763 0.14637229 0.046584595 -0.046551026 -0.1473209 -0.23729467 -0.27048835 0.028382799
-0.11561953 -0.039739396 -0.0039396337 0.12340588 0.18966258 0.010813565 0.12124277 -0.17307734
-0.13067639 -0.0025542222 -0.068570346 -0.052660327 -0.06541454 -0.25723085 0.052811496 0.028752925
0.108444616 -0.18162982 -0.025888966 -0.110160075 0.12531084 -0.13535427 0.107910626 0.13857268
-0.05686213 -0.036174107 0.009945817 0.0230274 0.01973219 -0.079134546 0.0029207857 -0.033727504
0.09135276 0.035344694 -0.1695041 0.012167692 0.003613046 0.09045052 -0.0476142 -0.25176945
0.090789974 -0.112996876 -0.17954579 0.14084432 0.20696051 -0.16689338 0.17080586 -0.016749432
-0.15400706 -0.17492813 -0.11815871 -0.0076177963 0.068811655 0.009060081 -0.13070711 0.22683227
0.20327507 0.033508316 -0.10364053 0.06704002 -0.11739353 0.18356079 -0.16198087 -0.15068515
0.013087017 -0.088847846 -0.06369638 -0.21159059 0.08775317 0.015316352 0.19085664 -0.18853036
0.063221194 -0.062186796 -0.19577633 0.06252356 0.021891301 -0.039001234 0.058284294 0.030157063
-0.15528247 -0.09565879 0.052263252 0.063832775 -0.09561799 0.22702733 0.018417116 0.15472732
-0.021099893 0.03718151 -0.049777947 0.008490524 -0.019355193 0.10533539 -0.049750775 -0.104716785
0.13545622 -0.07202959 0.06975684 -0.044119418 0.2095463 -0.04391253 -0.15829386 -0.15938511
-0.1438413 0.01633944 -0.04807784 0.078520514 -0.1522511 -0.1406375 -0.11416556 0.16557625
-0.038955778 0.15539922 0.20684765 -0.058906235 0.12683254 -0.076215036 -0.11284796 -0.14418381
-0.17862283 0.054008666 0.07995312 -0.06961289 -0.059959646 0.16867913 0.14175265 -0.013629286
0.111003615 -0.09472531 -0.20670763 -0.12295511 0.10383524 0.16479956 -0.14612424 -0.20205308
-0.007241935 0.018824855 0.019459574 0.07106633 0.07476912 -0.036088873 0.023784725 0.09116637
-0.05267683 -0.19370583 0.0012590755 -0.033625044 0.06635394 -0.07073218 -0.16746368 0.1619122
-0.048411928 -0.06253203 -0.059789427 -0.17027612 0.0048345183 0.08658949 -0.11816669 -0.17553686
-0.14773639 0.17949592 0.033044223 -0.077203915 0.0861845 0.12640859 0.027021106 -0.03170101
-0.07230549 -0.10986747 -0.16876222 -0.027089749 -0.06533689 0.12470367 0.080827825 0.010364648
0.1264346 -0.14518729 0.15690859 -0.042554732 0.008622794 0.17943248 -0.18340096 0.09547314
00000000: 6253 a2bc 0ea2 173d 884c 08be b742 0cbe
00000010: 5a7c 98bc 3b27 003e a3be 1b3e f2c7 5ebd
00000020: 4f4b 14be a301 c3bd ee41 39bd 280f 91bd
00000030: 3a34 07bd 84b8 913d 4ace bf3d 9a5b 4d3e
00000040: ed6d 6cbd 0bff d43d c7a5 9fbc a102 9b3d
00000050: 3c06 fa3d 04f2 413d 0981 983d 93c6 a43c
00000060: a614 f7bd dafa f4bc 406d 91bd 3142 cfbd
00000070: e372 8fbd f124 303c d925 543d 97ae 553d
00000080: 7a29 093e c5c1 3a3e 64a0 fabd 9702 d5bd
00000090: e3ab a43d 4f4c 2abd bf3b 0c3e e595 8c3d
000000a0: 4127 44bd 2421 193e 4b90 41be 4d67 28be
000000b0: 2991 203e 8e48 693d 0338 763e 6c3e 0b3e
000000c0: b834 1bbe b0b2 e63d e420 63bc f63f bd3d
000000d0: d2b9 20bc 8d71 183e bd04 56be 5865 48bc
000000e0: 9173 563d d7e3 febd ec29 e23d 47ca 5cbe
000000f0: fa48 653e 8707 a6bc 4da7 9a3c 406a a9bd
00000100: 7719 92bd 9ee2 153e 7dcf 3e3d 4aac 3ebd
00000110: 4adb 16be 60fd 72be 737d 8abe 0b83 e83c
00000120: efc9 ecbd c7c5 22bd 0b18 81bb 39bc fc3d
00000130: e836 423e 612b 313c 214e f83d 303b 31be
00000140: 08d0 05be bd64 27bb 9c6e 8cbd 5bb2 57bd
00000150: 0ff8 85bd c3b3 83be de50 583d 418b eb3c
00000160: 3618 de3d 2bfd 39be 1915 d4bc 9b9b e1bd
00000170: 7c51 003e 4f9a 0abe 3f00 dd3d ffe5 0d3e
00000180: 44e8 68bd 4d2b 14bd c8f3 223c f5a3 bc3c
00000190: 67a5 a13c 4b11 a2bd a76a 3f3b da25 0abd
000001a0: 2817 bb3d 99c5 103d 7c92 2dbe 005b 473c
000001b0: dac8 6c3b 1f3e b93d 1b07 43bd ede7 80be
000001c0: 18f0 b93d e86a e7bd dada 37be 7e39 103e
000001d0: 75ed 533e 19e6 2abe bbe7 2e3e 1b36 89bc
000001e0: 07b4 1dbe 5c20 33be 32fd f1bd b59e f9bb
000001f0: 20ed 8c3d bc70 143c 16d8 05be b846 683e
00000200: 5727 503e 0440 093d 7c41 d4bd 474c 893d
00000210: 056c f0bd 5cf7 3b3e 50de 25be 354d 1abe
00000220: ee6a 563c dcf5 b5bd 3f73 82bd 34ab 58be
00000230: efb7 b33d 70f1 7a3c ec6f 433e 1a0e 41be
00000240: 1d7a 813d 95b7 7ebd 9779 48be 5a0c 803d
00000250: 6355 b33c c2bf 1fbd 83bb 6e3d f20b f73c
00000260: 5e02 1fbe c1e8 c3bd fe11 563d c2ba 823d
00000270: 5dd3 c3bd da79 683e 7edf 963c d770 1e3e
00000280: afd9 acbc a44b 183d f6e3 4bbd d71b 0b3c
00000290: c88e 9ebc 15ba d73d 78c7 4bbd c175 d6bd
000002a0: 09b5 0a3e 4084 93bd addc 8e3d 90b6 34bd
000002b0: 4e93 563e a0dd 33bd c917 22be da35 23be
000002c0: 224b 13be 4ada 853c 45ed 44bd 5dcf a03d
000002d0: b6e7 1bbe 4703 10be a2cf e9bd d28c 293e
000002e0: 1890 1fbd f920 1f3e dfcf 533e aa47 71bd
000002f0: 64e0 013e a116 9cbd d51c e7bd eca4 13be
00000300: e7e8 36be 3138 5d3d 76be a33d 3491 8ebd
00000310: 3f98 75bd 39ba 2c3e 9b27 113e 5e4d 5fbc
00000320: dd55 e33d 58ff c1bd 2aab 53be e4cf fbbd
00000330: 92a7 d43d 37c1 283e 98a1 15be 01e7 4ebe
00000340: c14d edbb 9536 9a3c af69 9f3c 398b 913d
00000350: 8d20 993d edd1 13bd 2fd8 c23c 6fb5 ba3d
00000360: a9c3 57bd d25a 46be 9007 a53a 6aba 09bd
00000370: 93e4 873d 08dc 90bd 997b 2bbe 50cc 253e
00000380: 964b 46bd cb10 80bd c2e5 74bd dd5c 2ebe
00000390: e16a 9e3b d555 b13d 6101 f2bd efbf 33be
000003a0: 3548 17be c7cd 373e 6159 073d 161d 9ebd
000003b0: 8081 b03d 4171 013e 5e5b dd3c ebd8 01bd
000003c0: e714 94bd 3202 e1bd 01d0 2cbe 52eb ddbc
000003d0: 59cf 85bd a364 ff3d 0f89 a53d 7cd0 293c
000003e0: 1278 013e faab 14be a5ac 203e df4d 2ebd
000003f0: 9f46 0d3c 26bd 373e 76cd 3bbe 6c87 c33d

lstm.weight_hh_l1 f4 [128, 32]
-0.12451544 -0.026109945 0.25170708 -0.025953468 -0.04017594 0.037865765 -0.057154357 -0.030754106
-0.10966618 0.16263607 -0.041078124 0.18628961 0.018173976 0.027270596 0.24592973 0.016350893
-0.11893853 0.13454399 0.0068085813 0.004061357 0.058025636 0.0015605475 -0.05910096 -0.1937916
-0.14021187 -0.18833989 0.1101681 0.047533322 0.071855 -0.09245893 -0.078741506 -0.033338953
-0.08990117 -0.12584324 0.045414954 0.0398715 -0.0013360528 0.1005833 -0.1281696 0.02203519
-0.12579662 0.028243927 -0.061046675 0.07027564 0.13040705 0.17956835 0.083166644 -0.046539776
-0.07231647 -0.101098835 -0.15060104 0.20176274 -0.24937809 0.013284219 -0.17322275 0.017077617
0.20071681 -0.009257371 -0.11832111 -0.034984753 0.07837977 0.09869952 0.0912782 -0.03295486
0.23946562 -0.11377975 -0.06235907 -0.06677667 0.09228362 0.07667763 0.15752079 0.10685553
0.10867656 0.06041847 -0.057874024 -0.0065507567 0.10675108 0.20191705 0.17353931 -0.092929095
-0.21010445 0.16023594 -0.10880242 0.078936644 0.16847259 -0.08027 -0.020492448 -0.028124185
-0.041294344 0.09880522 0.06566491 0.06077048 0.06024849 0.13079952 0.11892359 0.0683733
0.23826596 -0.08676035 -0.13051504 -0.1352467 0.031986088 -0.054166567 -0.2508041 -0.20378286
-0.0038625207 0.03695198 0.14019972 0.18899809 -0.22907849 -0.10458346 0.063187815 -0.1699385
-0.12611596 -0.03538012 -0.098428965 0.026592538 0.12040729 -0.14790852 0.25592595 0.08217924
-0.07214779 0.19663605 -0.26613745 -0.0126404455 0.011175333 0.19832784 -0.023712087 -0.100469865
0.20776846 -0.06816848 -0.1463118 -0.17495216 -0.03864414 -0.03569948 -0.12785149 0.06704708
0.032392774 -0.014796308 0.017321749 0.023829978 -0.11820032 -0.10322742 0.075212084 0.029471276
-0.22389482 0.25461376 -0.09955105 -0.21633826 -0.18513821 0.0005307163 0.057011425 -0.16025978
-0.048832394 0.10687313 -0.27868947 -0.028536966 -0.097681835 0.09101219 -0.038766492 -0.17366925
-0.05785234 0.029461639 -0.10855096 -0.067896165 -0.006648991 -0.061029557 -0.0013501085 -0.067382544
-0.19717386 0.0071568564 0.103320844 0.08962598 0.015330494 0.012865515 0.17772137 0.1186076
0.081040084 0.14089064 -0.014410436 -0.12587023 -0.15597387 0.043567862 -0.10443562 -0.13501094
-0.076743856 0.13872685 -0.07358463 0.009120562 -0.13850011 0.06922217 -0.06519372 -0.08576385
0.2058062 0.108121194 -0.17489158 -0.003318334 -0.07504999 -0.017693918 -0.015398422 -0.13263713
0.043827247 -0.008527852 0.13758075 -0.13100451 0.07583594 -0.09666019 -0.056319334 0.11162083
-0.0022718208 0.12560216 -0.06896223 -0.17800546 -0.046888597 -0.07141116 0.11417367 0.019630149
0.16518423 0.13354337 -0.094120614 -0.10448175 -0.18063113 0.06548249 -0.21353191 0.08764388
0.018631512 0.044321038 -0.17159063 0.0059124553 0.022506244 0.011279151 -0.06644816 -0.0920408
-0.04313217 -0.05973099 -0.09242876 -0.15635198 -0.18387939 -0.069017194 -0.03856121 -0.014929734
-0.14615543 -0.0044834903 0.08422538 -0.20493983 -0.115344234 0.18341039 -0.05292064 0.01191833
-0.17482957 0.09147421 -0.023836168 -0.07439267 -0.009740286 0.017278519 -0.153698 0.15032384
00000000: f301 ffbd 86e4 d5bc c0df 803e 5e9c d4bc
00000010: 878f 24bd 2219 1b3d b01a 6abd 09f0 fbbc
00000020: aa98 e0bd 128a 263e 8941 28bd b4c2 3e3e
00000030: 97e1 943c 9666 df3c 01d5 7b3e 4ff2 853c
00000040: 0b96 f3bd e6c5 093e 851a df3b 2215 853b
00000050: 4aac 6d3d 498b cc3a d913 72bd 4e71 46be
00000060: b393 0fbe 2cdc 40be d09f e13d 4db2 423d
00000070: b728 933d 1c5b bdbd 3a43 a1bd 6d8e 08bd
00000080: 1b1e b8bd 0ddd 00be 0805 3a3d 4c50 233d
00000090: 7e1e afba 9efe cd3d e43e 03be 2583 b43c
000000a0: d4d0 00be cf5f e73c 140c 7abd adec 8f3d
000000b0: 6d89 053e c4e0 373e 4653 aa3d 7ea0 3ebd
000000c0: a81a 94bd e80c cfbd 2937 1abe e49a 4e3e
000000d0: f85c 7fbe 0ea6 593c 4e61 31be 5ce6 8b3c
000000e0: b588 4d3e 3aac 17bc 5752 f2bd 2c4c 0fbd
000000f0: 9385 a03d f922 ca3d 11f0 ba3d adfb 06bd
00000100: 7a36 753e 5c05 e9bd 396c 7fbd 35c2 88bd
00000110: 32ff bc3d 2909 9d3d 214d 213e 12d7 da3d
00000120: d191 de3d 5c79 773d 500d 6dbd bba7 d6bb
00000130: 4fa0 da3d 58c3 4e3e 4ab4 313e 9c51 bebd
00000140: 9f25 57be e414 243e ced3 debd 89a9 a13d
00000150: 1484 2c3e 9964 a4bd c7df a7bc b164 e6bc
00000160: 4224 29bd 645a ca3d 537b 863d 78ea 783d
00000170: 1fc7 763d 4ff0 053e 368e f33d 4d07 8c3d
00000180: fefb 733e 69af b1bd bca5 05be 1c7e 0abe
00000190: d803 033d c3dd 5dbd 6569 80be 74ac 50be
000001a0: 5822 7dbb f65a 173d 8490 0f3e b788 413e
000001b0: 8d93 6abe da2f d6bd 9d68 813d 5c04 2ebe
000001c0: 8b24 01be bfea 10bd 2095 c9bd 98d8 d93c
000001d0: 1998 f63d 5575 17be ba08 833e 974d a83d
000001e0: 38c2 93bd f65a 493e 2b43 88be df19 4fbc
000001f0: be18 373c 7416 4b3e da3f c2bc 25c3 cdbd
00000200: 41c1 543e eb9b 8bbd c3d2 15be a926 33be
00000210: 5149 1ebd 9e39 12bd 80eb 02be fb4f 893d
00000220: 49ae 043d 376c 72bc 57e6 8d3c 1637 c33c
00000230: 0213 f2bd e668 d3bd cb08 9a3d bf6d f13c
00000240: af44 65be bc5c 823e 6ce1 cbbd c787 5dbe
00000250: df94 3dbe c51f 0b3a d084 693d 241b 24be
00000260: 7a04 48bd 4de0 da3d 63b0 8ebe 5bc6 e9bc
00000270: 6a0d c8bd 9964 ba3d 9dc9 1ebd 5ad6 31be
00000280: 93f6 6cbd 8959 f13c f74f debd 250d 8bbd
00000290: c7df d9bb 21fa 79bd 20f6 b0ba dcff 89bd
000002a0: f2e7 49be 1084 ea3b e199 d33d d38d b73d
000002b0: c12c 7b3c e2c9 523c 97fc 353e 8be8 f23d
000002c0: 58f8 a53d a345 103e c019 6cbc 20e4 00be
000002d0: 9db7 1fbe 3774 323d 58e2 d5bd 4f40 0abe
000002e0: e22b 9dbd 690e 0e3e 8ab3 96bd 696e 153c
000002f0: f9d2 0dbe 5ac4 8d3d 4984 85bd f5a4 afbd
00000300: dcbe 523e a56e dd3d c716 33be 6878 59bb
00000310: cfb3 99bd d6f2 90bc aa49 7cbc 07d2 07be
00000320: 3384 333d 67b8 0bbc f8e1 0c3e 0c26 06be
00000330: e04f 9b3d c7f5 c5bd 1aaf 66bd 7699 e43d
00000340: d4e2 14bb da9d 003e 123c 8dbd 1047 36be
00000350: 420e 40bd 0440 92bd e3d3 e93d 68cf a03c
00000360: 0e26 293e 98bf 083e 4fc2 c0bd 87fa d5bd
00000370: 5ef7 38be af1b 863d 1ca8 5abe a27e b33d
00000380: 1da1 983c fa89 353d 74b5 2fbe 45bd c13b
00000390: 045f b83c 30cc 383c f915 88bd e37f bcbd
000003a0: 5cab 30bd 7ca8 74bd 4a4b bdbd bc1a 20be
000003b0: e14a 3cbe e358 8dbd 5cf2 1dbd d89b 74bc
000003c0: c5a9 15be 3eea 92bb 5b7e ac3d bfdb 51be
000003d0: 9939 ecbd efcf 3b3e 50c3 58bd 1945 433c
000003e0: 8606 33be d556 bb3d 1144 c3bc 2f5b 98bd
000003f0: b895 1fbc ae8b 8d3c 0263 1dbe 7eee 193e

lstm.bias_ih_l1 f4 [128]
-0.114698224 0.025421802 -0.024815006 -0.03279877 0.2203446 0.20067632 0.13389687 0.08650534
-0.0325667 0.19058682 0.17407772 0.19605057 0.15367997 -0.10431538 0.09106828 -0.11150842
-0.10427825 0.0066445554 -0.2488845 0.21522401 0.19977443 -0.06235473 0.14991114 -0.02102502
-0.1002471 0.10297756 0.19214107 0.076471895 -0.07809796 0.21475899 0.014086916 -0.09661548
0.055222705 -0.009384288 0.014039124 0.27538627 -0.0232536 -0.025286071 0.218267 0.114113756
0.06587137 0.1658131 -0.09850079 0.078214705 0.021154812 0.07094636 0.16800188 0.09168819
0.20364979 0.1455328 -0.033468217 0.16390747 0.097513065 -0.1288478 0.030725103 0.09029235
0.05616986 0.08723085 0.17767365 -0.04318497 0.089998886 0.11439118 0.19596098 -0.1027871
0.0072760805 -0.039343942 -0.17357817 -0.15444613 0.07126536 -0.05713487 0.008945175 -0.22723952
0.09756131 -0.156303 -0.016773025 -0.037570555 -0.23684753 -0.11899788 0.01186777 0.042338833
0.051210787 -0.1568643 -0.18482722 -0.16823682 -0.025850276 0.033431843 0.20548947 0.09798968
0.12835613 0.15217438 -0.0805715 0.059451286 -0.23034272 -0.047499023 -0.22266021 -0.17112114
-0.04716348 -0.17850861 0.04213839 0.12590201 0.17292508 -0.028872909 0.030804383 0.14206807
0.13770412 0.111004874 0.21193118 -0.0970821 0.085621566 -0.019556833 -0.026434036 -0.02068602
-0.00010722712 0.002152567 -0.07036357 -0.11303914 -0.009252832 -0.054068577 -0.07435899 0.20821488
-0.08959305 0.014722256 0.11534228 0.101674974 0.14054738 -0.085429676 -0.16119061 -0.05731632
00000000: e7e6 eabd 6241 d03c d748 cbbc 0158 06bd
00000010: 04a2 613e 187e 4d3e 431c 093e b629 b13d
00000020: a964 05bd 3129 433e 6e41 323e 7bc1 483e
00000030: 485e 1d3e 4da3 d5bd 0282 ba3d 875e e4bd
00000040: d68f d5bd 92ba d93b 94db 7ebe af63 5c3e
00000050: ab91 4c3e ac67 7fbd 4e82 193e aa3c acbc
00000060: 5a4e cdbd e6e5 d23d a1c0 443e 4c9d 9c3d
00000070: d3f1 9fbd c8e9 5b3e cfcc 663c 56de c5bd
00000080: 3431 623d 8fc0 19bc 5b04 663c 6eff 8c3e
00000090: 557e bebc bc24 cfbc 6281 5f3e 79b4 e93d
000000a0: 92e7 863d e9ca 293e c8ba c9bd 082f a03d
000000b0: db4c ad3c 534c 913d af08 2c3e 05c7 bb3d
000000c0: 9289 503e 8d06 153e f815 09bd 5cd7 273e
000000d0: eeb4 c73d adf0 03be 36b3 fb3c 32eb b83d
000000e0: 5e12 663d 16a6 b23d 15f0 353e b9e2 30bd
000000f0: 5651 b83d ec45 ea3d ffa9 483e 0b82 d2bd
00000100: 306c ee3b 1d27 21bd 7abe 31be 2027 1ebe
00000110: 93f3 913d 4106 6abd c98e 123c 7ab1 68be
00000120: 39ce c73d e50d 20be 9567 89bc 95e3 19bd
00000130: 2988 72be 29b5 f3bd 0971 423c 7c6b 2d3d
00000140: 67c2 513d 09a1 20be 5943 3dbe 4646 2cbe
00000150: f5c3 d3bc d4ef 083d d56b 523e d0ae c83d
00000160: ca6f 033e 9ad3 1b3e ac02 a5bd 3183 733d
00000170: f6de 6bbe 568e 42bd 0a01 64be 613a 2fbe
00000180: 7e2e 41bd f6ca 36be 4e99 2c3d 75ec 003e
00000190: 4613 313e e186 ecbc 7959 fc3c 4b7a 113e
000001a0: 4f02 0d3e 8656 e33d 7d04 593e fbd2 c6bd
000001b0: 5c5a af3d a735 a0bc 318c d8bc ba75 a9bc
000001c0: 1fdf e0b8 1512 0d3b c61a 90bd 1181 e7bd
000001d0: 3199 17bc 0377 5dbd 8749 98bd 4836 553e
000001e0: 907c b7bd 9e35 713c 9338 ec3d f83a d03d
000001f0: a7eb 0f3e c1f5 aebd 270f 25be 84c4 6abd

lstm.bias_hh_l1 f4 [128]
0.04274147 0.09767296 -0.08720571 0.24927199 -0.0036439095 -0.08177631 0.13713045 -0.09754524
0.20634048 0.038427033 0.035954434 0.20914505 0.072915 -0.2202477 0.097108915 -0.16678366
-0.038718034 -0.036126364 -0.18764149 -0.07640518 0.08259896 -0.02325422 0.16125897 -0.08620135
0.023756566 0.066224396 0.09450655 0.23499532 0.06994813 0.14869809 -0.026659572 0.085081995
0.061627507 -0.10145515 0.027030516 0.20995279 0.09449277 0.09836448 0.20817178 -0.009806681
0.019074041 0.013142005 0.08506419 0.13778864 0.04758498 -0.09781917 -0.121790275 -0.14710611
-0.061286625 -0.027508684 0.026682517 0.19489792 -0.05390096 0.0014036453 0.08029376 -0.119017765
0.09742005 0.08156419 0.24292237 0.14209434 -0.053227387 0.19336794 -0.07099053 -0.03643339
0.057891533 -0.11971647 -0.081881456 -0.009088531 -0.013655729 0.1666985 0.06285088 -0.03563966
0.03821207 -0.032700982 0.029448241 0.16291702 -0.04024148 -0.0112363845 0.10592167 -0.058583327
-0.060399573 0.05530151 0.030880505 0.06269034 0.046976242 0.039916497 0.08164992 -0.07867536
0.041359756 0.123242676 -0.113828406 0.015811764 0.059996087 0.04560727 -0.031607788 0.07188263
-0.016797487 0.15100488 0.25390074 -0.0872603 0.2037707 0.05316624 0.17125523 0.13475485
-0.07161767 0.101592794 -0.05678552 0.15266973 0.1968833 -0.26659286 0.093194604 -0.071508996
0.19543903 -0.0669655 -0.03807243 -0.030396575 0.011194305 -0.1327342 0.118142135 0.14271487
0.033580482 -0.007415729 0.14198509 -0.105612755 -0.14340703 -0.052501284 0.039113533 0.17527851
00000000: ae11 2f3d c308 c83d e898 b2bd 2841 7f3e
00000010: a8ce 6ebb 577a a7bd ed6b 0c3e ccc5 c7bd
00000020: eb4a 533e aa65 1d3d f544 133d 1f2a 563e
00000030: 7654 953d 9d88 61be 0ae1 c63d 56c9 2abe
00000040: cd96 1ebd 3df9 13bd 1725 40be 527a 9cbd
00000050: a529 a93d a27f bebc 1221 253e 558a b0bd
00000060: 219d c23c a8a0 873d a68c c13d 9da2 703e
00000070: f740 8f3d 5044 183e 2d65 dabc 783f ae3d
00000080: 206d 7c3d b8c7 cfbd 1a6f dd3c ddfd 563e
00000090: 6d85 c13d 5173 c93d fc2a 553e 34ac 20bc
000000a0: 2a41 9c3c 9051 573c 2236 ae3d 7718 0d3e
000000b0: 78e8 423d 6b55 c8bd 2e6d f9bd fca2 16be
000000c0: af07 7bbd e459 e1bc 4b95 da3c 5293 473e
000000d0: 41c7 5cbd 85fa b73a 0e71 a43d 96bf f3bd
000000e0: 2a84 c73d 200b a73d a4c0 783e 2e81 113e
000000f0: f604 5abd 3f02 463e 7c63 91bd 2e3b 15bd
00000100: ac1f 6d3d e92d f5bd 77b1 a7bd 10e8 14bc
00000110: 47bc 5fbc 03b3 2a3e f6b7 803d e4fa 11bd
00000120: 4284 1c3d 77f1 05bd 703d f13c b8d3 263e
00000130: 40d4 24bd d018 38bc 76ed d83d 12f5 6fbd
00000140: 8b65 77bd d683 623d 1df9 fc3c cb63 803d
00000150: 296a 403d 7b7f 233d 1338 a73d 8c20 a1bd
00000160: d968 293d a866 fc3d de1e e9bd ac87 813c
00000170: 75be 753d b0ce 3a3d 2b77 01bd 3337 933d
00000180: e29a 89bc 06a1 1a3e 47ff 813e 87b5 b2bd
00000190: 44a9 503e d8c4 593d 885d 2f3e 2dfd 093e
000001a0: 49ac 92bd e20f d03d ef97 68bd 7455 1c3e
000001b0: c79b 493e dc7e 88be d0dc be3d 4f73 92bd
000001c0: 2b21 483e 3525 89bd d6f1 1bbd 3d02 f9bc
000001d0: 5168 373c 79eb 07be 81f4 f13d d923 123e
000001e0: b08b 093d a5ff f2bb 8a64 113e 804b d8bd
000001f0: 4bd9 12be 960b 57bd 8335 203d 367c 333e

bn.weight f4 [32]
1.0092958 1.0258352 1.037905 1.0401711 1.0003896 1.0658859 1.0344175 0.99054384
1.024332 1.051899 1.0257281 1.04063 1.0155439 1.0480311 1.0079913 1.0257257
1.0107863 1.0350417 1.04034 1.0227972 0.9972196 1.0499909 0.9913187 1.0173274
1.0494965 0.9942291 1.0133135 1.0128851 1.0039809 1.0347778 1.0175377 0.9941478
00000000: 9b30 813f 914e 833f 12da 843f 5424 853f
00000010: c40c 803f f36e 883f cb67 843f 4894 7d3f
00000020: 501d 833f a0a4 863f 0f4b 833f 5d33 853f
00000030: 58fd 813f e225 863f dc05 813f fb4a 833f
00000040: 7261 813f 3f7c 843f dc29 853f 05eb 823f
00000050: c949 7f3f 1a66 863f 10c7 7d3f c937 823f
00000060: e755 863f cc85 7e3f 42b4 813f 38a6 813f
00000070: 7282 803f 9973 843f ad3e 823f 7880 7e3f

bn.bias f4 [32]
-0.14537105 0.18006867 -0.21410225 -0.2711617 0.017384678 0.042850334 -0.25635776 -0.19195858
-0.2878112 -0.019756544 -0.09316596 0.20223461 -0.35949832 -0.27055514 -0.081235446 -0.2489073
-0.18484494 0.116367646 0.26134294 0.2834927 -0.08789184 -0.15388796 0.029909655 0.013676138
-0.012744598 0.16817571 -0.2648756 0.24652891 -0.21373437 0.23127192 -0.045825463 -0.32197478
00000000: 26dc 14be ec63 383e 9f3d 5bbe b5d5 8abe
00000010: 506a 8e3c d583 2f3d 5341 83be ca90 44be
00000020: fd5b 93be 7ad8 a1bc cbcd bebd 9716 4f3e
00000030: 2a10 b8be 3486 8abe c55e a6bd 8ee1 7ebe
00000040: fe47 3dbe 2952 ee3d bece 853e f525 913e
00000050: a300 b4bd ce94 1dbe 1805 f53c e111 603c
00000060: b8ce 50bc 4136 2c3e c69d 87be 1372 7c3e
00000070: 2fdd 5abe 8cd2 6c3e 7bb3 3bbd e1d9 a4be

bn.running_mean f4 [32]
0.15709825 -0.09343417 -0.284344 -0.48226714 0.65626866 0.23488675 -0.32684296 -0.43799758
-0.551759 -0.19448423 -0.14844798 0.18392497 -0.5122456 0.016519172 0.09211683 0.018952327
-0.41226006 0.14663771 -0.0347025 -0.45962888 -0.21339251 -0.14208585 0.30749056 0.0026377563
0.06537292 0.3983049 -0.61547315 0.38337138 -0.43080845 0.34991544 -0.14871728 0.032482535
00000000: 5dde 203e 6a5a bfbd 8995 91be b8eb f6be
00000010: 3901 283f 2786 703e f657 a7be 3841 e0be
00000020: 1440 0dbf e026 47be bf02 18be d456 3c3e
00000030: 8722 03bf 3753 873c c0a7 bc3d e941 9b3c
00000040: c013 d3be 3228 163e 3524 0ebd 7a54 ebbe
00000050: 9183 5abe f47e 11be 676f 9d3e 35de 2c3b
00000060: 3de2 853d 9fee cb3e a68f 1dbf 4149 c43e
00000070: ed92 dcbe 1e28 b33e 5849 18be 680c 053d

bn.running_var f4 [32]
0.045595087 0.041969206 0.07325094 0.061066747 0.09131672 0.040951308 0.043573435 0.061804436
0.035074458 0.15890583 0.21457545 0.12657095 0.01252308 0.0051022954 0.048668087 0.015499067
0.14671332 0.19214545 0.009665446 0.008168438 0.36031005 0.081941396 0.036583062 0.025623694
0.051056493 0.053333867 0.019782037 0.09202635 0.04675896 0.01777902 0.022264332 0.032470156
00000000: eac1 3a3d e7e7 2b3d 9704 963d 2021 7a3d
00000010: 4304 bb3d 8fbc 273d 0f7a 323d a626 7d3d
00000020: 3caa 0f3d 36b8 223e abb9 5b3e d19b 013e
00000030: 9b2d 4d3c 2831 a73b 3058 473d ccef 7d3c
00000040: 043c 163e c7c1 443e d25b 1e3c ead4 053c
00000050: 8f7a b83e e4d0 a73d 1fd8 153d c8e8 d13c
00000060: 9d20 513d 9d74 5a3d f00d a23c 5078 bc3d
00000070: 5386 3f3d 4fa5 913c b063 b63c 6dff 043d

fc.0.weight f4 [32, 32]
0.060649313 -0.16715564 0.03232048 -0.08511923 0.19457047 0.042510778 -0.21267392 -0.21776982
-0.062594354 0.18520012 0.09510261 0.094035424 -0.25497517 -0.18538971 0.21323222 -0.051054027
-0.19404437 -0.0034333935 0.081895724 -0.19968234 -0.16254133 -0.03751208 0.09189098 0.19671229
-0.17372783 -0.04507307 -0.22337739 0.0092696 -0.07502378 0.12427296 0.022588657 0.13243176
0.10534808 0.074066915 -0.12135687 -0.077733524 0.10015345 0.050163995 -0.11640246 0.09882872
-0.15857105 0.036479294 0.18783428 0.14609584 0.042744182 0.11863574 0.14708582 0.16312759
-0.035666794 0.23249872 -0.08091662 -0.15922675 -0.05967937 0.018628811 0.13458325 -0.05309924
-0.026156142 -0.15970008 -0.14935385 0.028670084 0.011311185 0.21946697 0.17752135 -0.18517242
0.089938216 0.07225383 0.08272154 -0.17277645 0.08535573 -0.02378281 -0.048704576 -0.1335782
-0.2427389 -0.10041803 -0.06418793 0.016955534 -0.12680493 -0.28836706 -0.08275668 -0.1122699
-0.15884806 -0.15760519 0.26750916 0.11278395 -0.1200038 0.11404883 0.026581801 0.23516144
0.10750469 0.1847091 -0.24259253 0.15712257 -0.1053146 0.032022208 0.13564345 -0.017877461
0.07308454 -0.13609578 -0.09156179 0.143679 0.005995144 0.090316735 -0.004232918 -0.095296316
0.031359527 0.11528789 0.19901761 0.035598148 -0.1311362 -0.16585411 0.10203748 -0.044694047
-0.056841865 0.21289319 0.17729819 0.12023072 -0.21932046 -0.008146356 0.1422985 -0.1365161
0.14362009 0.0073682256 -0.0015596225 -0.0903391 0.09280406 0.18611178 0.12530681 0.21409781
0.0034827557 -0.037031114 0.18180965 -0.18868086 -0.010444301 -0.051502418 -0.25546592 -0.062228296
-0.046267394 -0.110362895 0.20132138 0.09734037 -0.024572171 0.023134613 0.09680092 0.0741306
-0.07350368 0.18324342 -0.05518271 0.22928785 0.028610941 -0.11359665 -0.04167907 -0.06540833
0.036826782 -0.13764498 0.0010942089 -0.031078424 -0.0027573067 0.24420553 0.084954426 -0.0013393259
-0.004792889 0.0847752 -0.10214174 -0.21702015 0.16485113 -0.16273272 0.042856622 -0.15710591
-0.1885193 -0.2327721 -0.24321182 0.05976578 -0.11753834 -0.04192383 -0.23673163 -0.17672193
-0.16531974 -0.08097814 0.0066373493 -0.17085053 0.08441256 0.07242249 -0.073993765 -0.08054754
-0.25465885 0.14720248 -0.0035247086 0.05707367 0.053291105 -0.057002638 0.0021918118 -0.0596626
-0.195344 -0.08954932 -0.21708007 0.05627301 0.10280102 0.0026352862 -0.07272303 -0.21556623
0.11612606 0.10161731 0.061301135 -0.14848666 -0.14298356 -0.19370775 -0.032221343 -0.24455084
-0.00056582235 -0.044687245 0.21859547 0.18964301 -0.053416193 -0.097695194 -0.15644231 0.04218849
-0.08095334 0.10963564 -0.011058635 0.25176024 -0.17388333 -0.09717154 -0.1348594 -0.024789639
0.00079987606 -0.13813093 -0.1731909 0.0007675416 0.220787 0.13316219 -0.26351944 0.12326236
-0.2607381 -0.111933075 -0.08412671 0.07076131 -0.042875867 -0.22323099 -0.0119336005 -0.117247686
0.09786234 0.06684124 -0.015392751 -0.006139496 -0.20871538 -0.20093045 -0.032674138 0.019061008
0.057496376 -0.12945919 -0.09323084 0.103837095 -0.05368922 0.08066458 -0.061479207 -0.09307891
00000000: 6a6b 783d d92a 2bbe 7b62 043d fe52 aebd
00000010: 7b3d 473e c81f 2e3d 31c7 59be 0dff 5ebe
00000020: 7831 80bd 1aa5 3d3e 28c5 c23d a595 c03d
00000030: 1b8c 82be cdd6 3dbe 8c59 5a3e 071e 51bd
00000040: 91b3 46be c902 61bb f2b8 a73d 8779 4cbe
00000050: 3c71 26be 44a6 19bd 5731 bc3d f26e 493e
00000060: b5e5 31be 8a9e 38bd 0bbd 64be 85df 173c
00000070: 11a6 99bd d282 fe3d d90b b93c 319c 073e
00000080: bcc0 d73d 65b0 973d f389 f8bd c132 9fbd
00000090: 411d cd3d c378 4d3d 6a64 eebd b666 ca3d
000000a0: 7360 22be 506b 153d a157 403e 269a 153e
000000b0: 8614 2f3d 4bf7 f23d aa9d 163e eb0a 273e
000000c0: 5817 12bd 2514 6e3e 9db7 a5bd 560c 23be
000000d0: 5b72 74bd 739b 983c 31d0 093e 977e 59bd
000000e0: 6845 d6bc 6b88 23be 37f0 18be 86dd ea3c
000000f0: 8c52 393c f3bb 603e 28c8 353e d79d 3dbe
00000100: 8731 b83d d1f9 933d e969 a93d 4fec 30be
00000110: fcce ae3d 2bd4 c2bc 737e 47bd b9c8 08be
00000120: 8c90 78be f8a7 cdbd f674 83bd 55e6 8a3c
00000130: 27d9 01be d9a4 93be 567c a9bd c3ed e5bd
00000140: 11a9 22be 4163 21be f6f6 883e 46fb e63d
00000150: 8dc4 f5bd 6f92 e93d 14c2 d93c 29ce 703e
00000160: 6b2b dc3d 6224 3d3e 2d6a 78be bde4 203e
00000170: 2eaf d7bd b829 033d 1ee6 0a3e c173 92bc
00000180: 59ad 953d b15c 0bbe bf84 bbbd 9620 133e
00000190: ea72 c43b fbf7 b83d 4ab4 8abb b72a c3bd
000001a0: d972 003d 0f1c ec3d 46cb 4b3e 5dcf 113d
000001b0: 9148 06be a9d5 29be 07f9 d03d 1b11 37bd
000001c0: 04d3 68bd ac00 5a3e a88d 353e 863b f63d
000001d0: 8b95 60be 4b78 05bc b3b6 113e e0ca 0bbe
000001e0: 2511 133e 2871 f13b 3f6c ccba b503 b9bd
000001f0: 0e10 be3d 1694 3e3e 6e50 003e 753c 5b3e
00000200: f23e 643b f0ad 17bd 4f2c 3a3e 8e35 41be
00000210: 931e 2bbc 33f4 52bd 6ecc 82be 19e3 7ebd
00000220: e182 3dbd f105 e2bd 3127 4e3e 635a c73d
00000230: 944b c9bc cd84 bd3c 903f c63d c9d1 973d
00000240: 1989 96bd 2aa4 3b3e 4407 62bd 6fca 6a3e
00000250: 7e61 ea3c 5ca5 e8bd acb7 2abd cdf4 85bd
00000260: aed7 163d cef2 0cbe 8f6b 8f3a 2e98 febc
00000270: eeb3 34bb 0411 7a3e 96fc ad3d 528c afba
00000280: ab0d 9dbb 9f9e ad3d b02f d1bd 883a 5ebe
00000290: bcce 283e 68a3 26be 6d8a 2f3d 5fe0 20be
000002a0: 340b 41be cf5b 6ebe 850c 79be f6cc 743d
000002b0: f1b7 f0bd 52b8 2bbd c769 72be 98f6 34be
000002c0: 9449 29be ded7 a5bd 1f7e d93b 71f3 2ebe
000002d0: 7ee0 ac3d 3e52 943d 0b8a 97bd 1cf6 a4bd
000002e0: a562 82be 3fbc 163e ccfe 66bb 15c6 693d
000002f0: c647 5a3d 997b 69bd 80a4 0f3b c560 74bd
00000300: 4208 48be a265 b7bd 3d4a 5ebe 877e 663d
00000310: 5789 d23d c4b4 2c3b d0ef 94bd 65bd 5cbe
00000320: 80d3 ed3d bc1c d03d e616 7b3d e30c 18be
00000330: 486a 12be 535b 46be 87fa 03bd 896b 7abe
00000340: b253 14ba f909 37bd 7ed7 5f3e c731 423e
00000350: f0ca 5abd 6b14 c8bd 6a32 20be d7cd 2c3d
00000360: ddca a5bd a788 e03d 472f 35bc b8e6 803e
00000370: 790e 32be df01 c7bd 9518 0abe a413 cbbc
00000380: c6ae 513a 3272 0dbe f558 31be d834 493a
00000390: fd15 623e ab5b 083e 05ec 86be fa70 fc3d
000003a0: 777f 85be 2b3d e5bd a04a acbd 4eeb 903d
000003b0: 9b9e 2fbd aa96 64be 2685 43bc 8e1f f0bd
000003c0: 0d6c c83d 0fe4 883d e131 7cbc d32d c9bb
000003d0: 7cb9 55be b6c0 4dbe 51d5 05bd d525 9c3c
000003e0: 5281 6b3d f390 04be d0ef bebd 8ba8 d43d
000003f0: 3ae9 5bbd 7933 a53d 9fd1 7bbd 28a0 bebd

fc.0.bias f4 [32]
0.28519934 0.16939755 0.23753625 0.19297779 0.1453347 0.30872765 0.47318286 0.2612891
0.11948175 0.2513164 0.21321853 0.31360143 0.10456479 0.6155811 0.33639428 0.4620032
0.3535928 0.33816093 0.12183447 0.18178852 0.095614575 0.48499352 0.49593323 0.36609003
0.22395602 0.3900711 0.42946634 0.43949863 0.47788078 0.34488067 0.3128577 0.38975075
00000000: a605 923e 8d76 2d3e b43c 733e f89b 453e
00000010: 9fd2 143e 8d11 9e3e 0645 f23e afc7 853e
00000020: d9b2 f43d 8bac 803e f555 5a3e 5e90 a03e
00000030: 1126 d63d b996 1d3f df3b ac3e af8b ec3e
00000040: 1e0a b53e 6e23 ad3e 5a84 f93d c526 3a3e
00000050: 93d1 c33d 1251 f83e f6ea fd3e 2770 bb3e
00000060: ba54 653e 66b7 c73e 03e3 db3e f705 e13e
00000070: caac f43e 3394 b03e e22e a03e 698d c73e
