model/best-LSTM.pth (torch, 75550 bytes, 16 tensors)

lstm.weight_ih_l0 f4 [128, 8]
-0.022160696 0.12246117 -0.09728961 0.12800513 -0.105833784 0.07032108 0.1855427 0.028755764
0.26570335 0.24662252 0.11703215 -0.04505688 0.03973495 0.10763674 0.024452254 -0.093487024
0.100420535 -0.14566109 0.1442026 -0.059482038 0.1821738 -0.05247494 -0.13103184 0.14806992
-0.018203992 0.1111915 -0.044052213 -0.03596939 0.03241546 -0.024896562 -0.012239992 -0.18534046
-0.075094774 -0.109152816 -0.14054392 -0.13259862 0.121621385 0.13066784 -0.12238019 -0.148807
0.08861381 -0.012423207 -0.07569161 0.10791026 0.08470001 0.03096821 -0.15260898 -0.12259336
-0.09346909 -0.06812381 -0.08238041 0.0021921396 -0.0033394764 -0.14083965 -0.053409055 0.17657268
0.20340733 0.051724967 0.013350507 -0.093642734 0.13117634 0.058062844 -0.052633394 0.039356925
0.09653277 -0.021473546 0.062055208 -0.02965562 -0.06615044 -0.033654425 -0.081499904 0.11855786
0.04107257 0.020563338 -0.21222442 0.14430426 0.03983737 -0.0646951 0.15303928 0.056449737
-0.1497684 0.015651323 0.10814767 0.103222296 0.063966624 0.09880581 -0.05842547 0.08335056
-0.10883077 0.075501196 -0.17034881 0.1187271 0.11282277 0.04101672 0.043927368 -0.14553829
-0.050017633 0.10899856 0.09903298 0.071603954 0.13287365 -0.14420034 -0.20300551 -0.16255793
-0.036199737 0.08557172 0.05764862 0.064165756 -0.030541623 -0.08796029 -0.10742135 -0.078562975
-0.113677435 -0.032326844 0.12975088 0.13671134 -0.020896174 -0.047691334 -0.10145274 -0.116682895
0.20273599 0.15795106 -0.03214034 -0.08212364 -0.035916284 -0.10443557 0.05024898 -0.06523534
0.050563134 0.18186416 0.15609126 0.050916076 -0.17439538 0.023679286 -0.108844034 -0.088647544
0.006282827 -0.09314233 0.13954113 -0.16008659 -0.09415645 -0.13150299 0.07932758 -0.113758
0.048910234 -0.08406622 0.15712814 -0.09888152 -0.08489207 0.1178829 0.13206716 -0.016851487
0.018426139 0.1310742 -0.037482087 -0.054293714 0.1936496 0.09665008 0.13527468 -0.050698277
-0.14369391 0.013473487 -0.04209583 0.0015884787 0.005383556 -0.0269642 0.007853375 -0.05159526
-0.13141082 -0.12536146 0.14748769 0.0122924 0.14780141 -0.11307255 0.15288003 0.061268467
0.14806114 -0.03271003 -0.038998738 0.13221224 -0.10230835 -0.17065072 0.08423074 -0.07674002
0.09311874 0.11248609 0.029334381 0.08074604 0.01333038 0.058347445 -0.19322078 0.08246578
0.118444905 0.11408289 0.0141704455 0.13238005 0.106374174 -0.07228458 0.10096551 -0.19880281
0.12723581 -0.15246993 0.13004139 0.08294307 -0.029283697 0.029212702 -0.14385965 -0.09125691
0.062206265 -0.04481479 -0.027215887 0.01041308 0.0019767764 0.06589779 0.05910968 -0.14629582
-0.102246664 0.096978255 0.09262895 0.045263678 0.036822654 0.1394905 0.060225017 -0.13069282
0.083698146 0.1314682 -0.14773832 0.07215509 0.08544386 0.11029582 -0.072688356 0.047998063
0.031490292 0.060197297 0.13972966 -0.03424786 -0.10108201 -0.0614034 -0.08626177 0.07164077
-0.08208235 -0.017738668 -0.10369304 0.066452086 0.037698105 0.013102563 0.1155054 0.058724776
-0.08540305 0.08702629 0.10111684 0.17126255 -0.027574578 0.024028316 0.12944944 0.070313714
00000000: 598a b5bc eccc fa3d c63f c7bd c713 033e
00000010: 62bf d8bd 8004 903d e8fe 3d3e 3591 eb3c
00000020: 450a 883e 9d8a 7c3e 8dae ef3d 908d 38bd
00000030: 1dc1 223d a770 dc3d 1850 c83c 2076 bfbd
00000040: 48a9 cd3d 2e28 15be d9a9 133e 70a3 73bd
00000050: c58b 3a3e f6ef 56bd 362d 06be a49f 173e
00000060: 8a20 95bc 5fb8 e33d 1870 34bd a454 13bd
00000070: 13c6 043d e0f3 cbbc 3f8a 48bc e4c9 3dbe
00000080: 4acb 99bd 838b dfbd bfea 0fbe efc7 07be
00000090: a214 f93d cacd 053e 77a2 fabd dd60 18be
000000a0: 287b b53d b58a 4bbc 3404 9bbd 0e00 dd3d
000000b0: 3377 ad3d 0bb1 fd3c 8745 1cbe 3a12 fbbd
000000c0: b96c bfbd 7f84 8bbd 0fb7 a8bd 00aa 0f3b
000000d0: 1edb 5abb 4538 10be 74c3 5abd 78cf 343e
000000e0: 034a 503e 8fdd 533d 16bc 5a3c c3c7 bfbd
000000f0: 1753 063e 4ed3 6d3d 1d96 57bd ba34 213d
00000100: f9b2 c53d 4ae9 afbc 9a2d 7e3d 58f0 f2bc
00000110: e279 87bd 39d9 09bd 6ce9 a6bd 77ce f23d
00000120: b63b 283d 7274 a83c 5c51 59be 7fc4 133e
00000130: 832c 233d dd7e 84bd 54b6 1c3e d737 673d
00000140: e35c 19be 3437 803c 877c dd3d 3666 d33d
00000150: ef00 833d b35a ca3d 8c4f 6fbd b3b3 aa3d
00000160: abe2 debd 5fa0 9a3d eb6f 2ebe 3227 f33d
00000170: a00f e73d 2601 283d 2fed 333d fd07 15be
00000180: 4adf 4cbd a33a df3d ced1 ca3d 18a5 923d
00000190: 0810 083e 41a9 13be ade0 4fbe 9675 26be
000001a0: 2d46 14bd 3a40 af3d f620 6c3d 5669 833d
000001b0: 6d32 fabc 8624 b4bd baff dbbd a0e5 a0bd
000001c0: b7cf e8bd 2769 04bd 6add 043e 0ffe 0b3e
000001d0: 742e abbc fd57 43bd 74c6 cfbd 71f7 eebd
000001e0: 069a 4f3e ecbd 213e 97a5 03bd 7030 a8bd
000001f0: f41c 13bd 51e2 d5bd e0d1 4d3d 1b9a 85bd
00000200: 4a1b 4f3d 993a 3a3e 63d6 1f3e 608d 503d
00000210: b494 32be 10fb c13c 9fe9 debd d88c b5bd
00000220: 2ce0 cd3b 68c1 bebd dfe3 0e3e bded 23be
00000230: 19d5 c0bd b8a8 06be 8076 a23d f4f9 e8bd
00000240: 1956 483d e92a acbd 33e6 203e 6582 cabd
00000250: e5db adbd 976c f13d 9d3c 073e 210c 8abc
00000260: 6af2 963c 5138 063e d186 19bd 1663 5ebd
00000270: 154c 463e 7af0 c53d 7285 0a3e ffa8 4fbd
00000280: 7f24 13be e7bf 5c3c ad6c 2cbd 8034 d03a
00000290: 8a68 b03b 07e4 dcbc 71ab 003c 8d55 53bd
000002a0: 8f90 06be c15e 00be 0307 173e 1066 493c
000002b0: 4159 173e 9592 e7bd 958c 1c3e a5f4 7a3d
000002c0: 579d 173e f4fa 05bd 24bd 1fbd a562 073e
000002d0: 0a87 d1bd 10bf 2ebe 2b81 ac3d df29 9dbd
000002e0: 0ab5 be3d 1b5f e63d a84e f03c 2e5e a53d
000002f0: ab67 5a3c bbfd 6e3d abdb 45be d2e3 a83d
00000300: 3e93 f23d 4aa4 e93d 282b 683c a38e 073e
00000310: b4da d93d f009 94bd 01c7 ce3d f792 4bbe
00000320: 1b4a 023e 1421 1cbe 9229 053e 0ede a93d
00000330: 5de4 efbc 7a4f ef3c f24f 13be e7e4 babd
00000340: ffcb 7e3d b78f 37bd daf3 debc a09b 2a3c
00000350: ce8c 013b 6cf5 863d fe1c 723d 92ce 15be
00000360: b366 d1bd 899c c63d 3fb4 bd3d 6866 393d
00000370: 5ad3 163d 99d6 0e3e 82ae 763d 57d4 05be
00000380: ef69 ab3d 9a9f 063e b748 17be 0cc6 933d
00000390: 31fd ae3d c6e2 e13d a2dd 94bd 9e99 443d
000003a0: f7fb 003d 7191 763d 4b15 0f3e 7c47 0cbd
000003b0: 1604 cfbd 2282 7bbd 03aa b0bd 65b8 923d
000003c0: cb1a a8bd af50 91bc 045d d4bd 0818 883d
000003d0: 5469 1a3d 22ac 563c 188e ec3d 6489 703d
000003e0: cbe7 aebd d73a b23d 5916 cf3d 735f 2f3e
000003f0: 15e4 e1bc 08d7 c43c 658e 043e a300 903d

lstm.weight_hh_l0 f4 [128, 32]
-0.074408665 -0.09354319 0.10235071 -0.013972875 0.13676032 -0.051889207 -0.18600261 -0.11493572
0.042728346 0.025867071 -0.11925593 -0.114676766 -0.06694852 -0.10629871 0.070040666 -0.112466976
-0.12825789 0.15426683 0.18201584 -0.015762543 -0.0005627772 -0.025974557 -0.1205753 -0.044047635
-0.15682212 -0.014496943 -0.12026386 -0.030698122 0.15193905 -0.09331331 0.09688152 -0.14281169
0.1880322 -0.06820414 0.030942628 -0.08058677 0.09505167 0.19099635 -0.23028964 0.23533158
-0.17405817 -0.028821817 -0.18550071 0.043753084 -0.21575841 0.13960062 0.111611485 -0.08469556
-0.07532872 -0.051495902 0.106109984 -0.034244034 -0.21063226 0.03119002 0.16558665 0.075953975
0.06068953 -0.14138637 -0.053756695 0.07079976 -0.013355623 -0.19761896 0.012439107 -0.042708106
0.034026943 -0.112286374 -0.09968518 -0.00326545 0.18916008 -0.093877 -0.01077941 -0.06273572
-0.077462986 0.012055672 -0.10294052 0.11786475 0.09988441 -0.13906676 0.064521894 0.019686539
0.10443401 0.13426322 0.17849995 -0.05818338 -0.13652615 0.082219146 -0.13277884 -0.14677222
0.0013615369 0.056459974 0.12101828 -0.056718443 0.01706581 -0.10671572 0.1364097 -0.10219444
-0.17647047 0.109700955 -0.06381401 -0.04868792 -0.047054846 -0.13722096 0.1846294 0.052965865
0.1378026 -0.14062737 -0.008135825 0.047806192 -0.16974288 -0.08859636 -0.014525223 0.057100788
-0.01654861 -0.061434045 -0.14760278 -0.12856092 -0.020855155 -0.07499221 0.19669633 0.035653614
-0.02348913 0.106330656 -0.111193955 -0.0883702 0.035371322 -0.14773647 -0.011803004 -0.1755405
-0.05399896 0.084763646 -0.15446208 0.059204772 -0.016846085 0.06886966 0.05767405 -0.1337357
-0.031920314 0.104367994 -0.029569868 0.03203766 -0.022872198 0.1280374 0.15726374 -0.0804771
0.04046327 0.025427582 -0.0013540328 0.03980946 0.028700152 0.048289303 -0.07887601 -0.19196734
0.063339636 0.11729111 -0.15757309 -0.044854283 0.09239322 -0.07380499 -0.10917741 -0.098723784
-0.21792123 -0.09832662 -0.038063414 0.020885734 0.1505962 -0.0543467 -0.11365286 0.045502216
0.0815784 -0.096155055 -0.13858435 0.061511293 0.08918156 -0.112213224 0.039342728 -0.037051424
-0.16385241 -0.051278815 0.09900408 0.05585983 -0.17854121 -0.1862528 -0.08258705 0.17186001
0.13009149 0.10998945 -0.18318847 -0.07458098 0.03469659 0.032920655 0.02959143 -0.13773228
0.06335074 -0.047578026 0.06666005 0.0207844 -0.12977682 -0.15817383 0.08770758 -0.07658631
0.05859732 0.10585432 -0.014441627 -0.08652559 0.13559061 -0.14773038 -0.08555686 -0.09039784
0.11890069 0.120368905 0.17947689 -0.15874073 0.06147098 0.17564826 -0.15328664 -0.058794376
0.15256158 -0.123604864 -0.14568111 0.037698865 -0.16862464 -0.10756991 0.01388663 -0.060720094
0.07693164 0.04382782 -0.13369873 0.12615879 -0.062419176 -0.017515678 -0.07054886 -0.051159974
-0.025212819 -0.05387699 0.09344746 0.1410175 -0.011121963 -0.14792122 0.03136161 -0.056440305
-0.022331933 0.12026749 -0.09694595 0.027004175 -0.19106843 0.15565622 0.06337524 -0.10709459
-0.08996153 0.16941395 -0.07131978 0.0985954 -0.044792283 0.024924347 -0.08956685 -0.011778013
00000000: 9263 98bd 9293 bfbd 409d d13d 7cee 64bc
00000010: e60a 0c3e c789 54bd 7877 3ebe 6b63 ebbd
00000020: eb03 2f3d 2ee7 d33c 743c f4bd a7db eabd
00000030: 4e1c 89bd 23b3 d9bd 7b71 8f3d 1655 e6bd
00000040: 0956 03be 20f8 1d3e 5c62 3a3e 7320 81bc
00000050: 5787 13ba 98c8 d4bc 2ff0 f6bd 4b6b 34bd
00000060: fa95 20be 9684 6dbc e64c f6bd a17a fbbc
00000070: e995 1b3e 0c1b bfbd d169 c63d 3a3d 12be
00000080: 838b 403e 9dae 8bbd 657b fd3c ad0a a5bd
00000090: 73aa c23d 8c94 433e 0cd1 6bbe c3fa 703e
000000a0: 4e3c 32be bb1b ecbc e6f3 3dbe 6f36 333d
000000b0: c6ef 5cbe 77f3 0e3e 9094 e43d de74 adbd
000000c0: f245 9abd 5eed 52bd 3150 d93d 7943 0cbd
000000d0: fcaf 57be 3682 ff3c 8c8f 293e c28d 9b3d
000000e0: 9695 783d 97c7 10be fb2f 5cbd 77ff 903d
000000f0: 8bd1 5abc a05c 4abe 65cd 4b3c b2ee 2ebd
00000100: d65f 0b3d 66f6 e5bd be27 ccbd 2901 56bb
00000110: 2eb3 413e 9642 c0bd 1f9c 30bc 967b 80bd
00000120: eaa4 9ebd 2785 453c 7bd2 d2bd 1363 f13d
00000130: 3390 cc3d 8467 0ebe 0e24 843d aa45 a13c
00000140: 80e1 d53d 4c7c 093e b1c8 363e b251 6ebd
00000150: 83cd 0bbe 8362 a83d 2df7 07be 754b 16be
00000160: 9975 b23a 9342 673d 6fd8 f73d 9951 68bd
00000170: 99cd 8b3c c58d dabd fcae 0b3e 524b d1bd
00000180: adb4 34be e5aa e03d ebb0 82bd fc6c 47bd
00000190: 95bc 40bd a783 0cbe 7d0f 3d3e bcf2 583d
000001a0: 201c 0d3e 9f00 10be 204c 05bc 6dd0 433d
000001b0: 14d1 2dbe 0272 b5bd 33fb 6dbc 84e2 693d
000001c0: f390 87bc 44a2 7bbd 2f25 17be 79a5 03be
000001d0: 6ed8 aabc 8495 99bd c36a 493e 8609 123d
000001e0: 476c c0bc e3c3 d93d a8b9 e3bd 6ffb b4bd
000001f0: 85e1 103d 3b48 17be 6361 41bc e4c0 33be
00000200: 032e 5dbd 9098 ad3d 4f2b 1ebe b480 723d
00000210: cd00 8abc 890b 8d3d a03b 6c3d 03f2 08be
00000220: e0be 02bd e3be d53d 823c f2bc ec39 033d
00000230: 7a5e bbbc 3c1c 033e bf09 213e 2ed1 a4bd
00000240: d0bc 253d 814d d03c cd79 b1ba 3f0f 233d
00000250: 951c eb3c 01cb 453d bf89 a1bd 1693 44be
00000260: 36b8 813d 5236 f03d d75a 21be 20b9 37bd
00000270: a838 bd3d 1227 97bd 6898 dfbd b22f cabd
00000280: be26 5fbe 785f c9bd 62e8 1bbd 8f18 ab3c
00000290: e435 1a3e a59a 5ebd d5c2 e8bd 8860 3a3d
000002a0: 9412 a73d f1ec c4bd 0ee9 0dbe 44f3 7b3d
000002b0: d2a4 b63d 0cd0 e5bd d725 213d 3cc3 17bd
000002c0: edc8 27be bc09 52bd a7c2 ca3d 47cd 643d
000002d0: 82d3 36be 0eb9 3ebe 6623 a9bd 12fc 2f3e
000002e0: b436 053e 2642 e13d c295 3bbe eabd 98bd
000002f0: 031e 0e3d cfd7 063d ba69 f23c b109 0dbe
00000300: 08be 813d 2de1 42bd 1085 883d 0c44 aa3c
00000310: 37e4 04be 52f8 21be 08a0 b33d 49d9 9cbd
00000320: be03 703d 26ca d83d 939c 6cbc 5434 b1bd
00000330: 44d8 0a3e a246 17be 6f38 afbd 8122 b9bd
00000340: 3482 f33d f983 f63d cac8 373e ee8c 22be
00000350: ffc8 7b3d 23dd 333e 2cf7 1cbe 5fd2 70bd
00000360: 1a39 1c3e 8c24 fdbd 6e2d 15be 206a 1a3d
00000370: f0ab 2cbe 9d4d dcbd bf84 633c a2b5 78bd
00000380: 568e 9d3d cd84 333d 52e8 08be c52f 013e
00000390: 40ab 7fbd 0a7d 8fbc ec7b 90bd 1f8d 51bd
000003a0: 1d8b cebc 1eae 5cbd 6261 bf3d e466 103e
000003b0: e538 36bc a978 17be 0875 003d f32d 67bd
000003c0: 75f1 b6bc cd4e f63d 998b c6bd dc37 dd3c
000003d0: 71a7 43be 5864 1f3e e1ca 813d 6954 dbbd
000003e0: c03d b8bd da7a 2d3e 1b10 92bd 63ec c93d
000003f0: 1d78 37bd 252e cc3c d36e b7bd 91f8 40bc

lstm.bias_ih_l0 f4 [128]
-0.13220885 0.26143786 -0.15538049 0.1095073 0.15825914 0.063731246 -0.009842255 -0.01673143
-0.16380936 -0.20836952 -0.034104764 -0.086176984 -0.21312448 0.027161667 0.0264808 0.11845211
-0.10652885 0.021851538 -0.028138533 -0.06374121 -0.1775314 -0.028394902 0.22761711 -0.026712526
-0.11386497 0.15432097 0.1501218 0.0846175 -0.06694489 0.14830518 -0.08186415 0.12551032
0.089677565 0.15775238 0.1716647 0.10447621 0.15481354 0.14766625 -0.046900883 0.18370906
0.037135202 0.0950661 0.117551304 -0.14591959 -0.18047546 0.040035013 -0.04541948 0.12646641
0.04836844 0.049865935 -0.010021571 0.16471832 -0.11860644 -0.041357785 0.06623284 -0.19491483
-0.03106651 -0.092861995 0.10253732 -0.07469178 -0.05748829 0.10767212 -0.06174735 0.053892728
-0.17252894 -0.16335982 -0.13013309 -0.043719415 -0.08834266 0.17119414 0.0020871325 0.1308447
0.12446919 -0.11806473 -0.0386588 -0.13785249 -0.036837246 0.006619015 -0.11302528 0.09042947
-0.17041 -0.12669839 -0.019456273 -0.18423977 -0.018822564 0.039740056 0.12009853 -0.071764395
-0.02748696 0.10225982 0.017395752 -0.111060984 -0.120539226 -0.16898827 -0.11488766 0.03936562
-0.0776115 0.016419308 0.029460715 -0.17284806 0.10819995 0.15721898 -0.11235554 0.07213881
0.1078101 0.02113471 -0.05056243 0.030244078 -0.037666213 -0.023177618 -0.16627853 0.065177985
0.086737424 0.08591305 -0.1505625 0.2322985 -0.09857179 0.020460527 0.08045316 0.12228813
-0.13744925 0.1115076 0.054450694 -0.016247194 -0.12935391 0.01656014 -0.16327503 0.13182928
00000000: c261 07be 2fdb 853e 101c 1fbe 5d45 e03d
00000010: af0e 223e 8785 823d 6941 21bc 5a10 89bc
00000020: a4bd 27be d25e 55be 70b1 0bbd 8f7d b0bd
00000030: 4e3d 5abe 2582 de3c 43ee d83c 0597 f23d
00000040: cc2b dabd ff01 b33c c882 e6bc c08a 82bd
00000050: cbca 35be 6d9c e8bc 7614 693e 3ad4 dabc
00000060: 0a32 e9bd 5106 1e3e 87b9 193e f14b ad3d
00000070: 671a 89bd 50dd 173e 64a8 a7bd c785 003e
00000080: dfa8 b73d d789 213e dfc8 2f3e a0f7 d53d
00000090: 7187 1e3e d235 173e 241b 40bd 3a1e 3c3e
000000a0: 151b 183d 04b2 c23d bdbe f03d f26b 15be
000000b0: 8fce 38be c1fb 233d c709 3abd 6980 013e
000000c0: fc1d 463d 3940 4c3d 8431 24bc ebab 283e
000000d0: efe7 f2bd c866 29bd 15a5 873d c197 47be
000000e0: 327f febc 6e2e bebd 16ff d13d 01f8 98bd
000000f0: d778 6bbd 3383 dc3d caea 7cbd 9fbe 5c3d
00000100: 6dab 30be cc47 27be 9c41 05be 2113 33bd
00000110: ffec b4bd 844d 2f3e 46c8 083b 27fc 053e
00000120: b4e9 fe3d eccb f1bd b158 1ebd 3429 0dbe
00000130: a7e2 16bd 52e4 d83b cc79 e7bd 1633 b93d
00000140: f67f 2ebe 39bd 01be c362 9fbc 5aa9 3cbe
00000150: c731 9abc 78c6 223d 38f6 f53d 36f9 92bd
00000160: 552c e1bc 996d d13d 8981 8e3c f173 e3bd
00000170: 45dd f6bd 430b 2dbe 394a ebbd d83d 213d
00000180: c7f2 9ebd c981 863c 9957 f13c 15ff 30be
00000190: ef97 dd3d 03fe 203e a91a e6bd 83bd 933d
000001a0: 8bcb dc3d b322 ad3c 8d1a 4fbd 6ec2 f73c
000001b0: e347 1abd fdde bdbc eb44 2abe 097c 853d
000001c0: 64a3 b13d 2ef3 af3d 0e2d 1abe a8df 6d3e
000001d0: 02e0 c9bd d69c a73c a0c4 a43d 3372 fa3d
000001e0: 7fbf 0cbe 195e e43d b107 5f3d d618 85bc
000001f0: 5a75 04be 21a9 873c 9231 27be 41fe 063e

lstm.bias_hh_l0 f4 [128]
-0.04229631 0.06379266 -0.041984204 0.055329923 0.18205138 0.16114512 0.031506784 0.118211605
0.039701194 -0.123218514 -0.12528695 -0.09222574 -0.018526703 0.13833 0.107407965 -0.06481646
0.14243008 -0.13471483 0.05257804 -0.026083425 -0.16487384 -0.11006793 -0.07533279 -0.031024357
-0.1531328 -0.11621539 0.12733372 -0.0721178 -0.0625607 -0.04723812 0.039956175 0.123810865
0.12608486 0.13680588 -0.025291342 0.09850013 0.030602852 0.12759195 0.07728454 0.1485671
0.09059663 -0.16841745 -0.047624122 0.061285615 0.12181158 0.01588042 -0.08837085 0.15605596
-0.09849666 0.15974073 -0.107439354 0.18314381 -0.17512347 0.06450475 0.1319278 -0.07181314
0.0055007124 0.05825533 0.0924349 0.053098533 -0.16718237 0.080304556 -0.13899447 0.11252201
-0.09714266 -0.15289758 -0.057840142 -0.15305136 0.07612095 0.057595156 -0.09210356 0.044329513
-0.074343905 -0.077340975 -0.03314231 0.07004895 -0.14863533 -0.09678449 -0.099065125 -0.14163779
0.015100062 -0.07675789 -0.13496003 -0.12880467 -0.14554292 -0.075030014 -0.0555143 0.033173356
-0.029313663 -0.05600464 0.035295233 0.01747557 -0.060539056 0.15269265 -0.034137014 -0.18032716
-0.12464667 0.053586133 0.11606917 0.0021482464 0.17610598 0.09864028 0.019411772 -0.14887296
0.010208785 -0.016359847 0.131031 0.11920627 -0.18762605 0.13461643 0.121806845 -0.05334166
-0.10502863 -0.024553876 0.1001718 -0.007878646 -0.041542932 0.19620709 0.05214411 -0.12554929
-0.037325278 -0.10747313 -0.005216824 0.003974646 0.015174228 -0.07410359 0.12232476 -0.06617965
00000000: e53e 2dbd baa5 823d a1f7 2bbd a1a1 623d
00000010: ad6b 3a3e 3a03 253e 420d 013d ed18 f23d
00000020: b89d 223d fd59 fcbd 394b 00be d9e0 bcbd
00000030: 50c5 97bc 61a6 0d3e b5f8 db3d 7ebe 84bd
00000040: 31d9 113e aff2 09be 125c 573d e8ac d5bc
00000050: b0d4 28be 4b6b e1bd 1448 9abd cb26 febc
00000060: d8ce 1cbe 5602 eebd c563 023e 7fb2 93bd
00000070: d31f 80bd c27c 41bd 16a9 233d 8d90 fd3d
00000080: 641c 013e d716 0c3e ca2f cfbc 70ba c93d
00000090: d5b2 fa3c 77a7 023e 5b47 9e3d f921 183e
000000a0: ba8a b93d a075 2cbe 8311 43bd a006 7b3d
000000b0: 5a78 f93d a817 823c c7fb b4bd 22cd 1f3e
000000c0: 9eb8 c9bd 1393 233e 2a09 dcbd 0d8a 3b3e
000000d0: 9153 33be 111b 843d 1518 073e c412 93bd
000000e0: 523f b43b 249d 6e3d 824e bd3d d97d 593d
000000f0: db31 2bbe b776 a43d 9154 0ebe f171 e63d
00000100: bbf2 c6bd 2f91 1cbe c9e9 6cbd 7fb9 1cbe
00000110: 4de5 9b3d e6e8 6b3d cba0 bcbd dd92 353d
00000120: 9e41 98bd f264 9ebd 3bc0 07bd d375 8f3d
00000130: dc33 18be f236 c6bd a8e2 cabd 7f09 11be
00000140: 4066 773c 3e33 9dbd f632 0abe 5fe5 03be
00000150: 3409 15be 56a9 99bd f662 63bd c9e0 073d
00000160: 3523 f0bc 1f65 65bd bc91 103d ed28 8f3c
00000170: cdf7 77bd 765b 1c3e 41d3 0bbd afa7 38be
00000180: c146 ffbd 227d 5b3d acb5 ed3d 98c9 0c3b
00000190: 2055 343e ea03 ca3d 7005 9f3c 2772 18be
000001a0: bf42 273c 1605 86bc fe2c 063e 6b22 f43d
000001b0: 0b21 40be e4d8 093e de75 f93d c97c 5abd
000001c0: 4019 d7bd 3625 c9bc df26 cd3d 7015 01bc
000001d0: ec28 2abd 83ea 483e 1095 553d fe8f 00be
000001e0: 64e2 18bd df1a dcbd e4f1 aabb bf3d 823b
000001f0: 539d 783c 9fc3 97bd 6785 fa3d 3289 87bd

lstm.weight_ih_l1 f4 [128, 32]
-0.10915615 0.119162545 -0.054723237 0.005190683 0.11213274 -0.074929275 0.15585667 0.123621136
0.044445954 0.14707416 0.08748993 0.12472943 0.07440795 -0.13183153 0.20931877 -0.027126482
0.13079074 0.09803538 0.003035075 -0.040838115 -0.16825238 -0.02640145 0.12326841 -0.16644844
-0.08878199 -0.16054754 -0.046605494 0.014168066 -0.017421715 0.12327484 0.13375813 -0.10712632
0.031812884 0.13548845 -0.09296056 -0.23740436 0.06885135 0.028810274 -0.0789912 0.18030238
-0.14296713 -0.1164703 -0.052979145 -0.085539095 -0.0716791 0.07808786 0.034009933 0.09613831
0.0022160378 -0.051363084 0.22811502 0.15010387 -0.25958088 0.09054994 0.21955451 -0.24238095
-0.07158934 0.08306652 -0.074528955 0.21386896 0.12508987 0.069597475 -0.026324535 0.05180079
-0.07112981 0.13941121 -0.07109524 -0.1594521 -0.09000292 0.10678319 -0.0752538 -0.11968229
0.084980674 -0.13477246 -0.09571 0.04519392 -0.15675999 0.14148158 -0.055939697 0.15005602
0.06879725 -0.05597033 0.13928254 0.054558996 0.021903286 -0.0468181 -0.09262513 0.009141346
-0.032639276 -0.11710154 -0.044707898 0.19278918 -0.14208399 -0.028746283 0.058948696 0.04732018
0.21174082 -0.15265155 0.16764659 -0.057873253 -0.19268282 0.004245711 -0.22562316 0.18863736
0.03175852 -0.15837961 -0.041609224 0.08724168 0.009078359 0.20112188 -0.064001925 0.021175135
0.04395316 -0.04907509 0.15019304 -0.16107017 -0.20735312 0.17480423 -0.18810517 -0.04295619
0.09231489 -0.11396667 -0.066513345 0.082605794 -0.116678946 -0.11842246 0.18758194 0.022789052
-0.07947761 0.05461451 0.019520063 -0.06378608 0.045127943 0.061951052 -0.13505086 0.014700656
0.07854672 0.069427066 -0.10111612 0.13666773 -0.15563329 -0.043780945 -0.13768898 -0.17006373
0.1546896 -0.1732636 0.040423095 -0.09659208 0.10434127 -0.090065405 0.10060199 0.028893225
0.08757325 -0.16502842 0.0032031767 0.20520216 0.11204694 0.015796904 0.2049801 -0.14548375
-0.068572596 0.028618675 0.1759773 0.19267525 -0.06125911 -0.06186452 0.13359837 -0.079263724
-0.09096018 0.07069154 -0.0671903 0.07182977 0.103960924 0.13473624 0.08396372 -0.010063881
0.14438596 0.08856155 -0.13991116 -0.0019536142 0.11345395 0.17831638 -0.12631474 0.12071057
-0.13585557 -0.0037476185 0.07763252 0.034661844 0.10579248 0.11051973 -0.020834457 -0.04390422
-0.1387692 0.22288746 -0.021403205 -0.053491548 0.07741502 0.05525896 -0.15032054 -0.0788167
-0.007029382 0.038953483 -0.15243368 -0.058369126 -0.20234446 -0.09597437 0.04653435 0.023066962
-0.14974616 -0.169801 -0.13496056 -0.018887443 -0.1747036 0.1100847 -0.078326985 -0.09786177
0.10450026 0.15057243 -0.14646253 -0.01796125 -0.0774911 -0.04476723 0.057716865 -0.18278843
-0.108099185 0.05940543 -0.024577666 0.020045292 -0.118408 -0.025505286 -0.17247342 -0.0060097817
0.033655938 0.124600075 -0.14808577 -0.14125101 0.18185513 -0.013255964 0.13605133 -0.19609989
-0.11952564 0.09376211 -0.004862854 -0.14346549 -0.03289329 0.107686885 -0.055858385 0.05100248
0.104707226 -0.1719169 -0.012180384 0.0374645 -0.12935993 0.08568547 0.09030205 -0.060553648
00000000: 428d dfbd 7e0b f43d 7925 60bd 9b16 aa3b
00000010: daa5 e53d 8574 99bd e498 1f3e 142d fd3d
00000020: f60c 363d 9c9a 163e ec2d b33d 2572 ff3d
00000030: 3263 983d d8fe 06be a957 563e 5b38 debc
00000040: 02ee 053e c6c6 c83d 1ce8 463b de45 27bd
00000050: 5a4a 2cbe db47 d8bc 2674 fc3d 7671 2abe
00000060: 55d3 b5bd 9366 24be 67e5 3ebd 2d21 683c
00000070: fcb7 8ebc 8577 fc3d e4f7 083e 0b65 dbbd
00000080: 3a4e 023d 7cbd 0a3e 1b62 bebd 211a 73be
00000090: f001 8d3d 8603 ec3c 23c6 a1bd 30a1 383e
000000a0: fa65 12be fb87 eebd a900 59bd 1f2f afbd
000000b0: 7ecc 92bd 87ec 9f3d 004e 0b3d 2ae4 c43d
000000c0: f23a 113b 1962 52bd fc96 693e d4b4 193e
000000d0: c9e7 84be 3f72 b93d e6d2 603e b632 78be
000000e0: 6f9d 92bd c81e aa3d a3a2 98bd 7700 5b3e
000000f0: 8f17 003e 1f89 8e3d 8da6 d7bc 112d 543d
00000100: 81ac 91bd d0c1 0e3e 629a 91bd 6947 23be
00000110: 7353 b8bd 25b1 da3d aa1e 9abd fd1b f5bd
00000120: 590a ae3d cb01 0abe 9b03 c4bd 431d 393d
00000130: b185 20be 8ce0 103e 0621 65bd 49a8 193e
00000140: 93e5 8c3d 2541 65bd 15a0 0e3e 4179 5f3d
00000150: 856e b33c 56c4 3fbd 3fb2 bdbd 96c5 153c
00000160: c3b0 05bd efd2 efbd a11f 37bd 876a 453e
00000170: 777e 11be 537d ebbc 3074 713d ced2 413d
00000180: 96d2 583e b050 1cbe 8cab 2b3e 810c 6dbd
00000190: a54e 45be 9b1f 8b3b c209 67be 272a 413e
000001a0: 3915 023d 442e 22be 6f6e 2abd c4ab b23d
000001b0: 66bd 143c e5f2 4d3e 7113 83bd 7a77 ad3c
000001c0: 3b08 343d f602 49bd 34cc 193e 94ef 24be
000001d0: 6054 54be e1ff 323e a49e 40be d4f2 2fbd
000001e0: 970f bd3d 5c67 e9bd 2638 88bd 3a2d a93d
000001f0: 5ff5 eebd 7a87 f2bd 7b15 403e 1bb0 ba3c
00000200: 28c5 a2bd 77b3 5f3d 8ae8 9f3c 47a2 82bd
00000210: 14d8 383d 63c0 7d3d c64a 0abe 05db 703c
00000220: 1add a03d c72f 8e3d f815 cfbd a0f2 0b3e
00000230: 555e 1fbe a653 33bd 57fe 0cbe 3025 2ebe
00000240: f366 1e3e 036c 31be b092 253d 12d2 c5bd
00000250: e0b0 d53d 3674 b8bd 6b08 ce3d 7cb1 ec3c
00000260: 9b59 b33d 36fd 28be 63ec 513b 8420 523e
00000270: de78 e53d 8268 813c 4ee6 513e b1f9 14be
00000280: ca6f 8cbd b671 ea3c 6533 343e a94c 453e
00000290: d5ea 7abd a765 7dbd 03ce 083e 0555 a2bd
000002a0: 5549 babd bac6 903d 119b 89bd 7d1b 933d
000002b0: 77e9 d43d 4cf8 093e 2cf5 ab3d fae2 24bc
000002c0: ead9 133e c25f b53d df44 0fbe 3508 00bb
000002d0: 8b5a e83d 9298 363e a758 01be 1a37 f73d
000002e0: b91d 0bbe 9b9a 75bb ccfd 9e3d 94f9 0d3d
000002f0: baa9 d83d 2b58 e23d 06ad aabc e9d4 33bd
00000300: 8319 0ebe 9c3c 643e c655 afbc f419 5bbd
00000310: c48b 9e3d 3857 623d a1ed 19be a66a a1bd
00000320: bb56 e6bb b08d 1f3d 9317 1cbe 7714 6fbd
00000330: 6333 4fbe 368e c4bd cd9a 3e3d edf6 bc3c
00000340: 0f57 19be 50e0 2dbe 1a33 0abe d7b9 9abc
00000350: 80e5 32be 1674 e13d e669 a0bd c06b c8bd
00000360: 3b04 d63d a92f 1a3e 46fa 15be 7923 93bc
00000370: a7b3 9ebd d85d 37bd 8568 6c3d e42c 3bbe
00000380: 1b63 ddbd 1c53 733d 1a57 c9bc 0636 a43c
00000390: e57f f2bd 76f0 d0bc df9c 30be b4ed c4bb
000003a0: cfda 093d 532e ff3d cca3 17be 1ba4 10be
000003b0: 3b38 3a3e 8b2f 59bc 0a51 0b3e 69ce 48be
000003c0: dcc9 f4bd 5906 c03d 9358 9fbb 9ee8 12be
000003d0: 1dbb 06bd f18a dc3d c3cb 64bd fae7 503d
000003e0: be70 d63d fc0a 30be 3c90 47bc 6074 193d
000003f0: ee76 04be dd7b af3d 48f0 b83d 1a07 78bd

lstm.weight_hh_l1 f4 [128, 32]
0.034332838 0.099826805 -0.0019835401 0.06667687 0.120857276 0.15049557 0.07027442 0.13504647
-0.018557975 -0.09924392 -0.051011834 0.16020115 -0.1685725 -0.048939575 -0.037779547 -0.16810474
-0.0032116622 -0.046088066 0.0015836369 -0.09076046 0.120751254 -0.16463013 0.0056322454 0.13885115
0.10152605 -0.034903992 0.1812215 0.09699856 0.12731826 0.008209185 0.052127335 0.07950966
0.059096694 0.015525277 0.049188748 0.10755785 -0.100582264 -0.039825313 0.23773216 -0.007664003
0.24017312 0.04538042 0.23395284 0.05235109 -0.10337389 0.09408247 -0.052812103 -0.086388536
0.18639132 0.21660736 0.2144857 -0.10470649 0.19829161 -0.021895975 0.2015777 -0.07324363
0.09172204 0.15486811 -0.10159665 -0.074580684 -0.22838739 -0.1344014 -0.20476301 0.036977705
-0.018731475 -0.20983163 0.13910484 0.11063042 -0.19495425 0.1929641 -0.10117201 0.19198179
0.11486899 -0.13124228 -0.034256443 -0.028044196 -0.025536088 -0.11202523 0.05553334 0.021146478
0.09326526 0.0531435 0.20708163 0.23363478 0.21117422 0.054509837 0.08684342 0.034297306
-0.08257471 0.0049620885 -0.045609508 0.1218115 0.15579416 -0.16994773 -0.20062506 0.06176745
0.08143668 0.1915503 0.096332796 -0.23197553 0.060047925 -0.06029722 -0.1003419 -0.16943973
0.08833894 0.029531475 -0.031645406 0.008014441 0.09295669 -0.13476746 -0.0063591036 0.0768039
-0.053644318 0.10699868 0.0699097 -0.022965405 -0.00017611148 -0.072911665 -0.025952477 0.1867767
0.010403312 0.049201086 -0.03657734 0.027104871 -0.11087112 -0.08917613 -0.22189741 -0.10940737
-0.14253977 -0.13442656 -0.16456036 -0.093695454 -0.19689043 0.11354251 0.10062901 -0.078771114
-0.12773344 0.04601626 0.11073919 0.08872932 0.18696584 -0.16814236 0.010301821 -0.057214748
0.115999766 0.17867942 -0.051651813 -0.16814128 0.047526505 0.10781517 0.023096366 0.05781401
-0.15247768 -0.049411863 -0.040338818 0.046318304 -0.08842183 0.048929818 -0.024316778 -0.18995528
0.018913746 -0.08882684 0.0025567212 -0.19671343 -0.07082786 0.18448249 0.112698026 0.13568138
-0.10666373 0.1890334 -0.027690392 0.14063457 0.12677988 0.15807296 -0.037095685 0.05394968
-0.17751332 0.07094561 0.1342025 -0.11221267 0.10133698 -0.1351514 -0.18819638 -0.079443805
-0.034917455 -0.07057621 0.0662502 -0.15813574 -0.11374697 0.14855586 -0.03461269 0.053393412
0.11478006 -0.12780015 -0.048462585 0.04998842 -0.11768885 0.087346464 0.2208167 0.13259044
-0.107548594 0.07886835 0.016164314 0.0494423 -0.046686333 -0.14194778 -0.11389193 0.060814563
-0.012070429 0.20278612 -0.048842058 0.21284665 0.16125974 -0.041585397 0.24407212 -0.03645856
-0.16947545 0.083435774 -0.015354427 0.12086051 0.111615226 -0.12875581 -0.06658921 0.04477761
-0.08973801 0.07649234 0.08459196 -0.1602488 -0.16334078 0.08528086 0.10541962 0.0053361817
-0.006474954 -0.17085701 -0.13852261 -0.0077021816 -0.12330395 -0.16429721 0.07786583 -0.028977856
-0.021997036 0.11275385 -0.10352935 -0.07954612 0.09891491 0.14982815 0.039352186 0.058515925
0.10838109 -0.12854594 -0.07129188 0.12650146 -0.044001076 -0.023902537 -0.0064790663 0.05222923
00000000: 97a0 0c3d ff71 cc3d 48fe 01bb e28d 883d
00000010: 0584 f73d 831b 1a3e 09ec 8f3d 9f49 0a3e
00000020: e506 98bc 6540 cbbd c9f1 50bd c50b 243e
00000030: 459e 2cbe dd74 48bd babe 1abd a623 2cbe
00000040: c07a 52bb d7c6 3cbd 0992 cf3a 9fe0 b9bd
00000050: 6f4c f73d cd94 28be b38e b83b ff2e 0e3e
00000060: e4ec cf3d 7df7 0ebd 2192 393e 2ea7 c63d
00000070: b85f 023e d17f 063c 7983 553d f6d5 a23d
00000080: 600f 723d bb5d 7e3c 247a 493d 4a47 dc3d
00000090: 13fe cdbd de1f 23bd 0f70 733e 5122 fbbb
000000a0: f1ef 753e d2e0 393d 5591 6f3e 196e 563d
000000b0: b1b5 d3bd 4fae c03d 8151 58bd 79ec b0bd
000000c0: 5edd 3e3e 52ce 5d3e 24a2 5b3e 5b70 d6bd
000000d0: f50c 4b3e 305f b3bc 626a 4e3e c200 96bd
000000e0: c4d8 bb3d bf95 1e3e e811 d0bd c2bd 98bd
000000f0: 62de 69be 85a0 09be 65ad 51be ef75 173d
00000100: c072 99bc 1ade 56be 8071 0e3e 3492 e23d
00000110: 16a2 47be 6298 453e 4533 cfbd e096 443e
00000120: 6f40 eb3d 6064 06be 7c50 0cbd f1bc e5bc
00000130: 0f31 d1bc 7c6d e5bd ed76 633d 613b ad3c
00000140: db01 bf3d 00ad 593d 350d 543e f53d 6f3e
00000150: 0e3e 583e b545 5f3d f7da b13d 557b 0c3d
00000160: ee1c a9bd 0499 a23b 09d1 3abd 4f78 f93d
00000170: 8188 1f3e c706 2ebe a870 4dbe deff 7c3d
00000180: 46c8 a63d c325 443e 214a c53d fe8a 6dbe
00000190: d0f4 753d 38fa 76bd 0e80 cdbd 9c81 2dbe
000001a0: 0ceb b43d feeb f13c 9d9e 01bd 004f 033c
000001b0: 1460 be3d 7b00 0abe 0760 d0bb 5d4b 9d3d
000001c0: 25ba 5bbd 2022 db3d d12c 8f3d f221 bcbc
000001d0: 91aa 38b9 b652 95bd 4a9a d4bc 6442 3f3e
000001e0: a772 2a3c 1487 493d 1fd2 15bd 090b de3c
000001f0: 6610 e3bd faa1 b6bd 1339 63be f910 e0bd
00000200: f2f5 11be 1ea7 09be 8382 28be 67e3 bfbd
00000210: a59d 49be fa88 e83d 9516 ce3d c052 a1bd
00000220: 8ecc 02be 8c7b 3c3d 3acb e23d b8b7 b53d
00000230: f973 3f3e 832d 2cbe f8c8 283c 035a 6abd
00000240: 4991 ed3d bdf7 363e da90 53bd 3a2d 2cbe
00000250: 27ab 423d 33ce dc3d 9734 bd3c 62ce 6c3d
00000260: 1c23 1cbe 1864 4abd 513a 25bd 43b8 3d3d
00000270: 8116 b5bd a26a 483d fb33 c7bc a383 42be
00000280: 00f1 9a3c d9ea b5bd aa8e 273b 3f6f 49be
00000290: 320e 91bd fae8 3c3e 39ce e63d 0ff0 0a3e
000002a0: 8472 dabd f991 413e f6d6 e2bc 8202 103e
000002b0: 96d2 013e e1dd 213e a5f1 17bd 57fa 5c3d
000002c0: 0dc6 35be ef4b 913d 616c 093e c2cf e5bd
000002d0: c389 cf3d 2165 0abe 8db6 40be 6fb3 a2bd
000002e0: 9b05 0fbd 438a 90bd 2fae 873d 56ee 21be
000002f0: 2cf4 e8bd 071f 183e 09c6 0dbd 0db3 5a3d
00000300: cf11 eb3d 0bde 02be b480 46bd a8c0 4c3d
00000310: da06 f1bd b4e2 b23d c61d 623e cac5 073e
00000320: 7042 dcbd bb85 a13d 066b 843c 0284 4a3d
00000330: 2b3a 3fbd c25a 11be 2c40 e9bd b118 793d
00000340: 0cc3 45bc 2aa7 4f3e 9c0e 48bd 79f4 593e
00000350: 4621 253e 7355 2abd 0bee 793e 9255 15bd
00000360: f98a 2dbe 60e0 aa3d 2291 7bbc b785 f73d
00000370: 8696 e43d 90d8 03be ec5f 88bd ba68 373d
00000380: 90c8 b7bd 04a8 9c3d 8d3e ad3d 4318 24be
00000390: ce42 27be bba7 ae3d 3ee6 d73d 23db ae3b
000003a0: da2b d4bb 24f5 2ebe dfd8 0dbe 9562 fcbb
000003b0: c886 fcbd 873d 28be 1f78 9f3d f862 edbc
000003c0: 2133 b4bc 7eeb e63d 3207 d4bd 13e9 a2bd
000003d0: e693 ca3d 8d6c 193e c22f 213d 65ae 6f3d
000003e0: e8f6 dd3d 8ca1 03be 7a01 92bd 9989 013e
000003f0: 793a 34bd 41cf c3bc 594e d4bb 51ee 553d

lstm.bias_ih_l1 f4 [128]
-0.057835404 0.07947089 -0.067798816 0.17596507 0.20073812 0.11366395 0.04788025 -0.07529533
-0.058738716 0.043887436 0.13028947 -0.19568297 -0.20028368 0.057000604 -0.21154824 0.18597496
0.21777266 -0.11699625 0.11850766 0.08755798 0.17928407 0.015413026 0.079269946 -0.017667927
-0.15789181 0.122966595 -0.17417976 0.029948719 0.123673886 -0.023753855 0.018753776 -0.14904603
-0.047385715 0.078876995 0.14522508 0.02268893 0.19992949 0.11245289 -0.1434788 0.08443435
0.13538168 -0.120598994 -0.1405754 -0.12827516 -0.097423695 0.12179167 -0.14644575 0.064638205
0.07855741 0.10285608 0.15700096 -0.030834988 0.11172829 0.080167 0.02836321 0.13961695
0.010943315 -0.08822176 0.016843734 0.05456255 -0.07135193 0.14977969 -0.024208017 -0.10609301
0.08711987 0.087398864 -0.18494369 -0.11015035 -0.1947657 -0.062063135 0.09413671 -0.031121368
0.046537228 -0.17805205 0.062043507 0.123874485 0.09106881 0.15861213 0.102802366 0.048456106
0.000113522525 0.17911151 0.07096756 -0.18330346 0.20485978 0.109416686 0.16122323 -0.066942066
0.1862215 0.13265996 0.20918162 -0.103059344 -0.061617643 0.1419369 -0.15774389 -0.08005186
-0.06722049 0.1095035 0.05839113 0.20929985 0.08025274 0.00649915 -0.09688237 0.08189609
0.14864413 0.12709758 -0.030071856 -0.089441836 -0.17925109 0.09521749 0.10055755 -0.039479658
-0.13577697 0.08642215 0.08646368 0.10453684 -0.1678018 -0.13219485 0.029079646 -0.008147611
0.15856135 0.17940603 0.003585459 -0.13039954 0.001894444 -0.09364445 0.02653818 0.09207941
00000000: d1e4 6cbd a2c1 a23d 1bda 8abd 3030 343e
00000010: 4b8e 4d3e a5c8 e83d 151e 443d 7034 9abd
00000020: 0298 70bd 50c3 333d 9a6a 053e 1e61 48be
00000030: 2a17 4dbe 7779 693d 1aa0 58be 3870 3e3e
00000040: ccff 5e3e bb9b efbd 25b4 f23d 9951 b33d
00000050: 3e96 373e eb86 7c3c 4858 a23d 54bc 90bc
00000060: 64ae 21be e9d5 fb3d 2e5c 32be 0457 f53c
00000070: bc48 fd3d 7297 c2bc 85a1 993c 869f 18be
00000080: 8617 42bd 438a a13d e2b5 143e 23de b93c
00000090: 51ba 4c3e b34d e63d 1bec 12be ebeb ac3d
000000a0: 7fa1 0a3e 9bfc f6bd fff2 0fbe 905a 03be
000000b0: 1386 c7bd e96d f93d e0f5 15be 0961 843d
000000c0: b5e2 a03d 35a6 d23d dcc4 203e a899 fcbc
000000d0: cdd1 e43d 992e a43d f659 e83c bff7 0e3e
000000e0: 974b 333c 9cad b4bd dffb 893c fb7c 5f3d
000000f0: f620 92bd d95f 193e e44f c6bc 4b47 d9bd
00000100: e76b b23d 2dfe b23d e161 3dbe 8296 e1bd
00000110: a970 47be ea35 7ebd bfca c03d 3df2 febc
00000120: d29d 3e3d 4753 36be 5521 7e3d e8b1 fd3d
00000130: 4982 ba3d 386b 223e 0c8a d23d e979 463d
00000140: f112 ee38 0269 373e 7157 913d e7b3 3bbe
00000150: c3c6 513e db15 e03d b417 253e ec18 89bd
00000160: d9b0 3e3e 03d8 073e b533 563e c710 d3bd
00000170: c862 7cbd e857 113e 9d87 21be 3bf2 a3bd
00000180: e5aa 89bd 5f43 e03d 8a2b 6f3d b352 563e
00000190: 8c5b a43d d2f6 d43b 446a c6bd 23b9 a73d
000001a0: 2b36 183e de25 023e 4159 f6bc 482d b7bd
000001b0: 998d 37be 6301 c33d 1ef1 cd3d 6cb5 21bd
000001c0: 1e09 0bbe 19fe b03d df13 b13d 6917 d63d
000001d0: 3cd4 2bbe 165e 07be 7038 ee3c 8f7d 05bc
000001e0: e85d 223e 37b6 373e 05fa 6a3b 7587 05be
000001f0: fe4e f83a a9c8 bfbd 9966 d93c 2194 bc3d

lstm.bias_hh_l1 f4 [128]
0.1474407 0.022240447 -0.124536015 0.20321658 -0.028556738 -0.012620643 0.006582248 0.050133035
-0.025262915 -0.1804661 0.15931714 -0.18614703 0.048993547 0.026182875 0.038514044 0.1397544
0.20812958 0.08889964 -0.024934102 0.116917364 0.1657644 -0.06104259 0.05975467 0.051049102
0.15146825 0.11953535 -0.2437156 -0.08804803 -0.103518546 -0.06971826 0.18907033 0.02751918
-0.076093726 -0.1140432 -0.088545695 -0.09343887 0.044802573 0.037244815 -0.09625665 0.1288902
-0.124135636 -0.04469105 0.011581956 0.053905822 0.047762673 -0.014111448 0.061091278 -0.12927425
0.1499058 -0.12476067 0.05864473 -0.005788043 0.13740507 -0.060675964 0.15020311 -0.119921245
-0.035526466 -0.0053208657 -0.06998858 0.108126864 -0.14181615 0.12873757 0.121513486 0.008391756
0.13049531 -0.09996499 0.08408351 -0.14727813 -0.20743279 -0.03404196 0.07037509 -0.060262963
-0.12629701 -0.083809644 0.05675479 -0.14343493 -0.11221588 0.053050533 0.0068993284 -0.17110416
0.045077935 0.057519313 -0.16139783 0.008481068 -0.112752326 -0.015418831 -0.100427136 0.12944208
-0.054370947 -0.13276614 -0.042975724 0.1047154 -0.09869446 -0.04026306 0.07586895 -0.0464161
0.080207355 -0.04946232 0.11564569 -0.026337152 0.08847726 -0.10387856 0.1395991 -0.15999813
0.025003662 0.052229766 -0.111252084 -0.1446498 -0.03471251 0.125081 -0.10321647 0.07874872
0.05935837 0.14082932 -0.040690154 0.17115611 0.12844312 -0.1632298 0.01644189 -0.16390693
0.14524363 -0.08664251 0.060848363 -0.0126083465 0.10669326 0.2432799 0.13552697 0.069922335
00000000: b2fa 163e 9931 b63c bd0c ffbd 0218 503e
00000010: d2ef e9bc d0c6 4ebc e6af d73b 4c58 4d3d
00000020: 2cf4 cebc 1bcc 38be 0824 233e 549d 3ebe
00000030: 75ad 483d 787d d63c e7c0 1d3d c71b 0f3e
00000040: ec1f 553e 0411 b63d 9a42 ccbc 5f72 ef3d
00000050: 25be 293e cb07 7abd 50c1 743d dd18 513d
00000060: 7e1a 1b3e f3ce f43d 9590 79be 8752 b4bd
00000070: 8801 d4bd 72c8 8ebd a79b 413e e76f e13c
00000080: 07d7 9bbd 7b8f e9bd 7257 b5bd e15c bfbd
00000090: e782 373d 058e 183d 3522 c5bd cbfb 033e
000000a0: d33a febd f60d 37bd 3fc2 3d3c 5acc 5c3d
000000b0: cba2 433d b433 67bc d93a 7a3d 7860 04be
000000c0: e880 193e 8682 ffbd 7535 703d a0a9 bdbb
000000d0: eab3 0c3e 5c87 78bd d8ce 193e 4599 f5bd
000000e0: 3384 11bd a85a aebb 2c56 8fbd 9e71 dd3d
000000f0: 4138 11be c8d3 033e 10dc f83d 937d 093c
00000100: 90a0 053e 72ba ccbd fa33 ac3d 14d0 16be
00000110: 4369 54be 956f 0bbd d120 903d 4cd6 76bd
00000120: 0154 01be 64a4 abbd b677 683d 9be0 12be
00000130: 70d1 e5bd 844b 593d c313 e23b ee35 2fbe
00000140: a4a3 383d 5f99 6b3d 7945 25be 2df4 0a3c
00000150: b1ea e6bd 449f 7cbc beac cdbd 778c 043e
00000160: 12b4 5ebd d9f3 07be 5007 30bd 0775 d63d
00000170: 5220 cabd e1ea 24bd 2e61 9b3d cf1e 3ebd
00000180: c143 a43d 0099 4abd a6d7 ec3d 03c1 d7bc
00000190: 9133 b53d 48be d4bd 11f3 0e3e 8dd6 23be
000001a0: 7bd4 cc3c e1ee 553d 22d8 e3bd 141f 14be
000001b0: b42e 0ebd 3c15 003e 2863 d3bd 0247 a13d
000001c0: c321 733d 9035 103e b8aa 26bd 8c43 2f3e
000001d0: 9886 033e b625 27be 24b1 863c 38d7 27be
000001e0: bfba 143e a171 b1bd 223c 793d 3d93 4ebc
000001f0: ff81 da3d 5e1e 793e 95c7 0a3e 7133 8f3d

bn.weight f4 [32]
1.0747114 1.0711799 1.073776 1.0709742 1.1052452 1.0855815 1.0721712 1.0635406
1.0682459 1.0731268 1.0886292 1.0922296 1.0674783 1.0536575 1.0734323 1.1267773
1.0774179 1.1090676 1.0760267 1.0644288 1.0901232 1.0740852 1.086402 1.0831705
1.0853584 1.0877515 1.0851293 1.1176324 1.084261 1.0721242 1.1103241 1.0702866
00000000: 2590 893f 6c1c 893f 7e71 893f af15 893f
00000010: ad78 8d3f 56f4 8a3f e83c 893f 1922 883f
00000020: 48bc 883f 385c 893f 3458 8b3f 2ece 8b3f
00000030: 21a3 883f 40de 863f 3b66 893f 3d3a 903f
00000040: d4e8 893f edf5 8d3f 3ebb 893f 343f 883f
00000050: 2889 8b3f a07b 893f 390f 8b3f 55a5 8a3f
00000060: 06ed 8a3f 713b 8b3f 84e5 8a3f 940e 8f3f
00000070: 10c9 8a3f 5e3b 893f 1a1f 8e3f 27ff 883f

bn.bias f4 [32]
0.04760957 0.001364982 0.046342943 0.005604018 -0.13579498 0.0960644 -0.047659542 -0.08534755
-0.10952417 0.06605557 -0.12883253 0.12933488 -0.15630162 -0.04763202 -0.14719346 -0.16191743
-0.1035534 0.11334467 -0.06207641 -0.07582535 0.08361762 -0.12386708 -0.13785793 0.10157698
0.12909223 -0.032236107 0.14460742 -0.108785644 0.028278522 0.08244991 0.19313775 0.026977913
00000000: 4102 433d 32e9 b23a 19d2 3d3d e9a1 b73b
00000010: d70d 0bbe 6abd c43d a736 43bd b2ca aebd
00000020: 354e e0bd 2548 873d adec 03be 5d70 043e
00000030: 880d 20be cb19 43bd e2b9 16be afcd 25be
00000040: ce13 d4bd 4021 e83d d543 7ebd 524a 9bbd
00000050: b73f ab3d 06ae fdbd a12a 0dbe 9707 d03d
00000060: c130 043e 020a 04bd f813 143e 02cb debd
00000070: 5ca8 e73c 80db a83d e7c5 453e c900 dd3c

bn.running_mean f4 [32]
0.03496606 -0.18783478 -0.09483615 -0.13095117 -0.037643168 0.0031282008 0.10619591 0.012712069
0.09293516 -0.19924043 0.22982658 -0.09693756 0.14341132 -0.09778272 0.16234489 -0.011186782
0.058984626 0.12212535 0.11549565 -0.32930502 0.04178871 0.11295002 0.16556428 0.14419675
-0.06609878 -0.033551544 -0.15338697 -0.010152807 -0.26791915 0.11921274 -0.19552979 -0.12615612
00000000: 9238 0f3d c357 40be 7539 c2bd 1018 06be
00000010: b92f 1abd 8002 4d3b 3e7d d93d 4846 503c
00000020: ca54 be3d af05 4cbe a957 6b3e 3387 c6bd
00000030: 6bda 123e 4f42 c8bd bd3d 263e c448 37bc
00000040: dd99 713d db1c fa3d fc88 ec3d ab9a a8be
00000050: a32a 2b3d 5752 e73d af89 293e 50a8 133e
00000060: cc5e 87bd 586d 09bd 7911 1dbe f657 26bc
00000070: b32c 89be cf25 f43d f638 48be 122f 01be

bn.running_var f4 [32]
0.02603034 0.21301612 0.09853048 0.11192565 0.05520083 0.0043829908 0.14217682 0.076440446
0.049064755 0.0466567 0.07279593 0.06488405 0.029164253 0.11857996 0.044835273 0.015459099
0.22589621 0.022413349 0.15606242 0.13396685 0.122041695 0.110157795 0.14938784 0.017556503
0.10301205 0.2974882 0.08048124 0.02032515 0.050962165 0.26654214 0.039742492 0.06429516
00000000: 943d d53c e620 5a3e 59ca c93d 4639 e53d
00000010: 441a 623d 319f 8f3b cd96 113e cf8c 9c3d
00000020: 20f8 483d 191b 3f3d 0816 953d eee1 843d
00000030: dfe9 ee3c 0dda f23d 31a5 373d 2948 7d3c
00000040: 5651 673e 339c b73c d4ce 1f3e 9b2e 093e
00000050: fff0 f93d 699a e13d 20f9 183e a8d2 8f3c
00000060: fbf7 d23d 6050 983e 59d3 a43d ee80 a63c
00000070: b4bd 503d 3678 883e 06c9 223d 2ead 833d

fc.0.weight f4 [32, 32]
0.17664202 0.111033686 0.042709135 -0.059900045 0.03099179 0.09113392 0.07677017 -0.028480098
-0.029496852 0.19559197 -0.24691059 0.16796164 0.03220169 -0.03921508 -0.06660337 -0.19715911
-0.1210871 -0.02223179 -0.15837014 -0.029664036 -0.21127646 -0.18445064 -0.14720029 0.2013172
0.2647032 0.043992512 0.1583503 -0.0045375796 -0.14099616 -0.052672375 -0.016811725 0.06866638
-0.14520787 0.05018724 0.053256087 0.13479695 -0.2060759 0.016194453 -0.06370147 -0.037310246
-0.20259748 -0.14642295 -0.20520636 0.083348274 -0.1961158 -0.16559558 -0.21265309 0.14421932
0.093812995 0.19836153 -0.13182974 0.13273393 -0.050204914 -0.1379789 -0.08648385 0.14682022
0.07208627 -0.03921758 0.1606581 -0.07991561 0.24564777 0.10113102 0.2072417 0.21065314
0.032989018 -0.17781937 -0.16967385 0.12886105 -0.21544364 0.25283363 0.17459089 0.22182664
-0.07648874 -0.020009764 -0.040227428 -0.017986204 -0.11682139 -0.171624 -0.009507525 -0.22834267
-0.062127117 0.12909259 0.24513158 -0.011217069 0.16955931 -0.03202507 0.005624179 -0.20367777
-0.08545354 -0.01686628 -0.15496387 0.01790814 0.07155217 0.11243731 0.037895963 -0.14385985
-0.06351314 -0.05436961 0.094987385 -0.17842236 -0.1437622 -0.16201437 0.0052935216 0.05309569
-0.2095126 0.11606943 -0.13866128 0.19967917 0.01572867 -0.067585774 -0.08910269 -0.074623585
-0.116785266 -0.0022010482 -0.18777686 0.0026755775 -0.17575637 0.0021972153 -0.16922967 0.1796188
0.05779753 -0.14620489 0.038867407 -0.1053235 -0.110773794 0.19505449 -0.03977713 -0.044805333
-0.07655352 0.042823102 -0.06361982 0.075857386 -0.05363468 0.23856214 0.106167175 -0.17025681
-0.20995174 0.22902545 0.029504806 -0.013915134 0.15706412 0.23003718 -0.1669314 -0.12238485
-0.13266239 -0.16904591 0.18838042 -0.052437805 -0.083061025 0.13746852 -0.084077016 0.14775118
0.116075106 0.07865595 0.2079052 0.1894769 -0.1621428 0.00226039 0.0053169723 -0.20915501
0.029814078 0.07492058 -0.044083696 -0.23804669 -0.03204037 0.1277453 -0.11644191 -0.15660106
-0.27205467 0.06161879 -0.06509929 0.27370074 -0.110744 -0.09049309 -0.16024442 -0.09110655
-0.059631098 -0.05274223 -0.25315005 0.13698855 -0.13183138 0.031855017 -0.16681159 0.23657493
0.2697117 -0.03112095 0.078070365 0.12728451 -0.0077693034 -0.0027047347 -0.068914756 0.13416211
-0.21156202 0.002243884 -0.079702444 0.22743034 0.06829381 -0.050168958 0.108018525 0.23244797
0.1903264 -0.051638085 -0.046948433 -0.067993924 0.10375514 0.14662468 0.23075302 -0.034064174
0.20926878 0.124893695 -0.008381278 0.10280162 0.22320817 -0.07762176 0.035468865 -0.15993084
0.06923859 0.23660769 0.19018678 -0.0804028 0.24233793 -0.12531501 0.10920239 -0.05723668
0.17890258 0.13417478 0.10375435 -0.043600444 -0.044675086 -0.09775165 -0.110648595 -0.07932568
-0.13655151 0.18323171 -0.20370144 0.18475696 0.09112219 0.047279276 0.0075135864 -0.042077415
-0.1010086 0.02744703 0.016248856 -0.1553775 -0.1453103 -0.16560183 -0.12669198 -0.1559213
0.24826914 0.043907356 0.17623055 -0.046907507 -0.19674076 0.08711425 -0.0048287194 0.2369048
00000000: a5e1 343e a165 e33d c6ef 2e3d c059 75bd
00000010: 7fe2 fd3c 6ca4 ba3d ae39 9d3d 184f e9bc
00000020: 62a3 f1bc 4349 483e 21d6 7cbe 23fe 2b3e
00000030: ebe5 033d fe9f 20bd 5967 88bd 14e4 49be
00000040: 83fc f7bd 711f b6bc c82b 22be fe01 f3bc
00000050: db58 58be a1e0 3cbe acbb 16be 1926 4e3e
00000060: 2e87 873e 7e31 343d 9526 223e faaf 94bb
00000070: 4c61 10be fdbe 57bd beb8 89bc f6a0 8c3d
00000080: 5fb1 14be 2391 4d3d 0e23 5a3d 3608 0a3e
00000090: 9005 53be 3baa 843c eb75 82bd a1d2 18bd
000000a0: b775 4fbe e6ef 15be 9e21 52be 80b2 aa3d
000000b0: 95d2 48be e391 29be bbc1 59be 3bae 133e
000000c0: 0721 c03d 491f 4b3e 60fe 06be 67eb 073e
000000d0: aba3 4dbd 574a 0dbe 721e b1bd 0a58 163e
000000e0: f7a1 933d 9da2 20bd 8f83 243e ccaa a3bd
000000f0: 178b 7b3e c81d cf3d 2b37 543e 75b5 573e
00000100: 7e1f 073d 4816 36be fbbe 2dbe 27f4 033e
00000110: 429d 5cbe 6973 813e f4c7 323e 8626 633e
00000120: 21a6 9cbd 84eb a3bc 84c5 24bd ce57 93bc
00000130: 0e40 efbd 34be 2fbe 73c5 1bbc a9d2 69be
00000140: 0179 7ebd d930 043e c603 7b3e ccc7 37bc
00000150: f5a0 2d3e b82c 03bd 084b b83b e890 50be
00000160: 4402 afbd 272b 8abc d9ae 1ebe 17b4 923c
00000170: f289 923d 8845 e63d cc38 1b3d ff4f 13be
00000180: 2d13 82bd abb2 5ebd bf88 c23d 5ab4 36be
00000190: 6636 13be 18e7 25be 4775 ad3b de7a 593d
000001a0: 798a 56be cfb5 ed3d 39fd 0dbe b278 4c3e
000001b0: 69d9 803c 696a 8abd 797b b6bd 40d4 98bd
000001c0: 1d2d efbd 763f 10bb 9448 40be be58 2f3b
000001d0: 7af9 33be 28ff 0f3b 8b4a 2dbe feed 373e
000001e0: 1abd 6c3d bcb6 15be 6e33 1f3d d9b3 d7bd
000001f0: 5fdd e2bd 5dbc 473e 58ed 22bd cc85 37bd
00000200: 18c8 9cbd 4767 2f3d 1c4b 82bd 1e5b 9b3d
00000210: 0ab0 5bbd a249 743e 2d6e d93d cd57 2ebe
00000220: 97fd 56be a685 6a3e 10b4 f13c 4dfc 63bc
00000230: 6bd5 203e de8e 6b3e 11f0 2abe e9a4 fabd
00000240: a6d8 07be 5f1a 2dbe cce6 403e 06c9 56bd
00000250: e61b aabd 8cc4 0c3e 9230 acbd 164c 173e
00000260: c9b8 ed3d 5f16 a13d 1ae5 543e 3c06 423e
00000270: c308 26be 0d23 143b ff39 ae3b bb2c 56be
00000280: a73c f43c f66f 993d 1b91 34bd 83c2 73be
00000290: c33c 03bd aacf 023e 1979 eebd 075c 20be
000002a0: c04a 8bbe fc63 7c3d c752 85bd 8122 8c3e
000002b0: c0cd e2bd 7154 b9bd 1d17 24be 1296 babd
000002c0: bd3f 74bd 3d08 58bd e29c 81be ba46 0c3e
000002d0: cefe 06be 687a 023d a8d0 2abe b340 723e
000002e0: a717 8a3e 5df1 febc 5be3 9f3d df56 023e
000002f0: a495 febb eb41 31bb 2e23 8dbd cb61 093e
00000300: b7a3 58be 200e 133b 093b a3bd 80e3 683e
00000310: a0dd 8b3d f77d 4dbd d138 dd3d d706 6e3e
00000320: ece4 423e 7582 53bd 004d 40bd 6640 8bbd
00000330: 937d d43d c824 163e 854a 6c3e e086 0bbd
00000340: 8e4a 563e 44c8 ff3d a151 09bc a889 d23d
00000350: af90 643e 28f8 9ebd cd47 113d e9c4 23be
00000360: f6cc 8d3d 4949 723e 53c0 423e 39aa a4bd
00000370: 6f27 783e 9452 00be 81a5 df3d 0271 6abd
00000380: 3d32 373e 1d65 093e 297d d43d 6196 32bd
00000390: 39fd 36bd 0432 c8bd bb9b e2bd 8175 a2bd
000003a0: 29d4 0bbe 18a1 3b3e 1c97 50be ee30 3d3e
000003b0: 459e ba3d eaa7 413d 8834 f63b 5e59 2cbd
000003c0: 99dd cebd 98d8 e03c 521c 853c 481b 1fbe
000003d0: 39cc 14be 8793 29be 8bbb 01be d5a9 1fbe
000003e0: 443a 7e3e 33d8 333d c875 343e 1622 40bd
000003f0: 6976 49be f568 b23d 3c3a 9ebb 2c97 723e

fc.0.bias f4 [32]
0.02773157 0.26868677 0.15226598 0.185109 0.065218955 0.12526643 0.03527592 0.23179239
0.21241504 0.2973696 0.112988405 0.21289645 0.017778661 0.17562093 0.18203424 0.23873189
0.14401297 0.22605531 0.040992368 0.29104608 0.09182033 -0.030851157 0.11297987 0.12308492
0.31481192 -0.029234419 0.18898499 0.22886004 0.018558407 0.18638867 0.22293907 0.14310123
00000000: 512d e33c 5091 893e 9deb 1b3e 378d 3d3e
00000010: 8491 853d d845 003e 7c7d 103d fc5a 6d3e
00000020: 5483 593e d440 983e 7766 e73d 8701 5a3e
00000030: 8ea4 913c f9d5 333e 2f67 3a3e 2276 743e
00000040: 2378 133e 0b7b 673e 9de7 273d fe03 953e
00000050: 4c0c bc3d 91bb fcbc fd61 e73d f213 fc3d
00000060: 072f a13e 057d efbc 4885 413e 495a 6a3e
00000070: cd07 983c acdc 3e3e 244a 643e 2189 123e
