model/gru.pth (torch, 61304 bytes, 16 tensors)

gru.weight_ih_l0 f4 [96, 8]
00000000: 2cb5 3a3a af1f 5cbd 25b1 9f3d 14ed a03d
00000010: 6b4c 90bd 713b 49bd fc4c 083e d506 8abc
00000020: a443 20bc 37b4 7d3b 734c 25be 5105 e73d
00000030: 9a12 f63d a9c2 9bbd 4667 68bd f81b 54be
00000040: 5bf2 5d3d df56 b5bc 7a54 88bd d96f e93d
00000050: fe3e d6bc e02e 65bd 5fd2 a73b 7a76 863e
00000060: bc55 42be d751 4a3d a38c 5d3e e92d 363d
00000070: 102c 67bc 5b83 6a3d 0592 223e 89e7 1f3e
00000080: 46f2 ae3d 63e2 903e 1a10 8c3e 14de c1bd
00000090: 695e cabd 13e8 f8bd 3591 2a3e 6814 60be
000000a0: 6ac7 443d 9ada 233e 5a90 243c 21eb 053e
000000b0: 624f 383e 9e98 b03d c20d 4a3e 7f55 063d
000000c0: 7aed 393e 9d1e a5bd 0661 003e 0583 8e3d
000000d0: 9c9b 463e 7719 243e 9bad 403e b40b 213d
000000e0: 75ce a03c ab79 74be a90c 4ebd 90e3 02be
000000f0: be91 173d 3a15 17be a42c b93d 8200 e33d
00000100: 00df 213e 8887 4dbd 056b 023e 6cb8 0b3e
00000110: 401c e1bd d718 29bd 94b7 af3d 08f5 19bd
00000120: 44c8 3c3e dedb b13c 6aba 58bc ae96 8f3d
00000130: b6ee debc 5ad1 133e 3b68 933e 1ea5 c3bd
00000140: ff65 9bbd b5d6 9d3d 243a 003d df38 1c3e
00000150: 7d82 243d b936 51bd afd9 6abd faf2 98be
00000160: 3f12 f6bc 4393 5f3d 38ac 45be 1cae c939
00000170: b0e5 203d 32a5 ccbd cdcf 21be 9bbe 993e
00000180: 6c98 3e3e 0b4c a23c 93dd 913d 53fa 963d
00000190: c5ca 093e a6f1 90bd 5d20 a33d 7e47 0ebc
000001a0: a9f8 b23d 74db af3d c451 fabd 488a 3e3d
000001b0: 1677 5dbe eb3c b03c d8a9 f63d 9ce0 02bd
000001c0: ed7f 303e 5073 8cbd ea22 96bd f886 bdbc
000001d0: dcd5 693d c335 84bb d611 503d 9124 9abd
000001e0: 5928 153e 16aa 123d 5160 9b3d ff57 143e
000001f0: b3ba a8bd 2b82 3ebd bbfc da3d 0589 843e
00000200: 46a8 073e aa4c 3dbe 8d35 b73d fd3a ce3d
00000210: 6cfc 11be 0413 0cbe 43c3 29be b588 5c3e
00000220: f35d e93c 70ff ca3c 6911 91bd 0357 eb3d
00000230: c548 69bd a33d a43d 3648 6b3e 4809 4abe
00000240: d011 003d 5ab7 72be 364c 16be 769b 0a3e
00000250: ebc4 e23c ed74 40be 6947 243e 0e40 823e
00000260: 0a0c 413e 2a72 283e c964 093e b738 1f3e
00000270: 7e4c 1cbd bcb6 52bd fe8b 1e3e ae7c 85be
00000280: c237 6cbc 9f99 c63c ceb4 883d 92ab eabd
00000290: a2e2 6bbb 2212 013d bf5f e0bd 2c69 d5bb
000002a0: a678 c5bd 9db9 533d 5358 38be afa8 c7bc
000002b0: 37b4 cf3d be93 073d 18c6 dfbd 48bd 86be
000002c0: 9fa9 b3bb 1cf8 39bc 4596 973d 6920 e0bd
000002d0: 8f4a 98bd 6ddc 403d 13b8 813e ffc3 babd
000002e0: aea1 f13d 17bc cfbd 4080 3c3c 54eb 3abb
000002f0: 238c 2d3e 863e 0f3e 7dad 46bc 4f57 efbd
00000300: 0f50 473e d004 363c 77cd b13d c979 fbbc
00000310: 4b4d 673d 0a00 58bd 6ad4 093e 4000 643e
00000320: fffd b7bd 3437 a93d b958 45be 0a97 ed3d
00000330: a375 513d 4793 883c 74cf 45bd c66e debd
00000340: 79df 8c3e 25c5 663e ffc0 773d e2a7 b73c
00000350: baac 213d b6b6 043e d12d bebd 85ee 8cbc
00000360: d5a4 9c3c 802e 5dbd 1543 033e e2f6 c5bd
00000370: 1275 d73d 7dc8 5d3d 2dde a0bd 2c15 0dbe
00000380: 6cb9 383e df5c 413e 1cce aa3d 0f56 993d
00000390: 8251 f8b9 8fcc f2bd d9e5 273e 387a 273e
000003a0: 7b34 383e 0ec5 373e 102e 843e 44c7 903d
000003b0: c35b a8bd fc2f c1bd db02 5dbe 25b2 18bd
000003c0: 25f4 fc3d 9f08 103c b739 0fbe 1600 b53d
000003d0: bd77 253e 1c7c 1c3d 23d7 593e 551d 30be
000003e0: 1b84 d33d 8f9a 07be c5aa cbbd 7d5e 91bd
000003f0: 508c 0b3e d62c 94bd 8ce2 a83e b324 b8be
0.00071223336 -0.053741153 0.077974595 0.07857719 -0.070458256 -0.049128953 0.13310617 -0.01684896
-0.009781752 0.0038712153 -0.16142444 0.11280311 0.12015267 -0.07605488 -0.056739114 -0.20713794
0.054186206 -0.02213615 -0.066567376 0.11398286 -0.026153084 -0.055952907 0.0051215137 0.26262265
-0.18978018 0.049394455 0.2163568 0.044477377 -0.014109626 0.057254177 0.15876015 0.15615667
0.08542304 0.2829772 0.27356035 -0.09466186 -0.098812886 -0.1215364 0.16656955 -0.21882784
0.04804174 0.16001359 0.010044182 0.13077976 0.17999032 0.086228594 0.1973181 0.03279638
0.18156996 -0.0806248 0.12537012 0.06958584 0.19395298 0.16025339 0.18816225 0.0393178
0.019629696 -0.23874538 -0.050305042 -0.1278212 0.037004225 -0.14754191 0.09041718 0.11084081
0.15807724 -0.05017808 0.12736137 0.1364457 -0.109917164 -0.041283455 0.085799366 -0.037587196
0.1843577 0.021711286 -0.013228038 0.07011162 -0.027213436 0.1443533 0.2879046 -0.09552978
-0.075878136 0.07706968 0.031305447 0.1525607 0.040163506 -0.05107758 -0.057336506 -0.29872876
-0.030037997 0.0545838 -0.19303977 0.0003846743 0.039281547 -0.09992446 -0.15801926 0.30028233
0.18612832 0.01981165 0.0712234 0.07371964 0.13456257 -0.07077341 0.07965157 -0.008684037
0.087388344 0.08586779 -0.12222627 0.046518594 -0.21627459 0.021513423 0.12044114 -0.031952485
0.172363 -0.068579316 -0.07330878 -0.023135647 0.057088718 -0.004034729 0.05079826 -0.07526506
0.14566173 0.035806738 0.0758673 0.14486693 -0.08238735 -0.046510857 0.10692736 0.25885788
0.13247785 -0.18486276 0.08945761 0.10069845 -0.14256448 -0.13679129 -0.16578393 0.21536525
0.028487181 0.024780005 -0.07083399 0.114912055 -0.056954164 0.08019569 0.22976765 -0.19730103
0.031266987 -0.23702756 -0.1467751 0.13535866 0.027681788 -0.18794604 0.16042866 0.25439495
0.18852249 0.164498 0.13417353 0.15548979 -0.038158886 -0.0514438 0.1548309 -0.26071686
-0.014417591 0.024243174 0.06675111 -0.11458506 -0.0035993238 0.031511433 -0.10955762 -0.0065127816
-0.096421525 0.051690686 -0.18002443 -0.024372427 0.10141795 0.033099882 -0.10926455 -0.26316285
-0.005482867 -0.011350658 0.074017085 -0.10943682 -0.07436096 0.047085214 0.2533575 -0.091194145
0.11798416 -0.10143297 0.011505187 -0.0028521614 0.16947989 0.13988695 -0.012126324 -0.11686575
0.19464134 0.011109546 0.086817674 -0.03069772 0.056470197 -0.052734412 0.13459936 0.2226572
-0.08983993 0.08262482 -0.19272126 0.11601074 0.051137578 0.01667179 -0.048293546 -0.10860972
0.27514246 0.22536142 0.06048679 0.02241892 0.039471366 0.12960324 -0.092860825 -0.017203579
0.019121567 -0.053999424 0.12818559 -0.0966623 0.10520376 0.05414628 -0.07854877 -0.13777608
0.18039483 0.18883084 0.083400935 0.074871175 -0.00047362974 -0.11855423 0.16396274 0.16355217
0.1798877 0.17946264 0.25816393 0.07069257 -0.08220627 -0.094329804 -0.2158312 -0.037279267
0.123512544 0.008791118 -0.1398686 0.08837907 0.16158958 0.038204297 0.21273474 -0.1719869
0.103279315 -0.13242553 -0.09944681 -0.070981 0.13627744 -0.07235114 0.32985342 -0.359655

gru.weight_hh_l0 f4 [96, 32]
00000000: 195b 9dbd f283 2b3d 2105 8a3d 959e 1b3e
00000010: 55f2 a8be de58 183e b521 953c a683 443d
00000020: c169 9bbc d308 343e 3574 b33d 841a e9bd
00000030: 387b 8f3e 0bc6 553e 12a5 e3ba a2f0 09be
00000040: 9554 4ebd e8fa 023d 24a4 aabd 0a33 d73d
00000050: e615 dd3c e34b 27be 2765 51bd 9745 8f3d
00000060: 5ca3 a9bc 6c8d d83d f7e5 263e 3453 21be
00000070: fb6e dabd 3d92 46be 27f9 07be cd87 9abd
00000080: 6138 31bc 9731 453e 6da4 57bd fc5a 6b3e
00000090: d7f2 f03d b60f 05be 4927 1a3e 8c1d b1bc
000000a0: 2bc7 d6bd 8637 e9bd 9e31 a4be 2ffd 2a3e
000000b0: 318b cabd c332 87be 3dbf 853e 5e32 2e3d
000000c0: dc07 a03c 1e81 193e 8576 0a3e befc 6ebe
000000d0: 8e1c e23d b011 9e3b 3560 b1be bb10 72be
000000e0: 5493 69bc 1799 8c3e ff3b 1f3d 00ab c23d
000000f0: 21e6 143c eef7 b7bd ba15 5f3e d837 8ebd
00000100: 588f abbd 3d56 c5bd 83ec 83be fe08 0bbc
00000110: 9df5 443d 347a 093e e363 e1ba 7de5 14bc
00000120: 6dc1 4cbe 480a 31be eb37 f63c 12d5 22bd
00000130: 0fd5 17be 48ec 8c3d b106 693e 1fa5 1e3d
00000140: 9c5f 4dbd abf0 543c f0a8 03be e295 d53d
00000150: 579e 43be e210 f43c 5889 743e 0590 e5bd
00000160: fcd1 e3bd 87a5 9b3e 53ae 273e 5bbe f2bd
00000170: d136 833d ed27 173e 1b76 5f3e f970 603e
00000180: 2017 5dbe 2674 eabd 504a 37be 088d a2be
00000190: 30f1 e13d a4a0 d13d e32d e1bc 6e6e 37be
000001a0: 2bac b13e e889 fdbc 3d72 3a3e 974c 0f3e
000001b0: a96f 1dbc ae81 333e 3218 40be 7daa 0d3e
000001c0: 7dbd 7b3d 9e56 223e 3cbe b2bd 8e62 873d
000001d0: 0bcd 47bd e374 04be fed4 ec3c 1794 adbd
000001e0: 1b06 e03d a61e 74bd df2d 263e bafc 3a3e
000001f0: 2ea4 d23d 1407 0b3e 5d0b c5bd 7523 043e
00000200: 9a14 803d 3e55 90bd f255 1d3d 1488 913e
00000210: 2570 34bd 42eb 153e c63a d0bc 6dd8 c3bd
00000220: 591d 5a3d b42a 213e 0bbf 653d e7f8 6bbe
00000230: e159 3e3e 282e a1bd bd5f 7dbd 41be 3c3b
00000240: 1a7d 853e 2ab7 a8bd f457 81be c7fe 683d
00000250: 6508 48be a4c7 0abd de8b 133e 816b 45be
00000260: d31a 993b 06c7 24bd 3866 90bd f85a 1dbe
00000270: 5254 4e3d ed96 073e cdfa b63d eb89 853d
00000280: 5ec2 cfbd af57 a23e 36c9 ee3d 89cc 873e
00000290: ceb5 273e 249c 06be 3ddd 553e c4f5 47be
000002a0: b38f e43b 68a1 5bbe 96e9 82be 7964 a6bd
000002b0: 7ce4 dcbc a36e 903d 884e a63d 1a98 883e
000002c0: b2af 28be 46cf 4cbd ae4b 5e3e b21f 91bd
000002d0: 1af1 3a3d a9a6 4d3e 0a64 03be ebac 8ebe
000002e0: 05bb 28be 0b30 8ebd 7f4d 5d3e 7460 303c
000002f0: 6ae9 4b3e c5e2 0bbe 0b3f a0bd 16f1 96bc
00000300: 4137 3cbe e28f 0dbe 5a6f 58bc 6df6 4a3e
00000310: a5bb 02be ea1c f63c 43ef a4bd 9db0 f8ba
00000320: 158c ab3d 74b0 5e3e b158 36bc d43c 8ebd
00000330: 9086 273e 7837 b8bd ca70 5fbc ea37 bbbd
00000340: baf3 66bd d074 313e 20c2 02be dc31 c53d
00000350: 6b68 fc3d 4b23 1ebe 04fd fabd 3b8b c73d
00000360: 6a23 1a3d 81ef 04be 0157 3c3e 6b65 0b3d
00000370: d90b 853c 5e04 a33c 20d1 9fbe a6aa c23d
00000380: 03b2 8a3e baca 91bc 0634 0cbe 2793 99be
00000390: 0bc3 b5bd 6d2b b6bd de20 6dbe 4b50 593e
000003a0: 01c6 cf3c d9a4 be3d 7c39 923d 2a5b a23d
000003b0: 8c7b 9bbc 3f0e 493d ab70 4ebe aa14 383e
000003c0: 0d7e 06be 8758 d83d 295f f2bc 069d 21be
000003d0: af9f 813e b116 2e3e a61e aa3d 4cc8 d43c
000003e0: b91a c93c 655a 8d3d fe0e 0abc ae78 763c
000003f0: 7293 24bd b854 a1bd 8f74 013e cec4 763d
-0.07683391 0.04187388 0.067392595 0.15197213 -0.32997385 0.1487765 0.01820455 0.047977112
-0.018971326 0.17581491 0.08762399 -0.113820106 0.28023696 0.20876329 -0.001736792 -0.134707
-0.050373632 0.031977564 -0.083320886 0.10507782 0.026987981 -0.16337542 -0.051121857 0.06995695
-0.020707779 0.10573849 0.16298662 -0.15754396 -0.10665699 -0.19391723 -0.13278638 -0.07545433
-0.010816664 0.19257198 -0.052647043 0.22983927 0.11765068 -0.12994274 0.15054049 -0.021620534
-0.10487207 -0.113875434 -0.32069105 0.16698144 -0.0988983 -0.26405916 0.26122466 0.042528503
0.019534998 0.1499066 0.13521774 -0.23338601 0.110406026 0.004823886 -0.34643713 -0.23639195
-0.014256317 0.27460548 0.038875576 0.09505272 0.00908807 -0.08982836 0.21785632 -0.06944245
-0.0837695 -0.09635589 -0.25766382 -0.008486031 0.048085798 0.13425523 -0.0017195906 -0.009087917
-0.19995661 -0.17289078 0.03005596 -0.03975398 -0.14827369 0.068810046 0.22756459 0.03873169
-0.05014001 0.012996833 -0.12857413 0.104289785 -0.1910337 0.029793207 0.23880517 -0.1120911
-0.11124036 0.30399725 0.16375093 -0.11852714 0.0640694 0.14761324 0.21822397 0.21918096
-0.21590853 -0.11447935 -0.17899442 -0.31748223 0.11032331 0.10235718 -0.0274877 -0.1791322
0.34701666 -0.030949548 0.18207641 0.1399406 -0.009609141 0.17529938 -0.1875923 0.13834567
0.061460007 0.15853354 -0.087276906 0.06610595 -0.04877953 -0.12935214 0.028910156 -0.084755115
0.109386645 -0.05959954 0.16228436 0.1826047 0.10285221 0.13576919 -0.09621308 0.12904151
0.062539294 -0.07047509 0.038412042 0.28424132 -0.04405226 0.14640525 -0.02541865 -0.09562764
0.053250644 0.15738946 0.056090396 -0.23044167 0.18588974 -0.07870132 -0.06185888 0.0028799924
0.26072007 -0.08238061 -0.25262415 0.0568836 -0.19534452 -0.0338818 0.14408824 -0.1927929
0.004672387 -0.040228866 -0.07050747 -0.15366733 0.050373383 0.13241167 0.08934555 0.065204464
-0.101444945 0.31707522 0.11659472 0.26523235 0.16377947 -0.131455 0.20885177 -0.19527346
0.006975138 -0.2144829 -0.25568837 -0.081246324 -0.026964419 0.07052352 0.081204474 0.26678544
-0.16473272 -0.05000236 0.21708557 -0.070861235 0.04564009 0.20083107 -0.1283113 -0.278663
-0.16477592 -0.06942757 0.21611594 0.010765184 0.19913259 -0.13660724 -0.078245245 -0.018425506
-0.18380453 -0.13824418 -0.013210142 0.19820566 -0.12766893 0.030043084 -0.08053448 -0.0018973533
0.08376328 0.21746999 -0.011129544 -0.06945196 0.16359925 -0.08994955 -0.013637731 -0.09141524
-0.05638478 0.17329717 -0.12769365 0.096286505 0.12324604 -0.1544315 -0.1225529 0.09743353
0.03763143 -0.12981988 0.18392564 0.034032267 0.016241001 0.019899543 -0.31214237 0.09505205
0.27088937 -0.017796863 -0.1369172 -0.2999508 -0.08875092 -0.088950016 -0.23157069 0.21222036
0.02536297 0.09308786 0.071398705 0.079275444 -0.01897981 0.04908585 -0.20160167 0.17976633
-0.13134022 0.1056376 -0.029586392 -0.15782556 0.2531714 0.17000844 0.08306627 0.025974415
0.024548875 0.06902007 -0.008426426 0.015043421 -0.040179677 -0.07877487 0.1264212 0.06024628

gru.bias_ih_l0 f4 [96]
00000000: c494 e63d 8a35 803e a2ed 073e d672 963d
00000010: ec27 3d3d 8f59 f2bc 52b8 ba3d 1db0 24be
00000020: 2660 003e b3f0 8abd 06b3 0e3e ac4c de3b
00000030: 2c94 c93d b825 583e 95da 3bbd 553c 3c3e
00000040: f442 30bd bab4 123e 2d11 443c 792d 1f3e
00000050: e16a 583d 1322 583e dc66 513d 9fd0 933d
00000060: 4875 9e3d 9ebf fd3d 3183 133e 524d 3cbd
00000070: 8c7a 8b3c 60e3 1f3e 9550 0abe 3d9b de3d
00000080: e63e 433d bf8b 9b3d 85b0 1cbe 6e62 5cbe
00000090: d4bc 7f3e 42e9 f9bd f6e5 323e dcd2 a83c
000000a0: 728c b4bd 37b6 5b3d 15ed b7bd c51b 8ebc
000000b0: 803d abbd 3ddc e0bb 979a 9c3b df86 673d
000000c0: c556 e9bc 1c4c 11be 65d8 df3d ec5e 373e
000000d0: 9a66 ffbb faca 98bc f659 833d b4dd 063d
000000e0: 4125 a73d 0248 36bd 1c80 553e 5b1d 2f3e
000000f0: 5852 20bd 135c 393e 904a 87bd 76bf 803d
00000100: 7384 b8bd 1521 033e e695 29be 9464 673d
00000110: 1954 073e 9742 16be 105e e43b d14a 153e
00000120: 5acd 113a 1535 463a 1e0c a63d faf1 9cbd
00000130: 4594 3bbe 28f8 b7bc 7ac7 593c 8109 353e
00000140: 7b85 8bbd 2143 13be 5194 853e c877 81bd
00000150: 0f62 eebd 7dc7 1e3e d689 debd 88a1 083e
00000160: da6d 7cbd e81f 81bd 80d2 dcbd 9047 0c3e
00000170: 0ef4 b3bc 00c7 9cbd e963 143c 6bea 2cbe
0.112588435 0.25040847 0.13274243 0.07346122 0.04618065 -0.02958372 0.091171876 -0.16082807
0.12536678 -0.06784191 0.1393548 0.0067840423 0.09842715 0.21108139 -0.045862753 0.1838239
-0.0430326 0.14326754 0.011966986 0.1554469 0.052836303 0.21106748 0.051123485 0.07217526
0.077372134 0.12390064 0.14405514 -0.045972176 0.017026208 0.1561408 -0.13507302 0.10869453
0.047667406 0.07595014 -0.15301712 -0.21521923 0.24974376 -0.122026935 0.17470536 0.020608358
-0.0881585 0.05364057 -0.08980767 -0.017347226 -0.083613396 -0.006862192 0.0047791707 0.056525107
-0.028483758 -0.1418919 0.10929946 0.17907304 -0.0077942135 -0.018651474 0.06413643 0.032926276
0.081614025 -0.044502266 0.20849651 0.17101042 -0.03914103 0.1810153 -0.066060185 0.06286518
-0.09009638 0.12805589 -0.16561088 0.056492403 0.13215674 -0.1467384 0.006969221 0.14579321
0.0005561911 0.00075610104 0.0810778 -0.07663341 -0.18318279 -0.022457197 0.013292188 0.17679407
-0.06812569 -0.14381076 0.2608972 -0.063216746 -0.11639797 0.15505786 -0.10866134 0.1334287
-0.0616282 -0.06304914 -0.10782337 0.13699174 -0.02196696 -0.07655144 0.009057024 -0.16886298

gru.bias_hh_l0 f4 [96]
00000000: 30df b23c 415e ab3d 0351 1e3d d22c 1d3e
00000010: cf07 9abc 182e 47bc c42e 173e 2f5c efbb
00000020: c013 adbd bb9c 3ebd 15c5 a93d 4507 bf3d
00000030: 546d 5a3e 28f0 063e a8e5 0d3e 39e7 bcbd
00000040: ce31 18be 0d1e f03d d9e8 973d c135 b2bc
00000050: 7535 04bd a0a3 0f3d 4d08 1f3e 9b5b 45bd
00000060: c1f9 bdbd 12b4 0b3e ca81 083d 6150 40be
00000070: 058c f0bd 1b08 33bd 7409 42bd 9cfc 33bd
00000080: b33f b5bd 0a6f 213d 69c6 39be 5a43 823d
00000090: 0e60 313e c8bf 31be 5b75 9d3d 5597 103e
000000a0: da10 92bc 101c 5d3d 8b69 fb3d 9fd2 183e
000000b0: fd4f a1bc 7cb5 3a3d 59da 26be 5841 71bb
000000c0: 527f 5d3d 1b04 733b 2af9 64bd e9b7 acbd
000000d0: bae4 9c3d ffb9 91be 238f 293e 9f49 e13d
000000e0: 2dc9 bd3d b167 70bd ba4a 89bd e077 423d
000000f0: c941 22be 6059 d93d 706a 83bd c5eb 3a3e
00000100: f5fd 0dbe de85 3f3e 2f16 13be 92fa 60be
00000110: 0a40 24be 418b ca3c 8b7e 893c ed7d 403d
00000120: 02e5 a63d ca2d c9bb 1c72 47be c631 713e
00000130: 7cea c73d 972a 5cbe d914 42be bb88 9c3d
00000140: b7cc 263e 40cf 363e 76a2 f63c d509 113d
00000150: b6a3 7dbe f9e1 ac3e f5bb 163e faf9 10bd
00000160: 1d32 31be 1de8 8fbb f36d b6bd ad9c 843c
00000170: e700 acbd ded3 6fbc c0e5 2ebe 34b9 00be
0.02183494 0.08367587 0.038651478 0.15349129 -0.018802552 -0.012156986 0.14763933 -0.0073046903
-0.08451033 -0.04653619 0.082895435 0.093275584 0.21330768 0.1317755 0.13857138 -0.0922379
-0.14862749 0.11724482 0.07417459 -0.021754147 -0.032277543 0.035068154 0.1553051 -0.048183065
-0.092761524 0.1364291 0.0333269 -0.18780662 -0.117454566 -0.0437089 -0.047372296 -0.04394208
-0.0885004 0.039412536 -0.18142094 0.063605025 0.17321798 -0.17358315 0.076883994 0.14120229
-0.017830301 0.05398184 0.1227599 0.14924096 -0.019691462 0.045583233 -0.1629423 -0.003681263
0.0540765 0.0037081304 -0.055901684 -0.084335156 0.07660814 -0.28462216 0.16558509 0.1100037
0.09266887 -0.058692638 -0.06703706 0.047477603 -0.15845408 0.1061275 -0.06416786 0.18254001
-0.13866408 0.1870341 -0.14363931 -0.21970585 -0.16040054 0.024724605 0.016783973 0.046995092
0.081491485 -0.0061394917 -0.19477123 0.23554143 0.09761521 -0.21500622 -0.18953265 0.07643267
0.1628903 0.17852497 0.030106764 0.035409767 -0.24769482 0.33766153 0.14720137 -0.035394646
-0.17304273 -0.0043916837 -0.0890769 0.01618799 -0.083986096 -0.014637915 -0.1707983 -0.1257065

gru.weight_ih_l1 f4 [96, 32]
00000000: da0b fbbd 60b5 64bd a394 5bbe 02a9 273e
00000010: 78a1 07be 73b8 e63d b194 24be 3b3d cabb
00000020: a624 5abd 03a5 98bb de35 583d 2b56 88be
00000030: cdfa 343e fb25 953e 0109 abbd d83d 533d
00000040: 6a66 2ebd 8252 8ebc 3460 2bbd f775 02bd
00000050: 9639 8a3d 1551 90be 9f0a 433e 670c edbd
00000060: c7f6 f9bd aa8d 3f3d 5d42 98bd a3e1 b83c
00000070: 9536 b2bd 748e db3d 26a4 46be 9a76 76bb
00000080: 37d0 b7bd 0ff6 da3d c216 0fbe 6127 563d
00000090: ca4a 92bb d523 b2bc ba08 823d 7207 fabd
000000a0: 15a8 b8bc 1a0d 393e 42d8 1bbe 542c cdbd
000000b0: af6e 5e3e 9849 6c3e 7939 b83d a843 403e
000000c0: 1c51 563e a844 8dbd 3b53 cf3c c92e 70be
000000d0: dc04 2d3e 6fe0 ddbd 3057 113d c160 f53d
000000e0: 0866 15be 7c8f 963d 970d 47bd 63a3 c5bd
000000f0: 1709 063d 1113 52bd 8d72 2b3e 38d6 5a3d
00000100: f4d7 9d3c 2876 8fbc 61a3 d63c 099b 6e3e
00000110: e293 07be 273a 9e3d db91 6e3c 0d1c 45be
00000120: 0981 11be 0e1d 153d b918 823e 1aff c6bd
00000130: 9861 7ebd 0204 a63e f0e9 a4bd 4b0e dbbd
00000140: b2cb 8a3d d568 88bd 0f0b abbe bbee 1eba
00000150: dd3e 74bd 4286 90be 8e9e 7f3e 8880 5b3d
00000160: 0361 803d 9a32 053e ef4b e9bb 9e9e 62be
00000170: 784e 0bbe b705 803d db6a 353d 6263 283e
00000180: 5480 143e 4415 48be fae0 45ba 9d03 c43c
00000190: 88c9 45be b5df 553e ba56 de3d 4a52 cb3d
000001a0: 4250 75bd c595 4c3e 1a0f afbd 2478 3d3d
000001b0: 69ef 8c3e 76a5 503d 71e0 833e 7d63 183e
000001c0: b539 c53d 7bd1 5e3d 360c dcbd 95ea 13be
000001d0: e5fd 663e 623c 2f3d dc91 213e c3a4 9e3d
000001e0: f3c8 843c 43f0 9e3d ed0b 1c3e 1045 923b
000001f0: a04f 8f3e 9606 90be 85dd d73d 16b5 07be
00000200: 23e2 fcbd 1ca6 3abe 8d67 2abe 3ed5 0e3e
00000210: 5b52 79bd 26de 95bd 63ef 59bd 3540 96be
00000220: 7581 c7bc e942 e43c 80d6 543e 2026 6bbe
00000230: 6a83 ee3d f849 9f3d 0986 1bbe 8d9e 063e
00000240: de0c 523d c5fa 4f3c 4a8d 1fba 8396 1dbd
00000250: d323 c1bd 3e8b 94bd e9a1 2d3c 9b51 2cbd
00000260: 64dd 8bbd de6d 3e3e 0a61 a1bd 0c83 bdbd
00000270: 6130 f93d d1cc 92bd 29ae 083d e4cd 283c
00000280: 9315 53bd 4d97 3b3d a1e3 903d 95fe 863e
00000290: d6e9 c6bd 7e3d 4e3e 64ae 5b3e e37e 893c
000002a0: df53 983d 30bd 6c3e 933b 413d 505a a2bd
000002b0: 8b79 ac3e da9a 2e3e 61a7 983c c002 37be
000002c0: 1201 933d 4e6e a23d ed2a bfbd e37a ba3d
000002d0: 2c27 bf3d afe8 51be c12f 95bd 0f9d 4a3d
000002e0: 7ca6 d93d 88a8 11bd 9380 243d 027a 033e
000002f0: 82a5 b73c dc27 24be 59af 1c3e 12df e23d
00000300: 86ea 83be a671 78be 3b8e 343c f78d 0a3e
00000310: e459 fabc 2531 6c3e b4fa 373c 0502 a0be
00000320: b989 2a3d 6e4f 09be c4f2 643e fb28 acbd
00000330: 2a7e aa3d e00c 79bc 67f0 0a3d 7d7c 9d3d
00000340: 49a9 c03d 0dd0 2a3e c72b 65bd 05b0 863e
00000350: 0647 07be 144b 98be ebd4 373e 87cc 163e
00000360: 9d12 d4bd 6ca2 3abd 2717 7fbe 745c 66be
00000370: a7c6 24be 1ad3 b0bd 892f 8a3d 8bc5 923e
00000380: 3815 0ebe b292 d6bd 2fdb ff3d 5916 d83e
00000390: 1f2f 2d3d 0db5 bbbd 7fea bebc 55bf 56be
000003a0: bf45 bfba b65d e2bb ea1d a73a 7e82 75be
000003b0: 2af9 cd3d fcbf 86bd 23ca 213e 0582 a8bb
000003c0: 1aab 6b3e 0dfa 803e 9c43 25bd f51c f2bc
000003d0: 2639 d1bd a993 d1bc 26c1 90bb 1bcf bf3d
000003e0: fb0f 88bc 66b6 c8bd 6925 d93c 42f4 213c
000003f0: 1817 e5bc 1cc5 58be bfbb 07be 2630 3b3c
-0.1225812 -0.055837035 -0.21443419 0.16373065 -0.13245189 0.1126565 -0.16072346 -0.00617185
-0.053257607 -0.004658343 0.052785747 -0.2662824 0.17673798 0.2913054 -0.08351327 0.05157265
-0.04257814 -0.017373327 -0.041839793 -0.03185078 0.06749265 -0.2818686 0.1904702 -0.11574631
-0.12205272 0.04676596 -0.07434533 0.02256853 -0.08701817 0.1072053 -0.19398555 -0.0037607313
-0.08975261 0.10691463 -0.13973525 0.05228365 -0.004464482 -0.021745602 0.06349321 -0.12208451
-0.022541085 0.18071404 -0.15219215 -0.100182205 0.2172191 0.23074949 0.08995337 0.18775809
0.20929378 -0.06897861 0.025308242 -0.23455347 0.16896385 -0.10833823 0.03548354 0.11981345
-0.14589703 0.07351586 -0.048596945 -0.09650304 0.032723513 -0.051287714 0.16742916 0.05342695
0.019268014 -0.017512396 0.026200952 0.23301329 -0.13240007 0.077259354 0.014561142 -0.19248982
-0.1420938 0.03640466 0.25409487 -0.097166255 -0.06210479 0.32424933 -0.080524325 -0.106960855
0.06777133 -0.0666062 -0.33406875 -0.00060627953 -0.059630264 -0.2822743 0.24962828 0.053589374
0.062685035 0.13007584 -0.0071196477 -0.2213082 -0.13604152 0.0625109 0.04429136 0.16444162
0.14502078 -0.19539362 -0.0007548478 0.023927504 -0.1931516 0.20886119 0.108563855 0.09927805
-0.059890993 0.19979008 -0.08547802 0.046257153 0.27526405 0.050939046 0.25757173 0.14881702
0.09630147 0.054398995 -0.107445166 -0.14444955 0.2255779 0.042782195 0.15778297 0.077462696
0.016209101 0.0776067 0.15238924 0.0044637993 0.27990437 -0.28130025 0.10540298 -0.13252673
-0.1234782 -0.18227428 -0.16641064 0.13948533 -0.060869556 -0.07317762 -0.053206813 -0.2934586
-0.024353722 0.027863936 0.2078495 -0.22963762 0.11646159 0.0777778 -0.15187849 0.1314642
0.051281802 0.012694065 -0.00060864224 -0.038473617 -0.09430661 -0.07253121 0.010597684 -0.042070013
-0.06829336 0.18596599 -0.07879837 -0.09253511 0.12167431 -0.07167972 0.033369217 0.010302994
-0.051534247 0.04579859 0.07074667 0.26366106 -0.097125694 0.20140645 0.21453243 0.016784137
0.07437872 0.23119044 0.047175955 -0.07927382 0.3368648 0.17051259 0.0186345 -0.17872143
0.071779385 0.07931195 -0.09334359 0.0910547 0.09333643 -0.20498918 -0.07284499 0.04946619
0.106274575 -0.035561115 0.04016168 0.12839511 0.022417787 -0.1603083 0.15301265 0.110777035
-0.25764865 -0.24262103 0.0110202385 0.13530718 -0.030560441 0.23065622 0.011229206 -0.3125154
0.04163525 -0.13409206 0.22358233 -0.08406254 0.08324845 -0.015200824 0.03392067 0.0768976
0.094072886 0.16680928 -0.055949952 0.26306167 -0.13210687 -0.2974478 0.17952316 0.14726458
-0.10355113 -0.045565054 -0.24911176 -0.22496206 -0.16091405 -0.086340144 0.06747348 0.28666338
-0.13875282 -0.10477199 0.12492978 0.4220455 0.042281266 -0.09165392 -0.023305176 -0.20971425
-0.001459293 -0.006908144 0.0012750004 -0.2397556 0.1005729 -0.06579587 0.15799765 -0.0051424527
0.23014489 0.25190774 -0.04034768 -0.029554823 -0.10215978 -0.025583105 -0.0044175563 0.09365674
-0.016609183 -0.09800415 0.026507096 0.009884896 -0.027965114 -0.21168941 -0.13255213 0.011425054

gru.weight_hh_l1 f4 [96, 32]
00000000: e006 063e ceb0 97be 0187 cc3c 7019 ce3d
00000010: e0f8 9bbd 93e0 efbc 6baf 45be 9df9 b5bd
00000020: 6a0d 083e 2767 02bc b1c6 d3bd 005f 383d
00000030: f78f 00be 2b5b 213e 1236 10be d4cc 26be
00000040: 1d0d a63b 5c7d 853e 3064 843d 140f 223c
00000050: bd7f 62be 7a3c a3be 5f38 0b3e bd16 103e
00000060: a442 253e 0f4c b6bc af60 803d 756f 84bc
00000070: b07e 35bd f17b d63d fbbc 0fbe 7dc6 02be
00000080: b3a5 a23d ad37 273e fbd1 2b3e 2af3 e43d
00000090: 166b 6abd 9568 08be 7429 8c3d b821 a0be
000000a0: 0a0d 48be 948f 00bc ca09 ddbd c3b5 a5bd
000000b0: 4e3e 34bb 353c 96bd 9fc3 06be be81 0e3d
000000c0: 3fea 87be 02ae 56be 9ee2 32be 29dd 4abe
000000d0: 8473 33bd ef32 b13d 047b 84bd 6a1a 813e
000000e0: aef2 f1bc ec5f af3c 6704 5d3e 2ab8 203e
000000f0: 7e5c 8139 812b 80be 8a34 27bd b628 c83d
00000100: 3b57 0b3e 114b 00be 1600 43be 4a48 e63c
00000110: d76d 35bd c4ad 9b3d 4d5e 96bd a0bd aabd
00000120: a7b9 83bb 26c0 4fbe 9fa5 f93c 8191 b13d
00000130: bcde c7bd 6dd4 5d3e 8250 94bd 9e98 0dbe
00000140: fc68 b7bd efb7 ac3d 4930 a13d f04c 4e3e
00000150: d183 003d 2297 c7bd f3d3 2cbe dcee f83d
00000160: ea22 b23c 7a00 7e3d 7745 89bd 5698 15be
00000170: ddb5 22be 2a8b 6d3e e1d9 74be ef19 04be
00000180: 7a47 8dbd f79d 5e3d c308 613b 57c3 b23d
00000190: 0ba9 c43d 9dda 75bd b0fb 053e c2ec 06bd
000001a0: 6926 56bd d0ef 0b3d d92e a1be c4ec 5e3c
000001b0: 695c c63d 20b2 893d 425d 803c 9dba e33d
000001c0: 4876 38be b33d 863b 29de d5bc a6f2 b53c
000001d0: 7be6 6e3c 2129 8dbc 5e14 79be 961b 913e
000001e0: f316 23bd 1101 4ebd 555e 343e 08b1 92bd
000001f0: 87f3 6a3c ed33 e5bd 4725 8fbe 17c6 42bc
00000200: 6a4b 793e 7df6 58be 2da4 b03d f63e 46bd
00000210: 8961 1ebe 8cb8 903b 81af 87bd 58a8 42be
00000220: 8111 1a3e b6c2 1bbe 2482 f53d 0fd1 25be
00000230: 1899 dbbd 1ded 3b3e 5ad4 66be 3969 efbd
00000240: ffbb 8bbd 0366 6c3d b331 9cbd 08b7 003d
00000250: 12f6 8d3d 1290 86be 5dc2 503e 396f c2bd
00000260: c04a 9abd 4ba3 55bd 5700 603d 3db0 c6bb
00000270: e8bd 203d 413f 283e f9c4 eabd 3a09 de3d
00000280: 93b9 e83c 30df 693d b059 4abd 0976 96bd
00000290: 4881 813e d322 b3bd 4b7f 263e c61c cd3d
000002a0: f9bc ab3c 0c4d 223e 114f 59bd 744d 5a3e
000002b0: 1794 1f3d 70b0 743d 1e48 cd3d e9fd 50bc
000002c0: 8a36 603e bafe 77bd 2e0f 433d 344a 3ebd
000002d0: 9941 c7bd 43a6 523e b147 14be e278 823e
000002e0: 2cdf 62be 0564 c2bc 6502 c4ba d175 fabc
000002f0: 2c7f 09bd 5d9a 193c 7321 77bc 8daa 0bbb
00000300: c221 c8bc 1810 2fbe dbca 8bbe d191 ca3d
00000310: 6569 52be 0496 cfbc e6af dcbd 6433 7f3d
00000320: e751 c13d 6a22 94be 9159 b93d 3529 d13d
00000330: e2fc f3bd a68f 01be 0959 9d3b d797 2dbe
00000340: e45f 8fbd c7f4 cc3b a9cc d03d 4ccc dc3c
00000350: 763a babc c24f 8ebe 2ebe 5d3d d295 cabc
00000360: 8bc0 213e c81a bb3e b3ed 383c 8169 87bd
00000370: 61b0 52be eeb9 e93d 70e0 943d 6a03 603d
00000380: 100f 0b3c fc94 2ebe 8c61 083e 951e 723d
00000390: 37ce 48bd 2957 15be 2a8a 9dbd abd0 b6bd
000003a0: 124e af3d 48c7 2cbe 7d5a 50bd 62f8 c13d
000003b0: 8543 8f3d 41ef c03d 594f 023e 5e48 41bd
000003c0: ff49 333d ccd9 6ebd ecc6 88bd f646 563d
000003d0: 5927 d63d 713a 83bd 405e 6ebd 0a06 8c3d
000003e0: 9ea5 253d 41f0 3c3e d95c cabd 2fdf 4a3e
000003f0: 6f84 2dbe 5204 433e 2732 79bd 5f92 f4bc
0.1308856 -0.2962708 0.024966719 0.100634456 -0.076158285 -0.02928189 -0.19305198 -0.088855006
0.13286367 -0.007959164 -0.10340632 0.045012474 -0.12554918 0.15757434 -0.14083126 -0.16289073
0.005067481 0.26072204 0.06464422 0.00989129 -0.22119041 -0.31882077 0.13595723 0.14071174
0.16138703 -0.022253064 0.06268441 -0.016166428 -0.04431027 0.10472859 -0.14036934 -0.1277103
0.07941761 0.16329832 0.1677932 0.11179192 -0.05723103 -0.13321145 0.06843844 -0.31275725
-0.19536224 -0.007846732 -0.10792883 -0.08091309 -0.0027502957 -0.07335702 -0.13160561 0.0347917
-0.26545903 -0.20964816 -0.1746926 -0.19810928 -0.043811336 0.08652293 -0.06468776 0.25215465
-0.029534664 0.021408044 0.2158371 0.15695253 0.0002467371 -0.2503319 -0.04082159 0.0977339
0.13607495 -0.12528636 -0.19043002 0.028110642 -0.044294205 0.076015025 -0.07342205 -0.08336949
-0.004019934 -0.20288143 0.030474482 0.08670331 -0.0975928 0.21663065 -0.07241918 -0.1382775
-0.08955571 0.0843352 0.07870538 0.20146537 0.03137571 -0.09745623 -0.16877727 0.12154934
0.021745164 0.062012173 -0.067027025 -0.14608893 -0.15889688 0.23197618 -0.23911239 -0.12900518
-0.06898399 0.054349866 0.0034337498 0.08728664 0.09602555 -0.06002294 0.13084292 -0.032940634
-0.052282725 0.03416425 -0.31481054 0.013606254 0.096855946 0.06723428 0.015669469 0.11119578
-0.1801387 0.0040967106 -0.02610691 0.02221043 0.014581318 -0.017231526 -0.24324176 0.2834136
-0.039816808 -0.050293986 0.1761411 -0.07162672 0.014340288 -0.11191545 -0.27958128 -0.011888049
0.24345174 -0.21187778 0.08625064 -0.048399888 -0.15466894 0.004416531 -0.066252716 -0.1900953
0.1504574 -0.15210995 0.11987713 -0.16193031 -0.1072256 0.1835217 -0.22541943 -0.116899915
-0.06822967 0.057714473 -0.07626667 0.031424552 0.069317 -0.26281792 0.20386644 -0.0949387
-0.07533789 -0.05215768 0.054687824 -0.0060634897 0.03924361 0.1643038 -0.11463351 0.108416036
0.028408801 0.057097614 -0.04940194 -0.07346732 0.25293946 -0.087468766 0.16259496 0.10015254
0.020964133 0.15849704 -0.05305392 0.21318609 0.03895959 0.059738576 0.10023521 -0.012755849
0.21895805 -0.06054566 0.0476219 -0.046457484 -0.09729309 0.20571236 -0.14480473 0.2548285
-0.22155446 -0.023729334 -0.0014954327 -0.030573757 -0.033568546 0.009375182 -0.0150836585 -0.0021311373
-0.02443016 -0.17095983 -0.27303204 0.098910935 -0.20548017 -0.025340088 -0.107757375 0.06230487
0.0943945 -0.28932506 0.090502866 0.10212938 -0.11913468 -0.12652454 0.0048018736 -0.16952454
-0.070007116 0.0062547657 0.10195286 0.026952885 -0.022732954 -0.27795225 0.054136448 -0.024729643
0.15796106 0.3654387 0.011287141 -0.0661192 -0.20575096 0.114124164 0.072693706 0.054690756
0.008487478 -0.1704902 0.13318461 0.059111197 -0.049024787 -0.1458403 -0.07692368 -0.08926519
0.085598126 -0.16872895 -0.050867546 0.094712034 0.069953 0.09420634 0.12725581 -0.047188155
0.04377174 -0.058313176 -0.06678566 0.052313767 0.10456724 -0.06407631 -0.058195353 0.06837089
0.040441148 0.18451025 -0.098809905 0.198117 -0.1694505 0.19044617 -0.060838845 -0.029854951

gru.bias_ih_l1 f4 [96]
00000000: d739 8b3e 15ef c0bd 1280 193d 7d6c 083c
00000010: d586 643e b9cb 5b3e 70c4 893e 4320 5c3e
00000020: dcfb ba3d e05e b8bd 520b ab3d 4d49 97bc
00000030: 650f e63b 79d8 1f3d b832 a73d fc23 a0bd
00000040: cb2b 243e e787 233e 16bf c63d 897e 76bd
00000050: 4100 e73d 8518 e43c 5403 f4bd a98d c93e
00000060: b34b 763e 9210 c73d 74eb c83c 0dfa de3d
00000070: 6e5d 4b3d 6a10 08ba cefa 3f3e 2020 b6bd
00000080: 6a6e 523e 266a 243e 4693 81bd cd42 b5bb
00000090: f867 c5bc a7f2 2c3e ba89 52bd cdb5 673e
000000a0: de32 1b3e 621c dd3d cfe8 dd3d 5f0b 843d
000000b0: 148b c53c bd31 cbbd dd85 173e 90ce bcbb
000000c0: 38a7 963d 1d78 5dbc 0368 f53d eb9f 743d
000000d0: c8c7 9cbd 7efb 9dbd bf74 cb3d 777e 34bd
000000e0: 293e febd aaef 253d a351 f33d c3f3 693d
000000f0: d8aa 013e d425 a73d 9e73 9dbd c3ae 833d
00000100: 057b 123e 9cdd a4be b8ba d9bd 6ca9 0c3e
00000110: bbba b43d 3700 d3bc 73a2 9b3b 28a9 2a3d
00000120: ec7b f4bc 89a3 23bd 37f1 bdbd d45f c5bd
00000130: d18e cc3d c76e 3b3e c0ca f23c 2b85 ba3d
00000140: c1eb 483c b57a 35bd 1a67 31be d4b5 cc3d
00000150: b331 2f3d a7fa b1bd d492 b3bd a722 ea3d
00000160: 9667 cb3d 1b25 883e 1fe1 3ebd 1f61 b93d
00000170: cf41 84be 7e99 f3bc e3e6 183c df69 3abe
0.27192566 -0.09420601 0.037475653 0.008326647 0.2231706 0.21464433 0.26907682 0.21496682
0.091300696 -0.09002471 0.083517686 -0.01846757 0.007020878 0.039024804 0.08163971 -0.078193635
0.1603233 0.15969811 0.097044155 -0.060179267 0.11279345 0.027843723 -0.11914697 0.3936589
0.24052314 0.097199574 0.024526335 0.10887537 0.04964965 -0.0005190434 0.18748018 -0.08892846
0.20549932 0.16056117 -0.06326918 -0.005531645 -0.024097428 0.1688944 -0.051400878 0.22627945
0.15156123 0.10796429 0.1083542 0.06447481 0.02411417 -0.09921596 0.14797159 -0.005761929
0.07356113 -0.013517407 0.11982729 0.059722822 -0.07655293 -0.07713984 0.09934377 -0.04406592
-0.124142 0.040511765 0.11880805 0.057117235 0.12662828 0.08161512 -0.07688068 0.064298175
0.1430474 -0.32200325 -0.10631317 0.13736504 0.088246785 -0.025756938 0.00474959 0.041665226
-0.029844247 -0.03995088 -0.09274524 -0.096374184 0.099881776 0.18303977 0.029637694 0.09107431
0.012263239 -0.044306476 -0.17324486 0.099956185 0.042772006 -0.08690386 -0.087682396 0.11432391
0.09931867 0.2659081 -0.04660141 0.090517275 -0.25831458 -0.029736277 0.009332391 -0.18204449

gru.bias_hh_l1 f4 [96]
00000000: 69d2 663e 2a9c f4bc 038b d63d d5e3 1a3e
00000010: 2204 413e 5045 403d 8f85 803e be75 733e
00000020: f73d 353e dbfe 7ebb 35ee 403e 6cad 5e3e
00000030: 2f15 933d 646c 8a3e f95f e13d 8678 433e
00000040: 17bd 2d3e 6976 c3bd 0e81 e8bd 1534 833e
00000050: 4d30 b9bb ba4b 803e 1105 1c3e f023 0d3e
00000060: d1ae 36bd e778 9d3e a7e2 a33e 167c 873e
00000070: 95ac e33b d8b3 403e 8663 f23c 837c 86bc
00000080: 9be7 03bc 9a88 ddba 0663 cebd 9b23 493d
00000090: f2b7 62bd 4435 1dbc b382 2a3d 6010 4c3e
000000a0: 837b 993d 1a49 6b3d d11c a0bd 8ba5 04be
000000b0: 4f88 8f3d bb18 5cbd 0e5c 1abd 0090 7e3d
000000c0: 60c3 e9bd 989a d33b 5052 613e 765e bd3d
000000d0: d9d5 4d3e 20b4 98bd 35b0 573e dc88 253d
000000e0: dcbe babd 2b04 703d a7cd c7bd ff84 e2ba
000000f0: 2756 d53d eb24 3d3d 07fb 423d 0ef8 103e
00000100: e452 f63e e88d 373b 8e04 48be c3c0 01be
00000110: a384 0cbe f939 2c3c 0cef 2bbe f8f5 323d
00000120: 0085 873e 08a5 01be 4758 74bd 366d 993d
00000130: 975d e03c d352 753e 8dbc 753c 52df 61be
00000140: 9095 38bb 79ce 4e3e 4db8 f13d 9cd8 41bc
00000150: 7be3 1bbe 9643 6cbd dc8d 15bd 3589 e43d
00000160: e9d8 15be 18dc 983d 91ec e93c f8f4 d4bd
00000170: e256 703d 9fc5 8f3e 7d51 fd3d a450 2d3e
0.22541203 -0.029859621 0.10475733 0.15125974 0.18849233 0.0469411 0.25101897 0.23775384
0.17699419 -0.003890923 0.18840869 0.21745843 0.07181775 0.2703582 0.110046335 0.19088945
0.16966663 -0.09544069 -0.1135274 0.25625673 -0.00565151 0.25057775 0.15236308 0.1378324
-0.04460031 0.30756304 0.3200886 0.26461858 0.0069480636 0.18818605 0.029588472 -0.016416794
-0.0080508245 -0.0016901672 -0.10077481 0.04910622 -0.055351205 -0.009595219 0.04162855 0.19928122
0.07494261 0.057442762 -0.07817996 -0.12953775 0.07008421 -0.053734522 -0.037685446 0.062149048
-0.11414218 0.006457638 0.22004056 0.092465326 0.20101108 -0.07456231 0.21063311 0.040413722
-0.09118435 0.058597725 -0.09756022 -0.0017282068 0.10416823 0.046177786 0.04760268 0.14157125
0.48110116 0.0028008167 -0.19532987 -0.12671189 -0.13722472 0.010511869 -0.16790408 0.043691605
0.26468658 -0.1266061 -0.0596545 0.074915335 0.027388377 0.23957376 0.014998567 -0.22057846
-0.0028165318 0.2019595 0.11802731 -0.011831429 -0.15223496 -0.057681642 -0.03651224 0.11158983
-0.14633526 0.074638546 0.028555186 -0.103982866 0.058676608 0.2808046 0.12369058 0.16925293

bn.weight f4 [32]
00000000: 5dbe 583f e0eb 4e3f 2bdb 613f 2f1c 533f
00000010: a01d 5c3f 33bc 523f bd04 593f 68e9 563f
00000020: 3ee0 583f 567f 4a3f 9628 533f e09d 533f
00000030: e9da 613f 64a4 603f 39e9 553f 255c 483f
00000040: 20ef 4e3f 38cf 623f ae5d 583f af0d 503f
00000050: 22c8 533f 6d58 603f edd8 653f 14ac 723f
00000060: 3b8b 543f 35d1 5b3f 3bde 4e3f f01b 4f3f
00000070: 7711 4c3f 8f37 593f 2330 5a3f 3588 653f
0.8466547 0.80828667 0.8822505 0.8246488 0.85982704 0.8231842 0.84772855 0.839499
0.84717166 0.7910055 0.82483804 0.82662773 0.88224655 0.8775084 0.83558995 0.782656
0.80833626 0.8859744 0.84517944 0.8127088 0.82727253 0.8763493 0.8978413 0.9479382
0.8302495 0.858661 0.80807847 0.80902004 0.7971415 0.848504 0.852297 0.8966096

bn.bias f4 [32]
00000000: a289 933e 0938 85be 726d 3dbe 6018 6cbd
00000010: 032f 48be f457 c5bd 4b53 33be cbc4 bbbe
00000020: 973d 97bd d9a1 acbe 3544 d83d 71a2 163c
00000030: 6583 083e 4007 863e 98e3 57be e4c3 59bd
00000040: b75a 4e3e 700f 073e dd49 b3be 4da8 5f3c
00000050: 85d3 61be 901b 95be 38ec 4a3e d3f4 933e
00000060: 125a 71bd 3448 353e 2580 d7bd d455 7dbd
00000070: b93e 5dbe 62a4 b33c 46f3 4f3e 4953 d7bd
0.28815943 -0.26019314 -0.18498781 -0.057640433 -0.19549184 -0.09635916 -0.17512242 -0.3667358
-0.07384794 -0.3371723 0.105598845 0.0091940025 0.13331373 0.26177406 -0.21082914 -0.05316533
0.20151792 0.13189483 -0.3501729 0.013650966 -0.22053345 -0.2912259 0.19816673 0.28897724
-0.05892379 0.17703325 -0.105224885 -0.06184943 -0.21605958 0.02192897 0.20307645 -0.10513932

bn.running_mean f4 [32]
00000000: 5ed6 7f3f 8a15 56bf 8ff1 7fbf 2c67 613f
00000010: 56d0 7fbf 6e5b 213e 09d9 7fbf f91b f8be
00000020: 99c4 053e 3b9e 4abf 00a5 373f e79a 73bf
00000030: bbd6 7fbf a6bf 7f3f 53ee 7fbf 6c3e 79bf
00000040: 903f 163f 455f 3d3f 32ca 46bf 1538 773f
00000050: caef 13bf 95f8 7fbf 0bdd a23e c4e4 7f3f
00000060: 67d5 31be 1ef9 7f3f bf2c 7fbf 2d5e 58bf
00000070: 7518 64bf 18b5 f53e 4b46 b1be 00c5 fcbe
0.99936473 -0.83626616 -0.99977964 0.8804805 -0.9992727 0.15757534 -0.99940544 -0.4845884
0.13063277 -0.7914769 0.71736145 -0.9515824 -0.9993703 0.9990181 -0.9997303 -0.97360873
0.5869074 0.73973495 -0.77652276 0.9656995 -0.57787764 -0.9998868 0.31809267 0.99958444
-0.17366563 0.999895 -0.9967765 -0.845187 -0.8909982 0.47989726 -0.34623942 -0.4936905

bn.running_var f4 [32]
00000000: 2f62 aa34 b5e9 873c 3b90 c232 b603 0a3b
00000010: 8e6b 6135 0d7c d63c 4d96 6734 ff46 cf3d
00000020: acbc 203d f2a0 743c 9162 4e3d ccf6 4b3a
00000030: ca5f 7e35 8c32 7535 4dff 8e34 2d3c d33a
00000040: 43b0 143d 70f8 0e3d ca2d 683b 3909 a53a
00000050: a2b1 863d 3800 6e32 7437 4a3c 47c5 a234
00000060: 46e3 a63d e24e 2732 4612 2e37 f0c9 713b
00000070: 9dd9 343b 76e6 f33d 09a2 893d ce91 f13d
3.1736406e-07 0.016590932 2.265016e-08 0.002105934 8.3975544e-07 0.026182199 2.156823e-07 0.10120963
0.03924243 0.0149309505 0.05038697 0.0007780611 9.4761765e-07 9.134317e-07 2.6635317e-07 0.0016115956
0.03630091 0.034904897 0.0035427683 0.001259125 0.065768495 1.3853473e-08 0.012342323 3.031839e-07
0.08148818 9.738615e-09 1.0375463e-05 0.0036894046 0.0027595528 0.11909191 0.06720359 0.11795388

fc.0.weight f4 [32, 32]
00000000: d632 25be 13a8 97bd f5f9 9bbd 76f5 3a3d
00000010: 359d 03be 11c1 c93d 2996 8e3d 544c 51bd
00000020: 622b af3d d4c0 273e c8f7 293e b93c 00bd
00000030: 2e22 a43d 1a90 0d3e b994 cfbd 896f ccbd
00000040: afc0 673d 026d 893d bc9c 4a3e 1d04 093e
00000050: a02f c83d 4bd5 0c3e 6d64 c03b d870 1ebc
00000060: 95c2 803d 267b 263e 498a 39be dcf0 0d3e
00000070: d66a 83bd 98bb 0cbe fbde bdbd b420 aabd
00000080: 5bf9 bd3c 0d2d 3abe e60e 513e 6877 563e
00000090: 825f 20be a187 813d 7187 50bd bd0f 03be
000000a0: bf29 ca3b 75ee 2bbd 9496 693e c5af b23d
000000b0: c5c1 93bd a599 193c ba0f b73c 0bc5 ab3d
000000c0: 8b28 2abe d015 b73d 4531 d8bd c1c1 dfbc
000000d0: 2518 62be 4e8f 17be 138b 273e d44d 973d
000000e0: 0f8d c63c c738 e6bc 0c69 03be e085 d03c
000000f0: 70c5 4a3d 3a0e 903d a82d 42be 7cfe 80bd
00000100: dd36 8d3d 7a0e 973d 730a 7c3c 9249 ebbd
00000110: 0ce5 0ebe 5b2f 2dbe b968 583d d5a6 9a3d
00000120: 91fc d23d f9df 19be d943 3abd b2dd 06bd
00000130: 84a4 fbbc 4cd1 c33c 9ffb 863c a389 b43d
00000140: d41c 2e3e 6f4c 8cbd 9bfe 4abe ca81 c1bd
00000150: 3673 c93d a363 65be da76 61bd 363c e23d
00000160: 3857 e7bd 4e9e 6fbd 89f4 363d c55b 6cbd
00000170: ec94 4c3e 524d 87bc c140 fcbd e7b1 cfbd
00000180: ee59 173e ad61 f0bc c6f9 9e3c e2d3 a0bd
00000190: a459 333e 44f3 55bd 402f ba3d cee9 0abe
000001a0: 3a13 2f3d 517c fcbd e87b afbd 7a2d c03c
000001b0: d2d3 2a3e 5ea8 10be b44b 78bd b618 25be
000001c0: c392 ed3d 4d1f 473e e2d9 dd3d 6bba 173e
000001d0: 3dd8 21bc 9f32 9cbd 3c2c 30bd 0299 073e
000001e0: ff1c f43d f714 eabd e229 2abe 0948 84bd
000001f0: d866 363d f2f2 af3d 2768 983d 7c4b 2cbe
00000200: 3d36 71bc afc6 893d 20e6 43bd 2f31 95bd
00000210: 23ee 18bd e25d c1bc d842 4abd 0647 15be
00000220: e83f 103e 9146 c03b 26b5 53bd 7f84 3bbd
00000230: a51c aebd 3422 1f3e 680e 8ebc 7552 f33c
00000240: 90d1 ab3d 739c ce3b e2f7 ccbc b5a9 2f3e
00000250: 7f70 13be 8b30 1b3e e599 2abd 5ca7 78bd
00000260: 7172 cc3d bacd 2b3d 67da 38bd 76af 613e
00000270: 2cb8 1f3e 9247 433d 56fd a03d 3b5d ca3d
00000280: 0546 3b3d e986 fabd ed2a c63d 942c 8cbd
00000290: fdf4 66be eb5c 1d3e c4ac 6c3d 4253 9f3d
000002a0: e93c 013e 9088 e03c 404c 17be 3cc5 dcbd
000002b0: e3f8 0d3e 2a41 503e 93d2 d3bc e576 793d
000002c0: 3d8e d63d 8023 a13d 3e1a 96bd 0b9a edbd
000002d0: 17fc 383d 7c09 cf3c afd0 063e f7b7 643e
000002e0: 4b63 2bbe ca1f c6bd 0d08 dabd 402f 53bd
000002f0: 7176 10be e1e4 afbd 995f 40bd 5a3b 5c3e
00000300: 996d 273e 4cec 5a3b 7f19 bbbd efa4 d0bd
00000310: e4a0 cfbd aef4 afbd 8f7a 6a3e 0339 41be
00000320: ccd1 0ebe 1f8f 89bd 8102 2bbd 6ced 46be
00000330: bf35 ed3d 9d14 2e3e f781 25bd f2ee 7dbd
00000340: aa3d 413e 3955 44be 61ef 9dbd 9e41 3ebd
00000350: 6a2c 05be ca93 e9bd cf23 9a3c 1556 cb3d
00000360: fcc3 003e 283d eebd 34ea fabc 033e d13d
00000370: 3fe2 bbbd d979 ccbd 75f5 653e c8f0 33be
00000380: 70fa 373e fa4f 863c 038f 0cbe b648 ee3d
00000390: 011f 65be 1017 593d 7f5e 0a3d 73ea c33b
000003a0: 6d9e a7bc 6f18 fe3d 62b8 1e3d 9331 443d
000003b0: 657a 99bd 2ad2 263e 4c73 cfbd 7e29 b43d
000003c0: f387 04be c48a dc3d c184 b33d 28e2 f8bd
000003d0: b5c9 efbd a289 d1bd b1b5 c23d 3c72 5fbe
000003e0: 57c6 b93d 230e cb3d 0bfe 473d c638 a53d
000003f0: c861 a13d 56a6 ae3d 620c 8dbd 5ab7 19be
-0.16132674 -0.074051045 -0.07616035 0.045644246 -0.12852938 0.098512776 0.069622345 -0.051098183
0.085531965 0.16382152 0.16598427 -0.03130791 0.08014332 0.13824502 -0.101357885 -0.09982211
0.05658024 0.06710245 0.19786352 0.13380475 0.09774709 0.1375324 0.0058713467 -0.009670459
0.062871136 0.16257915 -0.18119158 0.13861412 -0.06416862 -0.13743436 -0.09271046 -0.08307019
0.023190191 -0.18181248 0.2041584 0.20943987 -0.15661433 0.06324697 -0.050910417 -0.12798972
0.0061695273 -0.041975457 0.22811347 0.08724932 -0.07214693 0.009375011 0.022346366 0.08387192
-0.16617028 0.08939707 -0.105562724 -0.027314069 -0.22079523 -0.1480076 0.16361646 0.073878914
0.024237184 -0.028103245 -0.12833041 0.025454462 0.049504697 0.070339635 -0.18962729 -0.06298539
0.0689523 0.07375808 0.015383351 -0.11488642 -0.13954562 -0.16912596 0.052834246 0.07551352
0.103020795 -0.15026845 -0.04547486 -0.03292627 -0.030718096 0.023903511 0.016477404 0.088153146
0.17003185 -0.06850516 -0.19823687 -0.094485834 0.09836428 -0.2240129 -0.055044986 0.110466406
-0.112959325 -0.05850058 0.0446668 -0.057704706 0.19978684 -0.016516361 -0.12317038 -0.10141354
0.14780399 -0.02934345 0.01940621 -0.078529134 0.17514664 -0.05223395 0.090910435 -0.13565752
0.042742945 -0.12328399 -0.08568555 0.023459185 0.16682366 -0.14126727 -0.06061907 -0.16122708
0.11600258 0.19445534 0.108325735 0.14817207 -0.009878215 -0.07626843 -0.043010935 0.13241962
0.11919593 -0.1142978 -0.1661754 -0.06459052 0.044531673 0.0859126 0.074417405 -0.1682567
-0.014722404 0.06727349 -0.047826886 -0.07284772 -0.03733648 -0.023604337 -0.049380153 -0.14577875
0.14086878 0.005867787 -0.05168643 -0.045780655 -0.08501557 0.15540391 -0.017340854 0.029702405
0.0838958 0.0063052713 -0.025020543 0.17154582 -0.14398383 0.15155236 -0.04165067 -0.06070648
0.099827655 0.041944243 -0.04513016 0.2203959 0.155976 0.047675677 0.0786082 0.098810636
0.045721073 -0.12232763 0.09676156 -0.0684444 -0.22554393 0.15367477 0.05778195 0.07779552
0.12620892 0.027408868 -0.14775181 -0.10779807 0.13864474 0.20337358 -0.025857246 0.060904402
0.104763485 0.07868099 -0.07329224 -0.11601647 0.045162287 0.025273077 0.13165544 0.22335802
-0.16737096 -0.09674032 -0.10646067 -0.051558733 -0.14107682 -0.08588577 -0.04696617 0.21507016
0.16350402 0.0033405004 -0.09135722 -0.101877086 -0.10138109 -0.08591591 0.22898315 -0.18869404
-0.13947219 -0.06716751 -0.041750435 -0.19426507 0.11582517 0.17000051 -0.040407147 -0.061995454
0.18871179 -0.19173135 -0.077116735 -0.046449296 -0.13005224 -0.11405142 0.018815903 0.09928528
0.12574762 -0.116327584 -0.030629255 0.10216906 -0.091740124 -0.09984178 0.22456916 -0.1757232
0.17966628 0.016395558 -0.1372643 0.11634962 -0.22375108 0.05300051 0.033781525 0.0059788763
-0.020461285 0.12407004 0.03875006 0.04789884 -0.07494048 0.16291109 -0.10129413 0.087969765
-0.12942486 0.10768655 0.08765555 -0.12152511 -0.117083944 -0.102313295 0.09507311 -0.2182092
0.090710334 0.09914806 0.04882626 0.08067469 0.078799784 0.0852782 -0.068871275 -0.1501135

fc.0.bias f4 [32]
00000000: 2c65 493f 47f0 da3e eb54 333f e51d 243f
00000010: 7b83 333f bb03 123f 7318 0c3f e540 323f
00000020: 04a3 4e3f c30e 153f fbaa 2c3f b154 573f
00000030: f98c 3a3f fc70 223f 8384 3a3f e971 0f3f
00000040: 6da9 4b3f a383 243f 1e48 713f 17ff 5a3f
00000050: 1000 393f 47c3 523f 66c4 523f 69f3 0d3f
00000060: 5095 593f 89e5 2f3f 2593 2b3f 39a7 353f
00000070: c075 4f3f 06d7 173f f99b 443f ade5 3e3f
0.7867 0.42761442 0.7005145 0.64108115 0.701225 0.5703694 0.54724807 0.6963027
0.8071749 0.5822565 0.67448395 0.84113604 0.7287136 0.6345365 0.72858447 0.5603319
0.795554 0.6426336 0.9425067 0.85545486 0.7226572 0.8232922 0.8233093 0.5544954
0.8499346 0.6870962 0.670214 0.70958287 0.8103905 0.59312475 0.76800495 0.7456921
