model/lstm.pth (torch, 75149 bytes, 16 tensors)

lstm.weight_ih_l0 f4 [128, 8]
0	0x3e2f7568	0.1713463
1	0x3cce2f87	0.025169147
2	0xbd10d9b4	-0.035363868
3	0xbc8ccd2a	-0.017187674
4	0xbd4f55e9	-0.05061904
5	0x3d2058d0	0.0391472
6	0x3e510e03	0.20415501
7	0x3e3e1108	0.18561184
8	0xbc42cb3f	-0.011889278
9	0xbe2b9fe7	-0.16760217
10	0xbe421de5	-0.18956716
11	0x3e09ed63	0.13469462
12	0xbe5928ed	-0.21207018
13	0xbc0cac6d	-0.008586031
14	0xbe1833af	-0.14863466
15	0x3be53763	0.006995128
16	0x3e3ece83	0.18633465
17	0x3e65032e	0.22364494
18	0xbc70f9b9	-0.014707976
19	0xbdd77bd4	-0.10521665
20	0xbd892ae8	-0.06697637
21	0xbd28959c	-0.041158304
22	0x3e44a31e	0.1920285
23	0xbe4e5505	-0.2014962
24	0xbda94eef	-0.082670085
25	0xbcc613e4	-0.024179406
26	0xbd3f38bb	-0.04668496
27	0xbe347237	-0.17621695
28	0xbc9e714d	-0.019341135
29	0xbdb6365a	-0.088970855
30	0x3e261e31	0.16222455
31	0x3d725bee	0.059169702
32	0x3e003b57	0.12522636
33	0xbd7ebe6a	-0.06219331
34	0xbd55e8db	-0.05222402
35	0x3db1300f	0.086517446
36	0xbcd76025	-0.026290962
37	0x3e815c8c	0.2526592
38	0xbd1e80d0	-0.038697064
39	0xbd9c0504	-0.07618144
40	0x3a815bac	0.0009869239
41	0x3e1098a7	0.14120732
42	0xbd4ce838	-0.05002615
43	0x3c769273	0.015049565
44	0xbceff666	-0.029292297
45	0xbd8a828e	-0.067631826
46	0xbe113bdc	-0.14182991
47	0xbcd48866	-0.025943946
48	0xbcba4dd5	-0.022742191
49	0xbda69c66	-0.081352994
50	0x3d2beebf	0.041975733
51	0x3e2552a1	0.16144802
52	0xbde7dc98	-0.11321372
53	0x3c317ba0	0.010832697
54	0xbdd8bef7	-0.10583299
55	0x3e1ee8c4	0.1551848
56	0x3d3daf08	0.0463095
57	0xbdb9a297	-0.09064215
58	0xbe2cba1e	-0.16867873
59	0x3d8c2825	0.068435945
60	0x3dac12b0	0.08402002
61	0xbdc7e0e5	-0.09759692
62	0x3dec8e81	0.11550618
63	0x3dfa364a	0.12217386
64	0x3e0eecf1	0.13957573
65	0x3dbfd96f	0.09367644
66	0x3e1b7fa5	0.15185411
67	0x3d11b22e	0.035570316
68	0x3e488170	0.19580626
69	0x3c5fcf81	0.013660313
70	0xbdfb29ed	-0.12263856
71	0x3e1d68ba	0.15371981
72	0x3dd04549	0.10169465
73	0xbe0f11dd	-0.13971658
74	0xbe3bd2b6	-0.18342099
75	0x3e0c3334	0.13691407
76	0xbd4d230f	-0.050082263
77	0xbd48a5f4	-0.04898639
78	0x3df9e0f1	0.12201107
79	0x3dafcbda	0.085838035
80	0xbe512655	-0.20424779
81	0xbce010af	-0.027351705
82	0xbe280708	-0.16408932
83	0xbd239e17	-0.039945688
84	0x3d44cb0b	0.0480452
85	0x3dd47612	0.103740826
86	0x3e084c67	0.13310395
87	0x3e29b9d7	0.16574799
88	0xbcdfa94c	-0.027302407
89	0xbd817c5d	-0.063225485
90	0xbe06d542	-0.13167289
91	0xbc9d33bf	-0.019189714
92	0x3e8949d8	0.2681415
93	0x3e60ab70	0.21940398
94	0x3df95440	0.121742725
95	0xbdc95806	-0.09831242
96	0xbcf464a6	-0.02983315
97	0x3dc43837	0.09581035
98	0xbd890ade	-0.06691526
99	0x3d9666a6	0.073437974
100	0x3e695cc0	0.22789288
101	0xbdd4c585	-0.10389236
102	0x3c899452	0.016794357
103	0x3d7cab47	0.06168678
104	0x3cf416bb	0.029795995
105	0xbdeab018	-0.114593685
106	0xbe32dda7	-0.17467366
107	0x3de31318	0.11087626
108	0xbd91ec72	-0.071251765
109	0xbdcbd05c	-0.09951851
110	0xbe0d013e	-0.13770005
111	0x3e70e665	0.23525389
112	0xbc8cf5ed	-0.01720711
113	0xbdb9cdfa	-0.0907249
114	0xbb40b346	-0.002940373
115	0xbe157e55	-0.14598973
116	0xbdb6c558	-0.08924359
117	0x3e27c29b	0.1638283
118	0xbe1a3e52	-0.15062836
119	0xbc95de1d	-0.018294388
120	0x3c91f408	0.017816558
121	0xbda1900c	-0.07888803
122	0x3c1fbfe3	0.009750339
123	0xbe2c0244	-0.1679774
124	0xbcf05572	-0.029337618
125	0xbe0a39be	-0.1349859
126	0x3e1d126c	0.15339059
127	0x3e6583df	0.22413586
128	0xbdfb76d8	-0.12278527
129	0xbd91d6bd	-0.07121036
130	0x3e0b8f5d	0.13628908
131	0xbe31c293	-0.1735938
132	0xbd853f8e	-0.06506263
133	0xbdec5944	-0.115404636
134	0x3c3b6b5f	0.0114391735
135	0xbdb55aa4	-0.08855179
136	0x3d0f2c0f	0.034954127
137	0xbd17f996	-0.037103258
138	0x3da91157	0.082552604
139	0x3d13e4f9	0.036107037
140	0xbe694d39	-0.22783364
141	0x3daac6d1	0.083387025
142	0x3e5d9523	0.21638922
143	0xbe34ea93	-0.17667608
144	0x3d3f6e1a	0.04673586
145	0xbcc917f0	-0.024547547
146	0x3e222e57	0.1583799
147	0x3c1934d3	0.009350973
148	0xbe384b6b	-0.1799752
149	0xbe4673c0	-0.19380093
150	0xbd6757da	-0.056480266
151	0x3e24990a	0.16074005
152	0xbdb89b3e	-0.09013985
153	0x3dc17729	0.09446556
154	0x3c0a56fd	0.008443591
155	0xbdb3f3da	-0.08786745
156	0xbca6626f	-0.020310609
157	0xbc8471e9	-0.016167598
158	0x3dfe8886	0.124283835
159	0x3e021ff2	0.12707499
160	0x3dd5b09a	0.10434075
161	0xbe25676b	-0.16152732
162	0xbcde32c8	-0.027123824
163	0xbd059163	-0.032609355
164	0x3ded8936	0.115984365
165	0xbd435b79	-0.047694657
166	0x3cbb0ef5	0.02283428
167	0x3c361d7e	0.01111543
168	0xbd3214de	-0.04347693
169	0xbc039e8b	-0.008033405
170	0xbdb57b96	-0.08861463
171	0x3da9d14d	0.08291874
172	0x3e411196	0.18854365
173	0x3db35972	0.08757295
174	0xbca6d84a	-0.020366807
175	0xbd681090	-0.05665642
176	0xbc6ff0e3	-0.014644834
177	0x3e05c0d8	0.13061845
178	0x3e1e7a91	0.15476443
179	0xbbf13b86	-0.007361832
180	0x3e45cc44	0.19316202
181	0xbe2af8ee	-0.16696522
182	0x3c7c6ab9	0.015406304
183	0x3e025e2d	0.12731238
184	0x3cc4f202	0.02404118
185	0xbe27ff18	-0.16405904
186	0xbb73d0f4	-0.0037203403
187	0xbe33dbf4	-0.17564374
188	0xbdd5eb8f	-0.1044532
189	0x3e339b84	0.17539793
190	0xbcac61b0	-0.021042675
191	0xbd29a989	-0.041421447
192	0x3e08e01b	0.1336674
193	0x3e30397a	0.17209426
194	0xbda988ed	-0.0827807
195	0xbb14e059	-0.002271673
196	0x3d28aeda	0.041182376
197	0xbe7987e8	-0.2436825
198	0xbd4eac8e	-0.05045753
199	0x3bff2fc2	0.0077876756
200	0xbe1ee882	-0.15518382
201	0xbc90ee6f	-0.017691819
202	0xbda9e8b0	-0.08296335
203	0x3df73f0d	0.12072573
204	0xbcf2218c	-0.029557012
205	0xbdc96a3f	-0.09834718
206	0xbb993305	-0.0046752715
207	0xbd5b0949	-0.053475652
208	0xbca452f4	-0.020059086
209	0x3dbecc8d	0.09316359
210	0x3dffdf98	0.12493819
211	0xbe05d6a9	-0.13070168
212	0x3e2cf057	0.16888557
213	0xbd723d41	-0.059140448
214	0xbe038bc5	-0.12846287
215	0x3e1884ef	0.1489446
216	0x3da4584e	0.08024655
217	0x3c4797b7	0.012182168
218	0x3c0681d8	0.008209668
219	0xbe00348e	-0.12520048
220	0x3dfae3d1	0.12250484
221	0x3e79d4a6	0.24397525
222	0xbdf62cc9	-0.12020261
223	0x3dc1bf80	0.09460354
224	0xbad7034d	-0.0016404182
225	0xbd60fa31	-0.0549261
226	0xbe1ec1c5	-0.15503605
227	0xbe2177b4	-0.1576832
228	0xbdf962a1	-0.12177015
229	0x3e1851c1	0.14874937
230	0x3c41617b	0.011803026
231	0x3cdfc587	0.027315868
232	0x3d73c618	0.05951509
233	0x3c127bae	0.00894062
234	0xbe2b7c6c	-0.16746682
235	0x3dd27a90	0.10277283
236	0xbd710d05	-0.058850307
237	0xbe659011	-0.22418238
238	0xbdedc142	-0.116091266
239	0x3e390f40	0.18072224
240	0x3d4a0cd0	0.049328625
241	0xbe0c0fcc	-0.13677901
242	0xbe146168	-0.14490283
243	0x3e13a912	0.14419964
244	0x3c0a9a7a	0.008459682
245	0x3a07d21c	0.000518115
246	0x3d97bc76	0.07408993
247	0x3e211557	0.15730797
248	0xbdcba773	-0.09944048
249	0x3ab45478	0.0013758084
250	0x3dfb1df1	0.1226157
251	0xbdf709d7	-0.12062424
252	0x3e29e271	0.16590287
253	0x3dec97ec	0.11552414
254	0xbd26788c	-0.040642306
255	0x3d4d8fed	0.050186086

lstm.weight_hh_l0 f4 [128, 32]
0	0x3e1a1391	0.15046526
1	0xbe263d31	-0.1623428
2	0x3e4b0f95	0.19830163
3	0x3da0b582	0.0784712
4	0x3d783830	0.06060046
5	0x3dbc19e0	0.09184623
6	0xbdea87ec	-0.11451706
7	0x3ce26adf	0.02763885
8	0x3e2c2072	0.16809252
9	0xbdc95131	-0.09829939
10	0xbcd61d0c	-0.026136898
11	0xbe05f80a	-0.130829
12	0xbd1b77b1	-0.037955943
13	0xbc3c134e	-0.011479212
14	0x3d34fa15	0.04418381
15	0x3de196ee	0.11015116
16	0xbe088201	-0.13330843
17	0xbe2ca6aa	-0.16860452
18	0xbd88d192	-0.06680597
19	0x3cf9957c	0.030466788
20	0xbe16dc08	-0.14732373
21	0x3d92864c	0.07154521
22	0x3df16ea0	0.11788678
23	0xbd9cc5d9	-0.07654924
24	0x3d95dff3	0.073181055
25	0x3d78abb5	0.060710628
26	0x3e086cbd	0.1332273
27	0xbe2ef8a6	-0.1708704
28	0xbe0e6843	-0.1390696
29	0xbd98ba40	-0.07457399
30	0x3aebf260	0.001800131
31	0x3e16ebd3	0.14738397
32	0xbd7cbfde	-0.061706416
33	0x3bee5e07	0.0072743925
34	0xbcce4e65	-0.025183866
35	0xbe12ae68	-0.14324343
36	0xbd9abc08	-0.07555395
37	0x3dbb9d97	0.09160917
38	0x3e205b51	0.15659834
39	0xbdbf2ccd	-0.09334717
40	0xbe0dfbdc	-0.13865608
41	0x3dac0594	0.083995014
42	0x3e06db4e	0.13169596
43	0x3d109584	0.03529884
44	0x3d39b697	0.045340147
45	0xbd4f201d	-0.050567735
46	0xbe040f13	-0.12896375
47	0xbdbac38e	-0.0911933
48	0xbda94213	-0.08264556
49	0x3e083ced	0.13304491
50	0xbe4153f6	-0.18879685
51	0x3de35ae8	0.11101323
52	0x3dd2214f	0.10260259
53	0xbe413426	-0.1886755
54	0xbd8bf2ec	-0.06833443
55	0xbd411130	-0.047135532
56	0xbdcfb239	-0.10141415
57	0xbe11d3fc	-0.14241022
58	0x3debd91d	0.115160204
59	0xbe4824e1	-0.19545318
60	0x3d8fabc9	0.07015187
61	0xbd4c9a3d	-0.04995178
62	0xbe3bea57	-0.18351112
63	0xbe0a4d33	-0.13506012
64	0xbdf33b2d	-0.11876521
65	0xbcd920ce	-0.0265049
66	0x3e09771e	0.13424346
67	0x3d9ee0b3	0.07757702
68	0x3e004b5c	0.12528747
69	0xbd1ca91e	-0.03824722
70	0xbe24aad6	-0.16080794
71	0xbd609c5f	-0.054836627
72	0xbc6c0cd8	-0.014407359
73	0xbcbb3b27	-0.022855354
74	0xbca375ce	-0.019953635
75	0x3cd40196	0.025879662
76	0xbca054aa	-0.019571621
77	0x3e32a5b5	0.17446025
78	0xbe4ea9b3	-0.20181923
79	0x3d022208	0.031770736
80	0xbdc96de6	-0.098354146
81	0xbe360a59	-0.17777385
82	0x3dd7ee6b	0.105435215
83	0x3d9b47f4	0.07582083
84	0xbde3139c	-0.110877246
85	0x3e5c566b	0.21517341
86	0xbd3ddf25	-0.046355385
87	0x3c3c9ad6	0.011511525
88	0xbd8513cf	-0.06497919
89	0x3df2097e	0.11818217
90	0xbd9c1f8c	-0.076232046
91	0x3c8e7cc3	0.017393475
92	0xbc958a87	-0.018254532
93	0xbe598d32	-0.21245268
94	0xbd4ae7bf	-0.049537417
95	0x3dbaaeb4	0.09115353
96	0x3dc83250	0.09775221
97	0xbb1f10d5	-0.0024271507
98	0xbcbe8078	-0.023254618
99	0x3e070e31	0.13189007
100	0xbdb9e224	-0.09076336
101	0x3e059316	0.1304439
102	0xbdb2fbfc	-0.087394685
103	0x3e139280	0.14411354
104	0xbc100855	-0.008791049
105	0xbd41c632	-0.047308154
106	0x3c93f93e	0.018063184
107	0x3d887aac	0.06664023
108	0xbde4468f	-0.111462705
109	0x3d583f76	0.052794896
110	0x3d8f3014	0.06991592
111	0xbe1734eb	-0.1476628
112	0x3bc15ff7	0.0059013325
113	0x3d3fd0b8	0.04682991
114	0xbe4b982a	-0.19882265
115	0x3dd33d0e	0.1031438
116	0x3c4f792d	0.012663168
117	0x3d56f237	0.052477088
118	0xbc93573b	-0.01798593
119	0xbe2af767	-0.16695939
120	0xbcc7ddc4	-0.024397738
121	0xbd2a3386	-0.041553043
122	0x3de84fae	0.11343323
123	0x3d96fa53	0.07371964
124	0xbcf25b0d	-0.029584432
125	0xbdf452bc	-0.11929843
126	0xbdc19972	-0.094530955
127	0x3d3cf62e	0.046133213
128	0xbc566525	-0.013085638
129	0xbddee4d1	-0.10883487
130	0xbcf0c28f	-0.029389648
131	0x3c63bae6	0.0138995405
132	0x3d8a96f7	0.067670755
133	0xbe39d893	-0.18149023
134	0x3e02518e	0.12726423
135	0xbc278328	-0.010224141
136	0xbc0dc3bf	-0.008652627
137	0x3d5c4de3	0.053785216
138	0x3b8e006c	0.0043335464
139	0x3e19e294	0.15027839
140	0x3db9091d	0.09034941
141	0x3e1511ec	0.14557618
142	0x3d30ea35	0.043192107
143	0x3be825fd	0.0070846067
144	0x3df34607	0.11878591
145	0xbdb0c926	-0.08632116
146	0xbdc76159	-0.097353645
147	0x3e60ca19	0.21952094
148	0xbcbbe6bf	-0.022937177
149	0x3cdd61e0	0.02702421
150	0x3db5a455	0.088692345
151	0x3e080f20	0.1328702
152	0x3c314452	0.0108195115
153	0x39cfcff5	0.00039637057
154	0x3dc0060f	0.093761556
155	0x3d996d0a	0.07491501
156	0x3dc5c9ec	0.09657654
157	0xbde1463b	-0.109997235
158	0xbe16c2d6	-0.14722762
159	0xbd8c32e9	-0.06845648
160	0x3d96e40b	0.073677145
161	0xbe145a75	-0.14487632
162	0x3e05a8a6	0.13052616
163	0xbdbe846e	-0.09302603
164	0x3cc77c11	0.024351152
165	0x3dd2ce89	0.102933
166	0x3d7fab83	0.062419426
167	0x3ce5a6ca	0.028033633
168	0xbc641b95	-0.013922592
169	0x3db19b14	0.08672157
170	0x3e0ed2f5	0.13947661
171	0xbe163877	-0.14669977
172	0x3d0b366c	0.033987448
173	0xbdd85927	-0.105638795
174	0x3d2aab5d	0.04166733
175	0xbd0f1137	-0.034928527
176	0xbe1e8f9d	-0.15484472
177	0xbdecd105	-0.11563305
178	0xbdcaf181	-0.099093445
179	0x3d9413c5	0.07230333
180	0xbe07254c	-0.13197821
181	0xbd3c1df6	-0.04592701
182	0x3e146a30	0.14493632
183	0xbd103e44	-0.03521563
184	0x3df0228a	0.11725338
185	0x3da1a563	0.07892873
186	0xbd392f1c	-0.045210943
187	0x3e154654	0.1457761
188	0xbd8f3469	-0.06992418
189	0xbd05059f	-0.032476064
190	0xbc39c99b	-0.01133957
191	0xbdf1867e	-0.117932305
192	0x3e27269b	0.1632332
193	0xbe2bd70c	-0.16781253
194	0x3e647e37	0.22313772
195	0xbbc5b702	-0.006033779
196	0x3e21516a	0.15753713
197	0x3e170e07	0.14751445
198	0x3d90eca4	0.070763856
199	0xbda0dded	-0.07854829
200	0xbe2afd83	-0.1669827
201	0x3d8019c7	0.06254917
202	0xbd2e05e7	-0.042486098
203	0xbd8657b3	-0.06559696
204	0xbd5bcf60	-0.053664565
205	0xbd0891dd	-0.03334223
206	0xbdc3880c	-0.09547433
207	0xbe07e6a0	-0.1327157
208	0x3d1ee6c9	0.038794313
209	0xbe08cdfa	-0.13359824
210	0x3d8d5f38	0.06902927
211	0xbd65c005	-0.056091327
212	0x3dce2104	0.10064891
213	0x3c82f0cd	0.015983963
214	0x3d949214	0.07254425
215	0x3dfcdb54	0.12346521
216	0x3da96121	0.08270479
217	0x3e0c0721	0.13674594
218	0x3d2ec490	0.042667925
219	0x3dbdcafb	0.09267231
220	0x3d13d131	0.036088172
221	0x3dbed1c2	0.09317352
222	0x3e139208	0.14411175
223	0x3d6e4c3f	0.058178183
224	0xbd96b73d	-0.07359169
225	0x3e53c304	0.20679861
226	0xbe234e80	-0.15947914
227	0xbe05a7ef	-0.13052343
228	0x3df0ede3	0.11764123
229	0x3e225d1c	0.15855831
230	0xbdb4dbe2	-0.08831002
231	0xbd0571ea	-0.03257934
232	0xbd2a3a9c	-0.0415598
233	0xbe24c093	-0.16089086
234	0x3bb80007	0.0056152376
235	0xbc8b99bc	-0.01704108
236	0x3d294625	0.04132666
237	0x3d982e7d	0.07430742
238	0x3cec6ee7	0.028861476
239	0x3e163528	0.14668715
240	0x3e03436e	0.12818691
241	0x3e422f6b	0.18963401
242	0x3dfb1fff	0.12261962
243	0x3b09e0af	0.0021038463
244	0xbd6b74b1	-0.057484332
245	0xbcfb90a7	-0.030708624
246	0xbda6342e	-0.08115421
247	0xbd7c82de	-0.061648242
248	0x3dd9fd27	0.10643988
249	0x3e11ac8c	0.14225978
250	0xbe1760a1	-0.14782955
251	0xbda2a0be	-0.079408154
252	0x3c002c14	0.007823009
253	0x3e06d80c	0.13168353
254	0x3db40c2c	0.08791384
255	0x3c1df7cb	0.009641598

lstm.bias_ih_l0 f4 [128]
0	0x3deb4a69	0.11488802
1	0xbe107108	-0.14105618
2	0x3e075e28	0.13219512
3	0x3e154563	0.1457725
4	0xbe0f94ec	-0.14021653
5	0x3e0c08a9	0.13675179
6	0x3ccc3a45	0.024930129
7	0x3d13b6e2	0.036063083
8	0xbdd5ece9	-0.10445578
9	0xbcf801d7	-0.030274315
10	0xbe2ec2bc	-0.17066473
11	0x3d9884c8	0.07447201
12	0x3c7e0d3c	0.015506085
13	0x3d4e8838	0.050422877
14	0xbe1939a2	-0.14963391
15	0x3d2c966b	0.042135637
16	0x3e47661d	0.19472547
17	0x3ae2c060	0.0017299764
18	0xbe186f73	-0.14886265
19	0x3d6ccc0b	0.057811778
20	0xbdfb7d4e	-0.12279759
21	0xbd50ad7a	-0.05094669
22	0x3e239024	0.15972954
23	0xbdf020bc	-0.117249936
24	0x3da27ad9	0.079335876
25	0x3ddcd52b	0.10782846
26	0xbdf7c5c7	-0.1209827
27	0x3d996d0f	0.074915044
28	0xbd0208eb	-0.031746786
29	0xbe21779e	-0.15768287
30	0x3d918c8b	0.071068846
31	0xbe2ee9be	-0.17081353
32	0xbe245db3	-0.16051368
33	0x3de188c2	0.110124126
34	0xbd8d7cae	-0.069085464
35	0x3e0769cd	0.13223954
36	0x3d3af65b	0.0456451
37	0xbc4be1c2	-0.012443962
38	0xbdc067f2	-0.09394826
39	0xbe1a82e7	-0.15088998
40	0x3d67601c	0.05648814
41	0x3e02c2fb	0.12769692
42	0x3dc3607a	0.09539886
43	0xbd50f684	-0.051016346
44	0x3cd7b578	0.026331648
45	0xbe2f9c5f	-0.17149495
46	0xbd3ec64c	-0.04657583
47	0xbcaa5085	-0.020790348
48	0x3d0f7b0d	0.03502946
49	0xbe30ee73	-0.17278461
50	0xbd9a700e	-0.07540904
51	0xbe27eb8a	-0.16398445
52	0x3e27a0b0	0.16369891
53	0xbda57162	-0.08078267
54	0x3dde88bc	0.10865924
55	0xbdcb21d6	-0.09918563
56	0x3db5e925	0.088823594
57	0x3e00fdef	0.12596868
58	0x3d60a16e	0.05484145
59	0xbd743e93	-0.059629988
60	0xbd5ca9ac	-0.05387275
61	0x3e3be6d2	0.1834977
62	0x3e10bdac	0.14134854
63	0x3d0a1432	0.033710666
64	0x3d2e54b4	0.042561248
65	0xbdd4aa33	-0.103840254
66	0x3e0f0514	0.13966781
67	0xbdf292df	-0.1184442
68	0x3d86c78e	0.06581031
69	0xbe442f3b	-0.19158642
70	0xbd0aee0d	-0.03391843
71	0x3d9e12c7	0.07718425
72	0x3e012f3e	0.12615678
73	0x3c12eeda	0.008968079
74	0xbdebc3ac	-0.11511931
75	0xbe5cec77	-0.21574579
76	0x3d1aab24	0.03776087
77	0x3d525099	0.051346395
78	0x3db9dcb6	0.090753004
79	0xbbb99642	-0.005663664
80	0xbd3fff43	-0.046874296
81	0x3dd1a144	0.10235837
82	0xbd1eebff	-0.038799282
83	0x3d8a657e	0.06757639
84	0x3e03a91f	0.12857483
85	0x3d817626	0.06321363
86	0x3dfd1f2d	0.12359462
87	0xbdb3e181	-0.08783246
88	0x3d31c7b1	0.04340333
89	0xbe4756c4	-0.19466692
90	0x3a4f3560	0.0007904377
91	0xbd9342b9	-0.07190461
92	0xbd53a41b	-0.051670175
93	0xbd13a5f5	-0.03604694
94	0xbd1eca17	-0.038766947
95	0xbe25af06	-0.16180047
96	0x3b980772	0.0046395594
97	0xbd438583	-0.04773475
98	0x3e6d4187	0.23169528
99	0x3db4202f	0.08795201
100	0xbd82e76f	-0.06391799
101	0xbd97a7f1	-0.07405079
102	0xbe2e9a7c	-0.17051119
103	0xbb27baab	-0.002559344
104	0xbe20238b	-0.15638559
105	0xbd954d52	-0.07290138
106	0xbe4829e4	-0.1954723
107	0xbd8f9524	-0.07010868
108	0xbe2c207b	-0.16809265
109	0xbe27656f	-0.16347288
110	0x3e3cacbb	0.18425266
111	0xbe201ac6	-0.15635213
112	0x3cb4a0e0	0.022049367
113	0x3d4b8238	0.049684733
114	0x3e137a3e	0.144021
115	0x3d37eefa	0.04490564
116	0xbe3ec436	-0.18629536
117	0x3d16f6ab	0.036856335
118	0x3ccf0e07	0.025275243
119	0xbdc2da07	-0.09514242
120	0xbd1c77b4	-0.038200095
121	0xbe097d69	-0.13426746
122	0x3e14faa6	0.1454874
123	0xbc5f1851	-0.013616637
124	0x3dbf0b14	0.09328285
125	0xbd88d987	-0.06682115
126	0x3d9465c9	0.072459765
127	0xbda9f35b	-0.082983695

lstm.bias_hh_l0 f4 [128]
0	0xbbe73237	-0.0070555466
1	0xb8c1fc06	-9.2499e-05
2	0xbd8a9561	-0.06766773
3	0x3d839ffd	0.06427
4	0x3e406a8a	0.18790641
5	0xbc1e47b3	-0.009660649
6	0x3e0da35e	0.13831851
7	0xbe4bfc9e	-0.19920585
8	0xbe13adc4	-0.14421755
9	0xbe51c24b	-0.20484273
10	0x3de299e4	0.110645086
11	0xbdacd411	-0.08438886
12	0xbe66783b	-0.22506802
13	0x3c7af343	0.015316787
14	0xbe1695c5	-0.1470557
15	0x3d59f1af	0.053209003
16	0x3e5753be	0.21028039
17	0xbb07e416	-0.0020735315
18	0x3d13f8d7	0.036125984
19	0x3d903058	0.07040471
20	0xbe3c4599	-0.18385924
21	0xbd67d0b0	-0.056595504
22	0xbd5a4d26	-0.05329623
23	0xbd2e8e01	-0.042615894
24	0xbe37d6b4	-0.17952996
25	0xbd65c87a	-0.056099392
26	0xbe1900fa	-0.14941779
27	0x3b66dd3b	0.0035227078
28	0x3d643da3	0.055722844
29	0x3df7043d	0.12061355
30	0xba07f684	-0.0005186575
31	0x3bc1c25e	0.005913063
32	0xbb8f7a43	-0.0043785884
33	0xbd8f7abf	-0.07005834
34	0x3b07e6d9	0.002073696
35	0xbd998d3c	-0.074976414
36	0x3d9fdd3e	0.078058705
37	0xbcf88b5c	-0.03033989
38	0xbdec81c4	-0.11548188
39	0xbe1b31a3	-0.15155654
40	0x3dcba9a3	0.09944465
41	0x3dc00bec	0.09377274
42	0xbdf46c5f	-0.11934733
43	0x3e007fd3	0.12548761
44	0xbe347f24	-0.17626625
45	0xbe42356b	-0.1896569
46	0xbbfba1ba	-0.0076791914
47	0x3e323ae8	0.17405283
48	0x3cfc4509	0.030794637
49	0xbe0bdf24	-0.1365934
50	0xbc55a204	-0.013039116
51	0xbd0feb5e	-0.035136573
52	0x3d818cdd	0.06325696
53	0xbdf91f94	-0.12164226
54	0xbd2d7791	-0.042350356
55	0x3d2b039e	0.041751496
56	0x3df5be25	0.11999158
57	0xbd246242	-0.04013277
58	0x3e1182ad	0.14210005
59	0x3d99e7f2	0.07514943
60	0x3d9f4f9b	0.077788554
61	0x3e141bf2	0.14463785
62	0x3ce20b98	0.027593419
63	0xbe0b89c5	-0.13626774
64	0xbe11d151	-0.14240004
65	0x3dac6325	0.08417348
66	0x3e28dbbd	0.16490074
67	0x3c5cedb1	0.013484404
68	0xbe163c99	-0.14671554
69	0xbe434067	-0.19067536
70	0xbe15c3af	-0.14625429
71	0xbdb9fd01	-0.0908146
72	0xbe02cc40	-0.12773228
73	0xbcf5e969	-0.030018525
74	0xbdeb94fa	-0.115030244
75	0xbe0c758c	-0.13716716
76	0xbe1f6bd2	-0.15568474
77	0x3dc46f0a	0.095914915
78	0xbd81dc9b	-0.06340905
79	0x3d21512f	0.039384063
80	0xbdffe55d	-0.124949194
81	0xbd27ecfd	-0.040997494
82	0xbe0e9bd4	-0.13926631
83	0xbe3e7f49	-0.18603243
84	0x3d99c598	0.07508391
85	0x3e11605c	0.14196914
86	0x3e26a48b	0.16273706
87	0x3db572bf	0.08859777
88	0xbd765069	-0.06013528
89	0x3c099951	0.00839837
90	0x3dc6ee8c	0.09713468
91	0x3ddfde49	0.109310694
92	0xbdf4d8a4	-0.119553834
93	0xbdba616c	-0.09100613
94	0xbdd5db74	-0.10442248
95	0xbd9bc774	-0.07606402
96	0xbdb04e2d	-0.08608661
97	0x3d6a62e1	0.057223205
98	0x3ce65214	0.02811531
99	0x3de0436f	0.10950362
100	0x3d6dfa23	0.058099877
101	0xbd814f27	-0.06313925
102	0xbe1bdda0	-0.15221262
103	0x3dc2d924	0.095140725
104	0xbda44983	-0.08021834
105	0xbd284190	-0.04107815
106	0xbd3852dd	-0.0450009
107	0x3db0cec0	0.086331844
108	0x3d8a0ca4	0.06740692
109	0xbe3922bf	-0.18079661
110	0xbdcd7094	-0.10031238
111	0x3dafd910	0.08586323
112	0x3e4bcdb5	0.1990269
113	0xbcc07e89	-0.023497837
114	0x3def8ddf	0.11696982
115	0x3e219b17	0.15781818
116	0xbd1093fa	-0.03529737
117	0xbe407a30	-0.18796611
118	0xbda15e0b	-0.078792654
119	0xbdd52df2	-0.10409154
120	0xbe31b7f7	-0.17355333
121	0x3c3e78c2	0.011625471
122	0xbc427d9b	-0.011870767
123	0xbe0b0c84	-0.13578993
124	0xbd6c8ee4	-0.05775346
125	0xbdf0faa7	-0.11766558
126	0x3da82195	0.0820953
127	0x3ce77a1b	0.028256467

lstm.weight_ih_l1 f4 [128, 32]
0	0x3e31f02d	0.17376776
1	0x3e54644a	0.20741382
2	0xbe045706	-0.12923822
3	0x3da9f8d5	0.08299414
4	0xbbc6ec57	-0.0060706544
5	0xbdcf5b92	-0.101248875
6	0xbe168f7f	-0.14703177
7	0xbd97d885	-0.07414345
8	0x3db1145f	0.086464636
9	0x3dae3c59	0.08507604
10	0xbe08f899	-0.13376082
11	0x3dd7e6cd	0.10542069
12	0xbdae44b4	-0.08509198
13	0x3df29308	0.1184445
14	0x3da29b8d	0.07939825
15	0x3d6d3a9f	0.057917234
16	0x3b984d40	0.004647881
17	0xbe013b97	-0.12620388
18	0x3e0a7e40	0.13524723
19	0x3c40c89d	0.01176658
20	0x3e16deab	0.14733379
21	0xbdc907ba	-0.09815927
22	0xbbc3e7b6	-0.00597855
23	0xbd54da26	-0.051965855
24	0xbd43b88f	-0.04778343
25	0x3e133356	0.14375052
26	0xbe0f30a4	-0.13983399
27	0xbd0f2e60	-0.034956336
28	0x3e590b7e	0.2119579
29	0x3e15468c	0.14577693
30	0xbd8fb470	-0.070168376
31	0xbd9a39e4	-0.07530573
32	0x3d4864d9	0.0489243
33	0xbde6985f	-0.11259531
34	0xbdf7ef0e	-0.12106143
35	0x3e4e021f	0.20117997
36	0x3e85d912	0.26142174
37	0xbe741125	-0.23834665
38	0xbe3ebcdd	-0.18626733
39	0xbd807216	-0.0627176
40	0xbc97836f	-0.01849529
41	0xbe24ec73	-0.16105823
42	0xbe626925	-0.22110422
43	0x3dc63a7e	0.09679125
44	0x3e7ea0c1	0.2486601
45	0x3e6aa61e	0.22914931
46	0x3e24da7f	0.16098975
47	0xbe3e46b9	-0.18581666
48	0x3dbb797c	0.09154031
49	0xbe11af61	-0.14227058
50	0xbd526d88	-0.05137399
51	0x3e0c2930	0.13687587
52	0x3e31a5e4	0.17348439
53	0xbdc9cb17	-0.098531894
54	0x3dc56694	0.09638706
55	0xbd01b7cc	-0.031669423
56	0xbd6e5ecd	-0.058195878
57	0xbd775475	-0.06038328
58	0xbe36b8aa	-0.17843881
59	0x3d6ba6ed	0.05753224
60	0x3e4104fe	0.1884956
61	0x3d49b42a	0.049244083
62	0x3e28de30	0.16491008
63	0xbd90ada4	-0.07064369
64	0xbd6aba37	-0.057306495
65	0x3d7477c6	0.059684537
66	0xbe304b1b	-0.1721615
67	0x3c8991df	0.01679319
68	0xbd6e0cbe	-0.05811762
69	0xbe4f274a	-0.20229831
70	0xbda5c72d	-0.080946304
71	0x3ca02541	0.019549014
72	0xbcb6178c	-0.022228025
73	0xbda26e35	-0.079311766
74	0xbda23e89	-0.07922084
75	0x3d87ff5c	0.06640503
76	0xbc183c6d	-0.00929175
77	0x3d8ee6c3	0.06977608
78	0xbe228daa	-0.15874353
79	0xbd469de2	-0.048490413
80	0xbdb07432	-0.086159125
81	0x3db1d692	0.08683504
82	0x3c36d3dc	0.01115891
83	0x3e1117bf	0.14169215
84	0x3d36a6ca	0.044592656
85	0xbd4ae902	-0.04953862
86	0xbdc63417	-0.09677904
87	0xbe09a5db	-0.13442175
88	0x3da8dfe5	0.082458295
89	0xbe21aa28	-0.15787566
90	0xbdc0bd12	-0.09411062
91	0xbd085673	-0.03328557
92	0xbd18729f	-0.037218686
93	0xbd875be9	-0.06609327
94	0x3c67cb3a	0.014147574
95	0x3d7ea831	0.06217212
96	0xbd77f7bf	-0.060539003
97	0x3e4249e0	0.18973494
98	0x3d9d6da0	0.07686925
99	0x3e21b5e0	0.15792036
100	0x3cf5cb06	0.030004036
101	0x3d1bbcef	0.038021978
102	0x3d46b2c7	0.04851034
103	0x3b836eeb	0.004011025
104	0x3d6e9ea9	0.05825678
105	0xbe27f177	-0.16400705
106	0xbe26ac55	-0.16276677
107	0x3daaa406	0.08332066
108	0x3dc02a2e	0.09383045
109	0xbdf0113a	-0.11722036
110	0xbdc18d63	-0.094507955
111	0x3d58c148	0.052918702
112	0x3e08846b	0.13331763
113	0x3b154c48	0.0022781063
114	0x3d37a038	0.04483053
115	0x3a9c0759	0.0011904045
116	0x3e7d757e	0.24751851
117	0xbda5e3af	-0.08100068
118	0xbdfdb96d	-0.12388883
119	0xbde06c60	-0.10958171
120	0xbd9e3781	-0.0772543
121	0xbd63e949	-0.0556424
122	0xbe68b68c	-0.22725886
123	0x3db30fcd	0.08743248
124	0x3e3458cf	0.17612003
125	0x3dd69a37	0.10478633
126	0x3df717f5	0.12065116
127	0x3dd38632	0.1032833
128	0xbe67020e	-0.22559378
129	0x3e07bb60	0.13255072
130	0xbd80a855	-0.06282107
131	0x3d41a078	0.047272176
132	0xbd8825c3	-0.066478275
133	0xbd021717	-0.0317603
134	0xbd301500	-0.042988777
135	0xbad7e88d	-0.0016472504
136	0x3e4dbf00	0.20092392
137	0x3dd9f688	0.10642725
138	0x3d9b1f74	0.075743586
139	0x3dbe879f	0.093032114
140	0x3df52a32	0.11970939
141	0xbe5ab450	-0.21357846
142	0xbdb6d761	-0.08927799
143	0xbe0bafd6	-0.13641295
144	0x3d7bd470	0.061481893
145	0xbd8a0559	-0.06739301
146	0xbdd0af31	-0.10189665
147	0x3ddfc36e	0.10925947
148	0x3bf6d6ab	0.0075329146
149	0x3cca5146	0.024696957
150	0xbe68c55a	-0.22731534
151	0x3dc23440	0.09482622
152	0x3d76fb52	0.06029827
153	0xbdd9aaf6	-0.10628311
154	0xbd8007d0	-0.0625149
155	0x3d5b976b	0.0536112
156	0x3df55dba	0.119807675
157	0x3e0d7aca	0.13816372
158	0x3bd01fb8	0.0063514374
159	0x3e410076	0.18847832
160	0xbda0b228	-0.078464806
161	0x3e043cd4	0.12913829
162	0x3bf8c8d3	0.0075922995
163	0x3e6a0a5c	0.22855514
164	0x3d8bc289	0.06824214
165	0xbe627b9d	-0.22117467
166	0x3d87e565	0.066355504
167	0x3e780c09	0.24223341
168	0xbc635725	-0.013875757
169	0x3e418ee3	0.18902163
170	0xbd852671	-0.06501473
171	0xbcf43cbc	-0.029814117
172	0xbe02f754	-0.1278966
173	0xbe186b18	-0.14884603
174	0x3c3dde5c	0.011588659
175	0x3d0b33db	0.033985
176	0x3db7a5e9	0.08967192
177	0xbdc145d6	-0.09437148
178	0xbd1a46fe	-0.03766536
179	0x3de3ace6	0.11116962
180	0x3e706600	0.2347641
181	0x3de3d3c1	0.11124373
182	0x3e130d16	0.1436046
183	0xbdd66617	-0.10468691
184	0xbd812de7	-0.06307583
185	0x3e4eda7e	0.20200536
186	0x3e0b02b4	0.1357525
187	0xbcd09604	-0.025462158
188	0xbcfe5a12	-0.031048808
189	0xbc7664b6	-0.01503866
190	0xbdc02d69	-0.09383661
191	0xbd1952b9	-0.037432406
192	0xbe2989fb	-0.16556542
193	0x3e335e25	0.17516382
194	0xbe0fb999	-0.14035644
195	0xbd9600f6	-0.07324402
196	0x3ccdaab2	0.025105808
197	0x3b271bd4	0.0025498765
198	0xbe003d42	-0.12523368
199	0x3df86dd1	0.12130321
200	0xbc0394b8	-0.008031063
201	0xbd6b5035	-0.05744954
202	0xbd3329d3	-0.04374106
203	0x3d84b972	0.064806834
204	0xbe14e655	-0.1454099
205	0xbdcea660	-0.10090327
206	0xbc8c810a	-0.017151374
207	0xbb885833	-0.004160905
208	0x3e45ed46	0.19328794
209	0xbd5df5fc	-0.054189667
210	0x3d13e46a	0.036106504
211	0xbd1d359b	-0.0383812
212	0xbc56fd49	-0.013121911
213	0x3d148302	0.03625775
214	0x3d2ef2f7	0.042712178
215	0xbd098fcb	-0.033584397
216	0x3d9dbe28	0.07702285
217	0x3e29d67d	0.16585727
218	0x3dda7590	0.106669545
219	0x3d34f59e	0.04417955
220	0x3d84fb69	0.06493265
221	0x3d1aaa9d	0.037760366
222	0xbd4164a3	-0.047215115
223	0x3dd86345	0.10565809
224	0xbdd0bea6	-0.10192613
225	0x3d7612a8	0.060076386
226	0x3e190a6a	0.14945379
227	0x3ded2fb9	0.11581368
228	0xbb1ac3ec	-0.0023615314
229	0x3e18c247	0.14917861
230	0x3d7af0f0	0.061264932
231	0xbc44e665	-0.012017821
232	0x3d9ba5a5	0.075999536
233	0xbd9b78ae	-0.07591377
234	0x3dc065f0	0.09394443
235	0xbe5acaac	-0.21366376
236	0x3c66ab38	0.014078908
237	0x3d93fe35	0.072262205
238	0xbe4f3191	-0.20233752
239	0xbe117849	-0.14206041
240	0x3d6aa1b7	0.05728313
241	0xbdb939c3	-0.0904422
242	0xbd82c7dd	-0.06385777
243	0x3da72e43	0.081631206
244	0xbe232de7	-0.15935479
245	0x3e0acfa0	0.13555765
246	0xbe266cfa	-0.16252509
247	0x3e1a37d6	0.15060362
248	0x3d80ebf3	0.06295004
249	0x3dbc72bb	0.092015706
250	0x3da19c17	0.078911
251	0xbdaae875	-0.08345119
252	0x3c890f61	0.016730966
253	0x3d65f908	0.056145698
254	0xbd46907a	-0.048477627
255	0x3e428a24	0.18998009

lstm.weight_hh_l1 f4 [128, 32]
0	0x3e27d9b6	0.16391644
1	0xbe1c4bc3	-0.15263276
2	0xbe002837	-0.12515341
3	0x3d1dd40d	0.038532306
4	0x3c967c47	0.018369807
5	0x3e1b7db7	0.15184675
6	0x3e30b451	0.17256285
7	0x3d3a52a5	0.045488972
8	0x3c03913f	0.008030235
9	0xbd6b311c	-0.05741988
10	0xbe0adb24	-0.13560158
11	0xbddf20b5	-0.1089491
12	0x3dcbebbf	0.099570744
13	0xbddff595	-0.10935513
14	0x3d039640	0.03212571
15	0x3d4640cc	0.04840164
16	0x3e262490	0.16224885
17	0xbcf74e31	-0.030188652
18	0x3c3564b9	0.011071377
19	0xbd37ba7a	-0.044855572
20	0x3abacc10	0.0014251489
21	0x3e1391fb	0.14411156
22	0xbd3e9b5b	-0.046534877
23	0x3d68b40d	0.056812335
24	0xbde7ca82	-0.11317922
25	0x3c9e59e1	0.019329967
26	0x3db8f555	0.09031168
27	0xbe0372ca	-0.12836757
28	0xbd796a63	-0.060892474
29	0xbe493a50	-0.1965115
30	0x3e176e1d	0.14788099
31	0x3cf38980	0.029728651
32	0x3d7ccbf6	0.06171795
33	0x3d4ebf93	0.05047567
34	0x3d7d8f7d	0.06190442
35	0x3e197e40	0.14989567
36	0xbe657f11	-0.22411753
37	0xbe32c215	-0.17456849
38	0xbcd0c8a8	-0.025486305
39	0x3d7ad987	0.061242606
40	0x3d93dd29	0.07219917
41	0xbe2ce718	-0.1688503
42	0x3e52027b	0.20508759
43	0x3d6965ca	0.05698184
44	0xbe50e5c2	-0.20400146
45	0x3dcadef6	0.09905808
46	0xbe13bac0	-0.14426708
47	0xbdb107a4	-0.086440355
48	0x3cc05019	0.023475694
49	0x3c4c3910	0.012464777
50	0xbd38771d	-0.04503547
51	0xbd838209	-0.064212866
52	0x3dea5b9e	0.11443256
53	0x3e1efd70	0.15526366
54	0xbcdfaa12	-0.027302776
55	0x3de037e7	0.109481625
56	0xbd692803	-0.056922924
57	0x3d835a38	0.06413692
58	0xbe284b90	-0.16435075
59	0x3dc536cf	0.096295945
60	0xbe1c5dc1	-0.1527014
61	0xbe5f34cb	-0.21797483
62	0xbc05d547	-0.008168525
63	0x3e0ae6da	0.13564625
64	0x3db437a3	0.08799674
65	0xbe0d101d	-0.13775678
66	0xbcf8ccde	-0.030371126
67	0xbd85b25c	-0.0652816
68	0xbd6ea961	-0.058267
69	0xbdb7e639	-0.08979458
70	0xbdbbb5a2	-0.09165503
71	0x3df5f04f	0.12008726
72	0x3de377f1	0.111068614
73	0x3cf17303	0.029473787
74	0xbbaa4064	-0.0051956642
75	0x3d40adff	0.047040936
76	0x3d2595f5	0.040426213
77	0xbc3c0d68	-0.011477806
78	0x3d9972d6	0.07492606
79	0xbca295f7	-0.0198469
80	0xbc2e9834	-0.010656405
81	0xbcb4a44e	-0.022051003
82	0x3d170655	0.036871273
83	0xbe5cd888	-0.21566975
84	0x3d85de61	0.06536556
85	0x3e5e88a2	0.21731809
86	0xbe3ba726	-0.18325481
87	0x3cf031ab	0.029320559
88	0x3e47a4c7	0.19496451
89	0x3dfe8ad8	0.12428826
90	0x3c5012a3	0.012699756
91	0x3e5033b3	0.20332222
92	0xbde95663	-0.1139343
93	0x3dae015d	0.08496354
94	0x3d397621	0.045278672
95	0x3df9e537	0.122019224
96	0xbd0e4cc6	-0.034741186
97	0xbd910d7b	-0.07082649
98	0xbe109d7f	-0.1412258
99	0x3e5f64da	0.21815816
100	0xbdd32e9d	-0.10311625
101	0xbe424427	-0.1897131
102	0xbd1b34f9	-0.037892316
103	0xbd843f21	-0.064573534
104	0x3d6cb98d	0.057794143
105	0xbd53acb4	-0.051678374
106	0xbd9ccc7b	-0.07656189
107	0xbe20599f	-0.15659188
108	0xbe4649c1	-0.19364072
109	0x3dfe47f7	0.1241607
110	0xbe54751e	-0.20747802
111	0xbb4ec058	-0.0031547751
112	0xbd3c56a3	-0.04598106
113	0x3d8d5e41	0.06902743
114	0xbd77f364	-0.06053485
115	0xbd6c5028	-0.05769363
116	0xbdb3727b	-0.0876207
117	0xbd82e291	-0.0639087
118	0x3da6ba3c	0.0814099
119	0xbc01d808	-0.007925041
120	0xbc9e25da	-0.019305158
121	0x3d5226a0	0.051306367
122	0xbd82db9c	-0.063895434
123	0xbe082959	-0.13297023
124	0xbd132f09	-0.035933528
125	0x3bb1befd	0.005424379
126	0x3d3104ae	0.043217354
127	0x3dd62dd5	0.104579605
128	0x3da0bb3b	0.078482114
129	0x3ccbd3c2	0.024881247
130	0xbd7985ec	-0.060918733
131	0xbd5da462	-0.054111846
132	0x3dd7313d	0.10507438
133	0x3d7cdae1	0.061732177
134	0x3de48485	0.111580886
135	0x3e10fc46	0.14158735
136	0x3b246b39	0.0025088324
137	0x3bb6e4d2	0.0055814767
138	0x3d5ceace	0.053934865
139	0xbd3a1012	-0.045425482
140	0x3dbfc0c7	0.09362941
141	0x3d94584f	0.07243406
142	0x3e6cd632	0.23128584
143	0x3e5a9874	0.21347219
144	0xbd513f6d	-0.05108588
145	0xbd185055	-0.037185986
146	0x3dbf7d47	0.09350067
147	0x3e15d1c1	0.14630796
148	0xbe75a8eb	-0.23990218
149	0xbd42668a	-0.04746107
150	0xbce086d1	-0.027408035
151	0x3c857946	0.01629318
152	0x3dd21ee6	0.102598
153	0x3d60252f	0.05472296
154	0x3e3ea89a	0.18619004
155	0xbdf1db8a	-0.11809452
156	0x3dd815e4	0.1055105
157	0xbdbdcb10	-0.09267247
158	0xbd33460a	-0.043767966
159	0x3d495a3e	0.049158327
160	0x3d193b2d	0.03740995
161	0x3e1009df	0.14066266
162	0xbd4ab20d	-0.04948621
163	0xbd3ca174	-0.04605241
164	0xbbc20b7e	-0.00592178
165	0xbd93a1c1	-0.072085865
166	0x3e2c7923	0.16843085
167	0x3e32d38c	0.17463511
168	0x3d69b090	0.05705315
169	0x3e51ea21	0.2049947
170	0x3dd56b13	0.104208134
171	0x3c97ca96	0.018529218
172	0xbe0e94e0	-0.13923979
173	0x3d60ba2a	0.05486504
174	0xbda0394d	-0.07823429
175	0xbd6ab26b	-0.05729906
176	0xbdad905d	-0.08474801
177	0xbd64fe15	-0.055906374
178	0x3d6f4ac1	0.0584209
179	0xbe2738d9	-0.1633028
180	0x3ceb40ab	0.02871736
181	0x3e580192	0.21094349
182	0xbe22ea3a	-0.15909663
183	0xbdb9e069	-0.09076006
184	0x3e1c653e	0.15272996
185	0xbb6c7a31	-0.0036083574
186	0xbdc02aa7	-0.09383135
187	0xbe0853cd	-0.13313217
188	0xbe781c72	-0.24229601
189	0xbdb04f89	-0.0860892
190	0x3dab2061	0.08355785
191	0xbd2b3660	-0.041799903
192	0xbdbbcf09	-0.09170348
193	0x3d5b58ac	0.05355136
194	0xbbdc4189	-0.0067216796
195	0xbe14194f	-0.1446278
196	0xbdaf81d2	-0.08569683
197	0x3e3770c0	0.17914104
198	0x3e2605a5	0.1621309
199	0xbcf746ab	-0.030185064
200	0x3e0b883c	0.13626188
201	0xbe463386	-0.19355592
202	0x3e10651c	0.1410107
203	0x3dcf00f4	0.10107604
204	0xbe5b65c7	-0.21425544
205	0xbd2451dc	-0.04011713
206	0xbd61c191	-0.05511624
207	0xbd953fa1	-0.07287527
208	0xbe0ca06f	-0.13733076
209	0x3dc7e17b	0.09759804
210	0xbc1de6dc	-0.009637561
211	0xbd8f821a	-0.07007237
212	0xbd434a8d	-0.04767852
213	0xbdaeb575	-0.08530704
214	0x3e33dd3e	0.17564866
215	0xbdd53ac7	-0.104116015
216	0x3e3a90e6	0.18219337
217	0xbe196953	-0.14981584
218	0xbd05d9b5	-0.032678325
219	0x3d935c4e	0.0719534
220	0x3df568a7	0.119828515
221	0xbcad2b8f	-0.021138934
222	0xbdbe01d1	-0.0927769
223	0x3d43a3a7	0.047763493
224	0x3de43693	0.11143222
225	0x3dd45ccd	0.10369263
226	0x3df6870a	0.120374754
227	0x3c2d2a42	0.010569157
228	0xbe8ef5df	-0.2792196
229	0xbe6ab5bc	-0.22920889
230	0xbe2b3b48	-0.16721833
231	0x3e344b56	0.17606863
232	0xbe846b3b	-0.2586306
233	0xbd7ca26d	-0.06167834
234	0xbe2be881	-0.16787912
235	0xbe5128b8	-0.20425689
236	0x3e2722e3	0.16321902
237	0x3d918977	0.071062975
238	0x3d100ab5	0.03516646
239	0xbd16fb5c	-0.03686081
240	0xbe804fd8	-0.25060916
241	0xbd01465d	-0.031561244
242	0xbdea28cd	-0.114335634
243	0x3e0f116d	0.13971491
244	0xbd1c5e4a	-0.03817586
245	0x3ca5c6a6	0.020236325
246	0xbd07dee4	-0.03317155
247	0xbe629106	-0.22125635
248	0xbe519d03	-0.20470051
249	0x3ce7b02e	0.028282251
250	0xbcb7090f	-0.022343187
251	0xbd3a083c	-0.04541801
252	0x3e03d227	0.12873136
253	0x3dc3ed0b	0.09566697
254	0x3d70cae1	0.05878723
255	0xba97e6de	-0.001158919

lstm.bias_ih_l1 f4 [128]
0	0xbdffd5e0	-0.12491965
1	0x3d66b319	0.056323145
2	0x3c9949f6	0.018712025
3	0x3df93de5	0.121700086
4	0x3e0b8fb0	0.13629031
5	0x3e9da74e	0.30791706
6	0x3de05f5a	0.10955687
7	0xbe25f6e4	-0.16207463
8	0x3ce40ce2	0.027838174
9	0xbe1daa4d	-0.15396996
10	0xbd6c451a	-0.057683088
11	0x3e0f0a99	0.13968886
12	0xbe07b22e	-0.13251564
13	0xbe9d7a59	-0.30757406
14	0x3e47ae54	0.19500095
15	0x3e489354	0.19587451
16	0x3e2bce6e	0.16777965
17	0xbe6741c9	-0.22583689
18	0xbe0c309b	-0.13690417
19	0xbdb3d82d	-0.08781467
20	0xbc286e64	-0.010280225
21	0xbbc37b3e	-0.0059656193
22	0x3da2a8ed	0.07942376
23	0x3e5b3100	0.21405411
24	0x3e2ea427	0.17054807
25	0x3e1a4236	0.1506432
26	0x3e465879	0.19369687
27	0xbde7c485	-0.1131678
28	0xbd36b9c1	-0.044610742
29	0x3e12d7bc	0.14340109
30	0x3da044d2	0.078256264
31	0xbe263d9e	-0.16234443
32	0xbdb73814	-0.08946243
33	0x3d57ef43	0.052718412
34	0xbd737bae	-0.059444122
35	0xbcdaae97	-0.026694579
36	0xbdec9d85	-0.11553482
37	0x3db834e2	0.089944616
38	0xbd94eeda	-0.0727212
39	0x3e14b392	0.14521626
40	0x3e6269fa	0.2211074
41	0x3e33c105	0.175541
42	0xbe008bba	-0.12553301
43	0xbdaeb3ac	-0.085303634
44	0xbd95c095	-0.07312123
45	0x3df43cbb	0.11925646
46	0xbdaf15d1	-0.08549083
47	0x3db54636	0.08851282
48	0xbcc84a09	-0.024449365
49	0x3d52f891	0.051506583
50	0x3e3ff51f	0.1874585
51	0xbe09936d	-0.13435145
52	0xbc904076	-0.017608862
53	0xbc9c9e43	-0.019118434
54	0x3e4a7d7a	0.19774428
55	0x3ce8ad37	0.028402908
56	0x3e376e46	0.1791316
57	0x3cd07881	0.025448086
58	0xbdfaa45c	-0.1223838
59	0x3e3f5db6	0.18688092
60	0xbd8635bb	-0.06553217
61	0x3e1451c1	0.14484312
62	0x3e38e9ed	0.18057986
63	0xbdac90fe	-0.084260926
64	0x3d4c28fd	0.049843777
65	0x3c159f5e	0.009132234
66	0x3dbda288	0.09259516
67	0x3df2f0a3	0.11862304
68	0xbbbdd81a	-0.0057935836
69	0xbe4409b4	-0.19144326
70	0xbd509125	-0.05091967
71	0x3b599b74	0.003320423
72	0x3e1631d2	0.14667442
73	0xbd8a9267	-0.06766205
74	0xbd3a6c35	-0.04551335
75	0xbdd7da2d	-0.105396606
76	0xbda8bb50	-0.08238852
77	0xbba6413a	-0.0050736936
78	0xbe57af15	-0.21062882
79	0x3e44a741	0.19204427
80	0x3dcef850	0.101059556
81	0xbe0b27ed	-0.13589449
82	0x3d6e1295	0.05812319
83	0xbd604659	-0.05475459
84	0xbd99861f	-0.07496285
85	0x3e09f953	0.13474016
86	0xbdeb1bd0	-0.11479914
87	0x3db4f5ca	0.08835943
88	0x3d42d847	0.04756954
89	0x3dd864e2	0.10566117
90	0x3d045d8d	0.03231578
91	0xbde6db1e	-0.11272262
92	0xbdb115a5	-0.086467065
93	0x3d3b5c9d	0.04574262
94	0xbd8d2c16	-0.06893174
95	0xbca55a03	-0.020184522
96	0x3d3e1fa2	0.046416886
97	0x3de98d71	0.11403931
98	0x3d886614	0.06660095
99	0xbd4df2a5	-0.050280232
100	0xbdf1d3d2	-0.1180798
101	0x3e162d0f	0.14665626
102	0xbc9a9b9c	-0.018873028
103	0x3e1e8659	0.15480937
104	0xbc822822	-0.015888277
105	0x3d4cabd0	0.04996854
106	0xbdd595de	-0.104289755
107	0x3e2c955b	0.1685385
108	0xbe7cdbff	-0.24693297
109	0x3bbf3afc	0.005835889
110	0xbd70ee83	-0.058821213
111	0xbd2e8243	-0.042604696
112	0x3e524360	0.20533514
113	0xbe623a7a	-0.2209262
114	0xbbbf52e7	-0.00583874
115	0xbdbbc956	-0.09169261
116	0x3d88e2b6	0.06683867
117	0x3e17e7d4	0.14834529
118	0x3bf01a79	0.0073273745
119	0x3bb16e2a	0.005414744
120	0xbe0a9f64	-0.13537365
121	0x3e2e389a	0.1701378
122	0x3d5ae96e	0.053445272
123	0xbd49b677	-0.049246278
124	0xbbb4d199	-0.00551815
125	0xbd815f92	-0.06317057
126	0xbcc76fed	-0.024345363
127	0xbe0d99cb	-0.13828199

lstm.bias_hh_l1 f4 [128]
0	0x3d3cef16	0.046126448
1	0x3e69dfcb	0.22839276
2	0xbd554e38	-0.05207655
3	0x3c673bb4	0.014113355
4	0x3c25bbf4	0.010115612
5	0x3e029f37	0.12756048
6	0xbd9d98c6	-0.07695155
7	0xbe3132f6	-0.17304596
8	0x3e3d8fb8	0.18511856
9	0xbde718c1	-0.11284018
10	0xbe8b786f	-0.2724032
11	0x3d84ee1c	0.06490728
12	0xbe99283c	-0.2991351
13	0xbe8db504	-0.27677166
14	0xbcc4cd31	-0.024023624
15	0xbc0ad71a	-0.008474136
16	0xbc142fa5	-0.0090445625
17	0xbd59b1ce	-0.053148083
18	0x3e07856a	0.13234487
19	0x3e26c808	0.16287243
20	0x3e343d40	0.1760149
21	0x3bd130cc	0.006383991
22	0x3c948136	0.018128019
23	0x3e5baa08	0.2145158
24	0xbe032be5	-0.12809713
25	0xbcbf721e	-0.023369845
26	0x3d47b459	0.048755977
27	0x3de05238	0.10953182
28	0x3e3a6abb	0.18204777
29	0x3db5d7d5	0.08879057
30	0x3cd93bf6	0.02651785
31	0x3d14751b	0.036244493
32	0x3e2987c2	0.16555694
33	0x3cb4c8d9	0.022068428
34	0xb99700a6	-0.00028801447
35	0xbd1ef3f3	-0.038806867
36	0x3d90c0b1	0.07068003
37	0xbb3b8874	-0.0028615268
38	0x3d1b8002	0.037963875
39	0x3e04f63c	0.12984556
40	0x3d27eb21	0.04099572
41	0x3e0a2407	0.13490306
42	0x3dbf4c8d	0.09340773
43	0x3e2676f4	0.16256315
44	0x3d5c0cfc	0.05372332
45	0x3e09e3a3	0.13465743
46	0xbcf52321	-0.029923977
47	0xbd0a4d56	-0.03376516
48	0x3e4ba6ac	0.19887799
49	0xbdaa2b4b	-0.08309039
50	0x3e822846	0.2542135
51	0xbda18b40	-0.07887888
52	0x3e6b1578	0.22957408
53	0x3ccf1101	0.025276663
54	0x3e2cbd3e	0.16869065
55	0x3c1c7b43	0.009550872
56	0x3ddf6849	0.10908563
57	0x3e057950	0.13034558
58	0xbd118450	-0.035526574
59	0x3e744d30	0.2385757
60	0x3e1d22ef	0.15345357
61	0xbd9ccd30	-0.07656324
62	0x3d96bcea	0.07360251
63	0xbc063319	-0.008190894
64	0xbe3c1848	-0.18368638
65	0x3df4ada2	0.1194718
66	0xbdec1f56	-0.11529414
67	0x3bfa0f76	0.0076312376
68	0x3d4a5350	0.04939586
69	0xbe6a991c	-0.22909969
70	0x3a965872	0.001147045
71	0xbc549b53	-0.012976485
72	0xbdd9bee5	-0.10632113
73	0x3b8c2179	0.004276451
74	0x3e69d468	0.22834933
75	0xbd70bb55	-0.058772404
76	0x3d805056	0.06265323
77	0xbd839b4a	-0.064261034
78	0x3d56a2e7	0.05240145
79	0x3e5d15e1	0.21590377
80	0xbd00214f	-0.031281766
81	0x3e44862b	0.19191806
82	0x3ccab84e	0.024746086
83	0x3dc2ed3b	0.09517904
84	0x3d8ee4a7	0.06977206
85	0x3e39c095	0.1813987
86	0xbc1fd3ca	-0.009755084
87	0x3e07e808	0.13272107
88	0x3c44cf5e	0.012012331
89	0xbe63211f	-0.22180603
90	0xbe1383e2	-0.14405778
91	0xbe603f0e	-0.21899053
92	0xbdb888f1	-0.090104945
93	0x3dbe562f	0.09293782
94	0xbdf319d0	-0.11870158
95	0x3da0256d	0.078196384
96	0xbe0d3d4a	-0.13792911
97	0x3d0491f7	0.032365765
98	0x3d25a32c	0.040438816
99	0x3e3ab0f9	0.18231572
100	0xbd18f38d	-0.037341643
101	0x3e1aaeb9	0.15105714
102	0x3e01d5f3	0.12679271
103	0xbe356845	-0.17715557
104	0xbdcb05f2	-0.09913243
105	0x3df31d6a	0.11870845
106	0xbceb94a7	-0.028757406
107	0xbda84d7d	-0.08217905
108	0xbda03782	-0.07823087
109	0xbe9be6fe	-0.3044967
110	0x3dc7c0e2	0.09753586
111	0x3e6e864d	0.23293419
112	0xbda72ded	-0.081630565
113	0xbd5fe2c1	-0.05465961
114	0x3e1174b3	0.14204673
115	0xbde0580a	-0.10954292
116	0x3d3e4580	0.046453
117	0x3dc13116	0.094331905
118	0xbd962aa1	-0.073323496
119	0x3d5bd862	0.053673156
120	0xbd57951f	-0.052632447
121	0xbceaf32b	-0.028680405
122	0xbd39b6ee	-0.04534047
123	0xbe163fb4	-0.14672738
124	0xbce73830	-0.028225034
125	0xbdfdc036	-0.12390177
126	0xbdf294e3	-0.11844804
127	0xbe315128	-0.17316115

bn.weight f4 [32]
0	0x3f66fef1	0.9023276
1	0x3f64ef1d	0.8942736
2	0x3f5cded5	0.86277515
3	0x3f6ae782	0.917595
4	0x3f6c0570	0.92195797
5	0x3f5e9735	0.86949474
6	0x3f576f39	0.8415409
7	0x3f5651e2	0.83718693
8	0x3f52233e	0.82085025
9	0x3f5a0491	0.8516322
10	0x3f5cc5af	0.8623914
11	0x3f56a4e1	0.83845335
12	0x3f637f70	0.8886633
13	0x3f5fa609	0.87362725
14	0x3f568fb2	0.8381301
15	0x3f59b55a	0.85042346
16	0x3f637a37	0.8885836
17	0x3f688ccd	0.90839845
18	0x3f5ecf07	0.8703465
19	0x3f51af33	0.8190796
20	0x3f5736ce	0.84068
21	0x3f641996	0.8910154
22	0x3f56d221	0.8391438
23	0x3f558a2e	0.8341397
24	0x3f5f6e06	0.8727726
25	0x3f5b22ec	0.8560016
26	0x3f5d62c0	0.86478806
27	0x3f55b1d8	0.83474493
28	0x3f5c107f	0.8596267
29	0x3f54631e	0.8296374
30	0x3f5440d4	0.8291142
31	0x3f5024cc	0.8130615

bn.bias f4 [32]
0	0xbe9e7f5d	-0.30956545
1	0x3e936627	0.28788874
2	0x3e615fcd	0.22009201
3	0xbea0b1ab	-0.3138555
4	0x3de36ddb	0.11104938
5	0xbeb53ac3	-0.35396394
6	0xbe253aa9	-0.16135658
7	0xbf1504eb	-0.5821063
8	0xbe0b91ca	-0.13629833
9	0xbe066669	-0.13125004
10	0x3ef48dbb	0.47764382
11	0xbe0f86a1	-0.140162
12	0x3ea73278	0.32655692
13	0x3eca3cd7	0.39499542
14	0x3dd6265e	0.10456537
15	0x3ea90902	0.33014685
16	0xbdc5ca85	-0.09657768
17	0x3e8bec55	0.27328745
18	0x3e0241b4	0.12720376
19	0x3d9e8579	0.07740302
20	0xbe308b3c	-0.17240614
21	0x3e436080	0.1907978
22	0x3e005b1e	0.12534758
23	0xbe36883e	-0.1782541
24	0xbe6f7022	-0.23382619
25	0xbe4934cb	-0.19649045
26	0xbe871aec	-0.26387727
27	0xbe616347	-0.22010528
28	0x3e2234f0	0.15840507
29	0x3da0d3d0	0.078529
30	0x3e1ab22e	0.15107033
31	0x3a6ff808	0.0009154086

bn.running_mean f4 [32]
0	0xbdbb71b5	-0.09152547
1	0x3ed771f2	0.4207912
2	0x3de6cd39	0.11269612
3	0xbe91a74e	-0.28447956
4	0xbf06c976	-0.52651155
5	0xbeb25047	-0.34826872
6	0xbe82711a	-0.25476915
7	0x3f2ba7d7	0.6705298
8	0xbed445b9	-0.41459444
9	0xbe9478c5	-0.2899839
10	0xbd0fb325	-0.035082955
11	0xbe912bac	-0.28353631
12	0xbba1428f	-0.0049212645
13	0xbe0653c0	-0.13117886
14	0x3e33dcea	0.17564741
15	0x3f010577	0.50398964
16	0xbeceebcd	-0.40414277
17	0xbb1edd65	-0.0024240848
18	0x3f269031	0.6506377
19	0x3ec7919e	0.38978285
20	0xbefcfd25	-0.49411884
21	0xbdd63707	-0.104597144
22	0x3e151098	0.14557111
23	0xbe4724de	-0.19447657
24	0xbe9d74ec	-0.30753267
25	0xbe1ecd82	-0.15508083
26	0xbcc82b47	-0.024434699
27	0xbe8362d2	-0.2566133
28	0x3efa7f5b	0.4892529
29	0x3edbb398	0.42910457
30	0xbd8d01a2	-0.06885077
31	0xbdb3dea0	-0.08782697

bn.running_var f4 [32]
0	0x3c015001	0.00789261
1	0x3c9168a0	0.017750084
2	0x3c8bd71c	0.017070346
3	0x3c86da0a	0.016461391
4	0x3cfdbc5c	0.030973606
5	0x3bcb8880	0.0062113404
6	0x3c8e3e03	0.017363554
7	0x3d4536b0	0.048147857
8	0x3d0bc85f	0.034126636
9	0x3c81131c	0.015756182
10	0x3c7c545b	0.015400971
11	0x3ce6a88e	0.028156545
12	0x3ab78fd1	0.0014004653
13	0x3b9824d0	0.0046430603
14	0x3cc85abe	0.024457332
15	0x3ca99b6a	0.02070399
16	0x3e0d3c83	0.13792615
17	0x3aaf1985	0.0013359046
18	0x3cd461a3	0.025925463
19	0x3cd452d0	0.025918394
20	0x3db64795	0.08900372
21	0x3cdff109	0.027336614
22	0x3c96e544	0.01841987
23	0x3d1c2947	0.038125303
24	0x3c6e09e4	0.014528725
25	0x3b6ebcfc	0.0036428561
26	0x3c71991e	0.014745979
27	0x3b1fbe7e	0.0024375017
28	0x3cc8e7f1	0.02452466
29	0x3d1fa3f9	0.038974736
30	0x3cb4651d	0.02202087
31	0x3b9ee0c3	0.004848571
