model/rnn.pth (torch, 33656 bytes, 16 tensors)

rnn.weight_ih_l0 f4 [32, 8]
0	0xbd9b536c	-0.07584271
1	0xbc0d39c5	-0.00861973
2	0x3debff58	0.11523312
3	0xbded54d8	-0.11588448
4	0xbd3757d5	-0.044761498
5	0xbe190ca6	-0.14946231
6	0x3e0da192	0.13831165
7	0x3e4db1c7	0.20087348
8	0xbc6c2bab	-0.014414708
9	0xbbb2cb55	-0.005456368
10	0x3b7259fb	0.0036979902
11	0x3d2db926	0.0424129
12	0x3df4db10	0.11955845
13	0xbd8ab2e9	-0.06772406
14	0x3e53f410	0.20698571
15	0xbda618b2	-0.08110179
16	0x3da50d27	0.08059149
17	0xbc878019	-0.016540574
18	0x3d4a1bbe	0.049342863
19	0xbd59095b	-0.052987438
20	0xbe0d5d9f	-0.13805245
21	0x3d6a5b77	0.057216134
22	0x3d2a1db4	0.041532233
23	0x3d2f5dac	0.04281394
24	0x3d3d2b16	0.046183668
25	0xbb605ba5	-0.0034234312
26	0x3d358107	0.044312503
27	0x3ddd3e56	0.10802905
28	0xbe2ada8d	-0.16684933
29	0x3d63c237	0.05560514
30	0xbe03a8b3	-0.12857322
31	0x3e22cedb	0.15899222
32	0xbc4e0d54	-0.01257642
33	0xbdeeaf0e	-0.11654483
34	0x3d60c14a	0.054871835
35	0xbe046295	-0.12928231
36	0xbe20b4f9	-0.15694036
37	0x3e1e134d	0.1543705
38	0x3e350e05	0.1768113
39	0x3e59dbd3	0.21275263
40	0x3cee6dd6	0.029105108
41	0xbbfe1222	-0.0077536264
42	0xbc938992	-0.018009935
43	0x3dfd831c	0.12378523
44	0xbdfb11f0	-0.12259281
45	0x3db6d5be	0.08927487
46	0x3d1f2da4	0.038861886
47	0x3e0575fa	0.13033286
48	0xbc360f4f	-0.011112048
49	0x3de14ca5	0.11000947
50	0xbd9e2106	-0.077211425
51	0xbdf88d86	-0.121363685
52	0x3d80a783	0.0628195
53	0x3e37d602	0.17952731
54	0xbe4a4d19	-0.19755973
55	0xbe102f76	-0.14080605
56	0xbdecead1	-0.11568225
57	0x3d798d57	0.060925808
58	0xbd6a3369	-0.057177935
59	0x3db113a5	0.08646325
60	0xbe558525	-0.20851572
61	0xbcadcd48	-0.02121605
62	0x3e0ae631	0.13564374
63	0xbe552f91	-0.20818926
64	0xbc891ae9	-0.016736465
65	0xbc9a7b06	-0.01885749
66	0xbe035930	-0.12826991
67	0x3d6e9cae	0.05825489
68	0xbd683444	-0.05669047
69	0xbd576042	-0.052582033
70	0x3dc222e1	0.09479309
71	0x3d99859d	0.07496188
72	0xbdcdae6b	-0.10043033
73	0xbe22e08b	-0.15905969
74	0x3ca5a6a3	0.02022106
75	0x3d1e2d55	0.03861745
76	0x3cb7576f	0.022380559
77	0x3df45339	0.11929936
78	0x3d9a4a12	0.07533659
79	0x3ddce090	0.107850194
80	0x3c837a53	0.01604954
81	0xbdb9e951	-0.09077705
82	0xbd36a87c	-0.044594273
83	0xbda7fa88	-0.08202082
84	0x3b969f34	0.004596615
85	0x3d2b6c15	0.041851122
86	0xbd63735b	-0.055529933
87	0x3e2f5129	0.17120804
88	0x3dfadb82	0.12248899
89	0x3d557a35	0.0521185
90	0xbe22f57a	-0.15913954
91	0x3dde5b5e	0.10857271
92	0x3d6ca75d	0.057776798
93	0x3e192be7	0.14958154
94	0x3db64845	0.08900503
95	0x3e08ec1d	0.1337132
96	0x3c84c294	0.016206063
97	0xbca81c10	-0.020521194
98	0x3cc65811	0.024211915
99	0x3dd8e179	0.105898805
100	0xbded8786	-0.11598115
101	0x3decc639	0.115612455
102	0x3b94f01e	0.0045452258
103	0x3e2be71b	0.16787378
104	0xbdc438c3	-0.09581139
105	0x3c369f0f	0.011146321
106	0x3e2bffac	0.1679675
107	0xbcc29987	-0.023754848
108	0xbdec7e92	-0.11547579
109	0x3cebd79e	0.028789338
110	0x3dfe795c	0.12425491
111	0x3cd629d7	0.026142998
112	0x3cdbe22c	0.026841246
113	0xbe20941b	-0.15681498
114	0x3d7bef6d	0.06150763
115	0xbe17f1fb	-0.14838402
116	0xbdcac860	-0.099015
117	0xbda89d7f	-0.08233165
118	0xbe104e56	-0.14092383
119	0xbdf993c9	-0.12186391
120	0xbdb05300	-0.08609581
121	0xbde779f8	-0.113025606
122	0x3dd1d685	0.102459945
123	0x3e162005	0.14660652
124	0xbd9d7dc4	-0.076900035
125	0x3defd525	0.11710576
126	0xbce04870	-0.02737829
127	0x3d882d72	0.06649293
128	0x3ccd5fd7	0.025070114
129	0x3e04216b	0.12903373
130	0xbd402ac7	-0.046915796
131	0x3db27467	0.08713608
132	0xbd2acc54	-0.04169877
133	0x3cc36e81	0.023856403
134	0x3d9723d0	0.073798776
135	0x3e37f150	0.17963147
136	0x3d0e0591	0.034673277
137	0x3dbaef88	0.09127718
138	0xbdeef27c	-0.11667344
139	0xbcbb4818	-0.022861525
140	0x3d193023	0.037399422
141	0x3e151684	0.1455937
142	0x3cbb4ef9	0.022864806
143	0x3e019f66	0.12658462
144	0xbe0008df	-0.12503384
145	0x3e204304	0.15650564
146	0xbcfbe869	-0.03075047
147	0x3e179fb8	0.14807022
148	0xbdf94681	-0.12171651
149	0x3d0167be	0.031593077
150	0x3d40d6fa	0.047080018
151	0xbe3a4400	-0.18190002
152	0xbd100429	-0.035160217
153	0x3deeb921	0.11656404
154	0x3c46877f	0.012117266
155	0xbe01d711	-0.12679698
156	0x3dfce17c	0.12347695
157	0x3b50d524	0.0031865323
158	0xbe28f530	-0.16499782
159	0x3e149c71	0.14512803
160	0x3e337be9	0.17527737
161	0xbdadfc8a	-0.08495434
162	0xbe293b83	-0.16526608
163	0xbce54a15	-0.027989427
164	0x3db79bf1	0.0896529
165	0x3c30470d	0.010759127
166	0x3e2e0540	0.1699419
167	0x3e23804d	0.15966912
168	0xbd9e34f2	-0.07724942
169	0x3d462720	0.048377156
170	0x3e07ee60	0.13274527
171	0xbcd2be59	-0.02572553
172	0xbd2193a8	-0.039447457
173	0xbde44a91	-0.11147035
174	0xbdf4426d	-0.11926732
175	0xbe5490a8	-0.20758307
176	0xbcc10e70	-0.023566455
177	0xbd1d2479	-0.03836486
178	0x3c213da2	0.009841355
179	0xbda85b1e	-0.08220504
180	0x3d86a50d	0.0657445
181	0xbb79bddf	-0.0038107557
182	0x3d6af9eb	0.057367247
183	0x3e07945e	0.13240191
184	0x3d91338b	0.07089909
185	0xbbb86f4f	-0.0056285034
186	0xbdb2d951	-0.08732856
187	0x3e041076	0.12896904
188	0x3d868d9c	0.065699786
189	0x3d970ff4	0.0737609
190	0x3db66688	0.08906275
191	0xbe23db0b	-0.16001527
192	0xbdb394f1	-0.08768643
193	0xbc3f64c3	-0.011681738
194	0x3e0773ae	0.13227722
195	0xbc7b7cec	-0.015349608
196	0x3dcddaea	0.1005152
197	0xbce90741	-0.028445842
198	0xbde43ab0	-0.11144006
199	0x3e0c9bfb	0.13731377
200	0xbde3ff30	-0.111326575
201	0xbdb53b23	-0.0884917
202	0x3d74fe49	0.059812818
203	0x3dc7cdd1	0.09756053
204	0x3c59b8a7	0.013288653
205	0x3cb0159d	0.021494681
206	0xbc57e5f2	-0.013177382
207	0xbd4236d7	-0.04741558
208	0xbe05827b	-0.13038056
209	0x3dc5e1ec	0.09662232
210	0x3cade81a	0.021228839
211	0xbe153d36	-0.14574131
212	0x3e3d9b0f	0.18516181
213	0x3d6147db	0.055000167
214	0xbe27c104	-0.16382223
215	0xbdb5e022	-0.088806406
216	0xbdd972a9	-0.10617573
217	0xbe00b785	-0.12570007
218	0x3e16f303	0.14741139
219	0x3c8af68b	0.016963264
220	0x3db1965b	0.08671256
221	0x3e2695b9	0.16268052
222	0xbdd0576e	-0.10172926
223	0x3d0bf6ec	0.03417103
224	0xbe0a5086	-0.1350728
225	0x3e5f21fd	0.21790309
226	0xbd7bc32b	-0.061465424
227	0xbce4f11e	-0.027947005
228	0xbe004791	-0.125273
229	0x3db241e6	0.087039754
230	0xbd957f74	-0.072997004
231	0xbbd0140c	-0.006350046
232	0x3dd65ae6	0.10466556
233	0xbc83afb6	-0.016074996
234	0xbd620c01	-0.05518723
235	0x3e145011	0.14483668
236	0x3e7a27a4	0.24429184
237	0xbde3a9fb	-0.111164056
238	0x3d5b70e9	0.053574476
239	0x3d645c82	0.055752285
240	0x3e007e68	0.1254822
241	0xbdc357fc	-0.09538266
242	0x3bae6073	0.0053215562
243	0xbe350394	-0.17677146
244	0xbd69bfb6	-0.057067595
245	0xbd8b2315	-0.06793801
246	0x3dfa9de4	0.122371465
247	0x3e38e661	0.18056633
248	0xbdc11da1	-0.094294794
249	0xbe27503e	-0.16339204
250	0x3e8ba2a7	0.2727253
251	0xbce523f1	-0.02797124
252	0x3dd36d05	0.10323528
253	0xbd215036	-0.039383136
254	0x3d9289ba	0.071551755
255	0x3e2ca687	0.168604

rnn.weight_hh_l0 f4 [32, 32]
0	0x3e672890	0.22574067
1	0xbda1357f	-0.07871532
2	0x3d67477b	0.056464653
3	0x3e06bb96	0.13157496
4	0x3e25d82e	0.16195747
5	0x3cad1096	0.021126073
6	0xbe0df2e0	-0.1386218
7	0xbe0eeb36	-0.13956913
8	0x3d96b77b	0.07359215
9	0x3c7ab67c	0.015302297
10	0x3b9e556a	0.0048319595
11	0x3e1673f9	0.14692678
12	0xbc8a6d2a	-0.016897757
13	0xbddbc2ef	-0.1073054
14	0xbde26964	-0.11055258
15	0x3df0ad60	0.11751819
16	0xbdb724e9	-0.08942587
17	0x3dec5d9f	0.11541294
18	0xbe6645b3	-0.22487526
19	0xbe147e3c	-0.1450128
20	0x3e6c22e1	0.2306018
21	0xbe295158	-0.16534936
22	0xbd98adb7	-0.074550085
23	0xbe0772ef	-0.13227437
24	0x3dd795b2	0.10526599
25	0xbd548a53	-0.05188973
26	0xbe1b3032	-0.15155104
27	0x3e3c78d1	0.18405463
28	0xbd72c29b	-0.05926762
29	0x3d1e6bfb	0.038677197
30	0x3d8c4731	0.06849516
31	0xbdbea97e	-0.09309672
32	0x3da3709c	0.07980463
33	0x3e517572	0.20454958
34	0x3dae3622	0.08506419
35	0x3e4fd9b5	0.20297892
36	0x3e239170	0.15973449
37	0x3ba30f0d	0.0049761594
38	0x3d4a1ddc	0.049344882
39	0x3dbeef00	0.093229294
40	0xbd9e8df7	-0.077419214
41	0xbdffac6e	-0.1248406
42	0x3e31a989	0.17349829
43	0x3cc30d81	0.02381015
44	0x3d897787	0.06712251
45	0x3e5120b9	0.20422639
46	0xbd0db2cd	-0.034594346
47	0x3cc50ae6	0.024053048
48	0x3da8f79b	0.08250352
49	0xbdbccd8e	-0.09218894
50	0x3e2cd8c3	0.16879563
51	0x3d7edf5d	0.062224735
52	0x3e58be80	0.2116642
53	0xbe2ff225	-0.17182215
54	0x3cc862fe	0.024461266
55	0xbe59b4f2	-0.21260431
56	0xbe32bda2	-0.17455152
57	0x3e47d098	0.19513166
58	0x3d001c79	0.031277154
59	0x3d6c7426	0.057727955
60	0x3c80a631	0.015704246
61	0xbd7c201a	-0.061554052
62	0x3e1d2e3b	0.15349667
63	0xbe01ce51	-0.1267636
64	0xbdf20d22	-0.11818911
65	0x3dfd0c8b	0.12355908
66	0xbe784c32	-0.24247816
67	0xbe3f11b7	-0.18659101
68	0xbdd31217	-0.10306185
69	0xbc920dd5	-0.017828861
70	0xbdc7ed81	-0.09762097
71	0xbd8546d1	-0.06507648
72	0xbe2575e6	-0.16158256
73	0x3cde21bd	0.027115697
74	0x3b34e7aa	0.0027603903
75	0xbe8a1bc1	-0.269743
76	0x3e144f3b	0.14483349
77	0xbd5dec72	-0.05418057
78	0xbe0dca50	-0.13846707
79	0x3a71e8ea	0.00092281273
80	0x3dc76870	0.09736717
81	0x3ca13a24	0.019681044
82	0xbda17db7	-0.07885306
83	0x3e2426c9	0.1603042
84	0xbdbf246c	-0.09333119
85	0xbd848ada	-0.06471796
86	0x3e67dd55	0.22643025
87	0x3c1567b3	0.009118962
88	0x3e372417	0.17884861
89	0x3e45f4b1	0.19331624
90	0xbdf30964	-0.118670255
91	0x3e813ca2	0.25241572
92	0xbd8fb774	-0.07017413
93	0x3e051986	0.12998018
94	0x3cdec434	0.027193166
95	0x3c959b00	0.018262386
96	0x3e0eab86	0.13932618
97	0x3e6cf5fd	0.23140712
98	0x3e1f11ba	0.15534106
99	0x3daffa93	0.08592715
100	0x3e6bca0c	0.23026294
101	0xbd17e3e7	-0.03708258
102	0xbe4e106e	-0.20123455
103	0xbc944a5a	-0.01810186
104	0x3e24d39a	0.16096345
105	0x3e1390d5	0.14410718
106	0x3e24f767	0.16110002
107	0xbd121626	-0.035665654
108	0xbc844482	-0.016145948
109	0x3e0aa2df	0.13538693
110	0xbdf49b57	-0.11943691
111	0xbd9298d4	-0.07158056
112	0x3d363e9c	0.044493303
113	0x3e053023	0.13006644
114	0x3d9282a0	0.07153821
115	0xbdd00c70	-0.10158622
116	0x3db5db89	0.08879764
117	0xbe165f33	-0.14684753
118	0x3dc3ae54	0.09554735
119	0xbe58e395	-0.21180566
120	0xbd74e82d	-0.059791733
121	0x3d888750	0.06666434
122	0xbc73449a	-0.014847899
123	0x3dfc7b35	0.123281874
124	0xbd8aaf59	-0.06771726
125	0x3e3f8d9c	0.18706363
126	0xbe02facc	-0.12790984
127	0x3d47b862	0.048759826
128	0x3e6a4031	0.2287605
129	0xbc806318	-0.015672252
130	0xbd8b69f4	-0.06807318
131	0x3e6681bf	0.22510432
132	0xbc0b80ca	-0.008514592
133	0x3d397334	0.045275882
134	0xbcae84f2	-0.021303628
135	0xbdd9aec8	-0.1062904
136	0xbe2f0fa0	-0.17095804
137	0x3d7129b2	0.058877654
138	0x3e7f117b	0.24909012
139	0xbd86d521	-0.0658362
140	0xbc8dca31	-0.017308326
141	0xbe1878fa	-0.14889899
142	0xbe782b2e	-0.24235222
143	0x3cdebc6d	0.027189458
144	0x3db29a4c	0.08720836
145	0xbdbc1e0c	-0.091854185
146	0x3d59ce1e	0.053175084
147	0xbe18a34e	-0.14906046
148	0x3e1be2af	0.15223192
149	0x3d127719	0.03575811
150	0xbda94995	-0.08265988
151	0xbdf6723c	-0.12033507
152	0x3deed548	0.11661774
153	0x3dc249ae	0.094867095
154	0xbd247a17	-0.040155496
155	0xbd13e8d9	-0.036110733
156	0xbd92afb1	-0.07162417
157	0xbcaaf636	-0.020869356
158	0xbc209604	-0.0098013915
159	0xbe3483c6	-0.17628393
160	0xbe5c2a5d	-0.21500535
161	0xbe4b8c69	-0.19877781
162	0xbe3eb57c	-0.18623918
163	0xbbcab29b	-0.006185842
164	0xbe1542ed	-0.14576311
165	0xbdcb8992	-0.09938349
166	0x3e85e6d7	0.2615268
167	0x3e1eb49c	0.15498585
168	0xbd5914f3	-0.052998494
169	0xbc09f11c	-0.008419301
170	0xbc5cfe82	-0.013488414
171	0xbd39e0df	-0.04538047
172	0xbcac1339	-0.02100526
173	0x3e46a42e	0.19398567
174	0x3e6e0c19	0.23246802
175	0x3dd182d5	0.10230032
176	0x3c3996df	0.011327474
177	0x3d0e1cdb	0.034695487
178	0x3d3da4e6	0.046299838
179	0x3e03b9a9	0.12863792
180	0xbc3a5c73	-0.011374581
181	0x3e099146	0.13434324
182	0xbe038fbc	-0.12847799
183	0x3ddf1582	0.10892774
184	0xbd61eec0	-0.05515933
185	0xbdbf5cbb	-0.09343859
186	0xbe10d89a	-0.14145127
187	0xbdc1e57f	-0.09467601
188	0x3e349a1a	0.1763691
189	0xbe0ed4ce	-0.13948366
190	0x3d881177	0.06643956
191	0xbdf0666e	-0.11738287
192	0xbdb08e9a	-0.08620949
193	0xbcbb1a34	-0.022839643
194	0xbe2fc749	-0.17165865
195	0xbe74ff56	-0.23925528
196	0xb91175ae	-0.00013872117
197	0x3ca0b12a	0.019615728
198	0x3e4e10b8	0.20123565
199	0xbde79d16	-0.11309259
200	0x3e045094	0.12921363
201	0x3d910f98	0.070830524
202	0xbe575f44	-0.21032435
203	0x3e2b6f9f	0.16741799
204	0xbc973384	-0.018457182
205	0x3d3bd02d	0.04585283
206	0x3e1c6a21	0.1527486
207	0x3db777c4	0.0895839
208	0xbe827517	-0.25479957
209	0x3df2269f	0.11823773
210	0x3e242b4d	0.16032143
211	0x3d8a6a90	0.067586064
212	0xbd90f531	-0.070780165
213	0x3e91cd67	0.28477022
214	0x3e1ac3cd	0.15113755
215	0x3c8c1a6d	0.017102445
216	0xbd2ebb20	-0.042658925
217	0xbdd890f9	-0.10574526
218	0x3dcf1818	0.101120174
219	0xbe1b1dd6	-0.151481
220	0xbdb2f8f1	-0.08738888
221	0x3e049ea7	0.12951146
222	0xbd6ef301	-0.058337215
223	0x3df46a70	0.11934364
224	0x3da36040	0.079773426
225	0x39141436	0.00014121909
226	0xbe151448	-0.14558518
227	0x3c2f9521	0.010716707
228	0x3d009e69	0.03140107
229	0xbe0000ca	-0.12500301
230	0xbd13e01c	-0.0361024
231	0xbdc1478f	-0.09437477
232	0xbd6d16e9	-0.057883177
233	0xbc95cb88	-0.018285528
234	0x3da0c799	0.0785057
235	0x3d232431	0.039829437
236	0xbc34aba3	-0.0110272495
237	0xbdb806f4	-0.08985701
238	0xbe20f4ad	-0.15718336
239	0xbe1461c7	-0.14490424
240	0x3de256ae	0.11051689
241	0xbe039a7f	-0.12851904
242	0x3df47c8e	0.119378194
243	0xbd113c7c	-0.035458073
244	0x3d834a0a	0.06410606
245	0x3e2548fb	0.16141121
246	0x3d76144a	0.060077943
247	0x3cca3ae7	0.02468629
248	0xbd6859ec	-0.05672638
249	0xbe4d72bf	-0.20063303
250	0xbdd6a6b2	-0.10481013
251	0xbc92c31d	-0.017915303
252	0xbd7b3f97	-0.06133994
253	0xbe46ae31	-0.19402386
254	0x3d9d823c	0.07690856
255	0xbd92836b	-0.07153972

rnn.bias_ih_l0 f4 [32]
0	0x3e0a9388	0.13532841
1	0x3bc243e6	0.0059285043
2	0x3da53edd	0.08068631
3	0xbdebff92	-0.115233555
4	0x3df5b595	0.11997525
5	0xbde40a86	-0.1113482
6	0xbddf7294	-0.10910526
7	0x3d5d777c	0.054069027
8	0x3ca0c843	0.019626742
9	0x3d9dff28	0.07714683
10	0x3e356d69	0.17717518
11	0xbcd3e7a2	-0.025867287
12	0xbdb30a8a	-0.087422445
13	0x3dab52f1	0.08365429
14	0x3e245205	0.16046913
15	0x3dbed481	0.09317876
16	0xbe4ede3b	-0.20201962
17	0xbd314b55	-0.043284733
18	0x3e1d7bea	0.153793
19	0xbdde58dd	-0.10856793
20	0x3ccaa52b	0.024736961
21	0xbbebe7d9	-0.0071992693
22	0x3e326612	0.17421749
23	0x3defcb98	0.11708754
24	0x3dff784a	0.12474115
25	0x3dcf47a9	0.1012109
26	0x3dd069af	0.101764075
27	0x3e09e148	0.13464844
28	0x3dd3dd3a	0.1034493
29	0xbdcde65a	-0.10053702
30	0x3e0c62e9	0.13709606
31	0xbd8bcc1e	-0.06826042

rnn.bias_hh_l0 f4 [32]
0	0xbe191e32	-0.14952925
1	0xbe007306	-0.12543878
2	0x3df6dc62	0.120537534
3	0x3d0f81fd	0.035036076
4	0x3df7c48d	0.12098036
5	0xbe083f59	-0.13305415
6	0x3dc7d656	0.09757678
7	0x3de82d6a	0.11336787
8	0x3dd9741a	0.10617848
9	0x3e835480	0.25650406
10	0x3e2d02d3	0.16895609
11	0xbe3dcdff	-0.18535613
12	0xbd01356e	-0.031545095
13	0x3e44206f	0.19152997
14	0xbd361b7d	-0.04445981
15	0x3e1579cf	0.14597248
16	0xbd0dde3b	-0.034635764
17	0x3cbe094d	0.023197794
18	0x3e1d6183	0.15369229
19	0x3cd694c5	0.026193986
20	0xbd7184f2	-0.058964677
21	0xbe10a5c3	-0.14125733
22	0xbe177f30	-0.14794612
23	0xbccb0be6	-0.024785947
24	0x3d6a34fa	0.05717943
25	0x3e000cc1	0.12504865
26	0x3d319f25	0.043364663
27	0x3e70771f	0.23482941
28	0xbdd8bab3	-0.10582485
29	0xbe01ad56	-0.12663779
30	0xbe1c45ca	-0.15260997
31	0x3e2f487e	0.17117497

rnn.weight_ih_l1 f4 [32, 32]
0	0x3d4ab347	0.04948738
1	0xbcc7b048	-0.02437605
2	0xbdd51138	-0.10403675
3	0x3cc496ee	0.02399775
4	0xbd893cc5	-0.06701044
5	0xbdbc3d5e	-0.09191392
6	0xbe274763	-0.16335826
7	0x3e832064	0.2561065
8	0xbd84b81b	-0.06480428
9	0x3cb4fdd8	0.022093698
10	0xbda2a8f4	-0.079423815
11	0xbddbf356	-0.10739772
12	0xbda3bec6	-0.079953715
13	0xbdddf450	-0.108376145
14	0xbc8a392d	-0.016872967
15	0xbc21c26d	-0.009873015
16	0x3d9ba847	0.07600456
17	0xbe4da1e7	-0.20081292
18	0xbcdf35da	-0.027247358
19	0x3e042261	0.1290374
20	0x3dcf90fd	0.10135076
21	0x3de5c66c	0.112194866
22	0x3d3b463d	0.04572128
23	0xbdf77721	-0.12083269
24	0x3d8c3723	0.06846454
25	0x3de72d14	0.11287895
26	0xbe361c2d	-0.17784186
27	0x3e6b0d98	0.22954404
28	0x3d7763dd	0.06039797
29	0x3cd5cb5c	0.026097946
30	0x3dbae141	0.09124995
31	0x3c5f725d	0.013638106
32	0xbd91add1	-0.07113231
33	0xbdd846c9	-0.10560376
34	0xbe1651ed	-0.1467969
35	0x3cf8fa12	0.03039268
36	0xbdca98aa	-0.098923996
37	0x3e47c0f6	0.19507203
38	0x3e00417b	0.12524979
39	0x3dc40792	0.095717564
40	0xbe6266de	-0.22109553
41	0x3d957b13	0.07298865
42	0x3d61ce7d	0.055128563
43	0x3e2592d4	0.16169292
44	0xbe062d20	-0.13103151
45	0x3de04c05	0.109519996
46	0x3de71e2b	0.11285051
47	0xbde13313	-0.1099607
48	0x3dfe97e1	0.12431312
49	0x3bbddfe4	0.005794512
50	0xbc365052	-0.011127548
51	0xbd83acc4	-0.06429437
52	0x3db06a1f	0.08613991
53	0x3d18dfd7	0.037322845
54	0x3db664f9	0.08905978
55	0x3e007116	0.12543139
56	0xbe6919ad	-0.22763701
57	0xbde46c74	-0.11153498
58	0xbd912524	-0.07087162
59	0xbe4a7d7f	-0.19774435
60	0x3e5703cd	0.20997544
61	0xbe2674fb	-0.16255562
62	0x3de3ad85	0.111170806
63	0xbdebeabd	-0.11519382
64	0xbe5dc94f	-0.21658824
65	0xbe1755a5	-0.14778765
66	0xbdf48dcb	-0.11941107
67	0x3debe7dc	0.11518833
68	0x3cc37f86	0.023864519
69	0xbe14f6b4	-0.14547235
70	0xbd233896	-0.039848886
71	0x3ab2e32d	0.0013648026
72	0xbda190c5	-0.07888941
73	0x3d6e7b8f	0.058223303
74	0xbc6b29ed	-0.014353258
75	0xbd03036a	-0.031985678
76	0x3c430660	0.011903375
77	0xbd0b8d6d	-0.03407042
78	0x3dad9efb	0.08477589
79	0xbe46f6c9	-0.19430079
80	0xbe2f5a6b	-0.17124335
81	0xbd22dba5	-0.03976025
82	0x3dfc4880	0.12318516
83	0xbccbd23a	-0.024880517
84	0xbe051337	-0.12995611
85	0x3e7014a0	0.23445368
86	0xbddd7f07	-0.10815244
87	0x3e1ff80f	0.1562197
88	0xbc7125db	-0.014718498
89	0xbdb40af5	-0.087911524
90	0xbd384f41	-0.044997457
91	0x3debd429	0.11515076
92	0x3e489890	0.19589448
93	0x3d431946	0.047631525
94	0x3dd31f05	0.10308651
95	0xbddfb6a9	-0.109235115
96	0x3d984d74	0.07436648
97	0x3d500f59	0.050795887
98	0x3d962474	0.07331172
99	0x3d40f19a	0.04710541
100	0xbe14e2a3	-0.1453958
101	0xbd24e7fc	-0.0402603
102	0xbdc3a91f	-0.09553742
103	0x3e27b8e9	0.16379131
104	0x3db8b4fd	0.09018896
105	0xbd4586f1	-0.048224393
106	0xbd8a8950	-0.067644715
107	0xbe0a9910	-0.13534951
108	0x3dc6c762	0.09705998
109	0xbde39ec1	-0.11114264
110	0x3dbd9936	0.09257738
111	0x3d1bca1b	0.03803454
112	0xbd90d571	-0.07071961
113	0x3c8a50b3	0.016884184
114	0xbddeaf6b	-0.10873302
115	0xbd88dc0e	-0.06682597
116	0x3e016f5d	0.12640138
117	0xbdc248c5	-0.09486536
118	0xbced6aab	-0.028981527
119	0x3e02d248	0.12775528
120	0x3dd0af9c	0.10189745
121	0x3d80da40	0.06291628
122	0x3c1036b4	0.008802105
123	0x3e040ab3	0.12894706
124	0xbe530126	-0.20605907
125	0xbe01692c	-0.12637776
126	0xbe03bf28	-0.12865889
127	0xbdd5aade	-0.10432981
128	0x3ddd2824	0.10798672
129	0x3e772aa0	0.24137354
130	0xbe15facc	-0.14646453
131	0x3e0f7b9a	0.14011994
132	0xbdb32d93	-0.08748927
133	0xbe06d751	-0.13168074
134	0xbdafbbc1	-0.08580733
135	0x3cc32c65	0.02382488
136	0xbd447ca7	-0.04797044
137	0xbe09a2a1	-0.13440944
138	0xbd1349f1	-0.035959188
139	0xbe12987b	-0.14315979
140	0x3d476a94	0.048685625
141	0x3d82f519	0.06394405
142	0xbdacfdaa	-0.0844682
143	0x3dcb410a	0.099245146
144	0xbc3cf696	-0.0115334
145	0x3daad4a2	0.08341338
146	0x3da10065	0.078614034
147	0xbd788bdb	-0.06068025
148	0x3da4f98d	0.080554105
149	0xbe278e27	-0.1636282
150	0xbc999595	-0.018748084
151	0x3e32bcd1	0.1745484
152	0xbdf2d7df	-0.118575804
153	0x3dad55cd	0.08463631
154	0xbde2f319	-0.110815234
155	0xbd9a2e17	-0.07528322
156	0xbe38c8c6	-0.18045339
157	0x3d8ca583	0.06867506
158	0x3cc23625	0.023707459
159	0xbe070bca	-0.13188091
160	0xbd5ad930	-0.053429782
161	0xbe2c143b	-0.16804592
162	0xbe414af8	-0.18876255
163	0x3d705efa	0.058684327
164	0xbd828859	-0.063736625
165	0x3c842679	0.016131626
166	0x3da99eaf	0.082822196
167	0xbd5fa245	-0.05459811
168	0xbe568318	-0.20948446
169	0x3d3b0492	0.045658655
170	0x3d1abc2e	0.03777712
171	0x3e485070	0.19561934
172	0x3d60ec6b	0.054912966
173	0x3e5cada4	0.21550614
174	0x3e2d9772	0.16952303
175	0xbd04d7d0	-0.032432377
176	0xbdeaa3bf	-0.11457013
177	0x3e8b2273	0.2717472
178	0xbd9512bd	-0.07278965
179	0xbda2f2de	-0.079564795
180	0xbdbc4039	-0.09191937
181	0x3dab08fa	0.083513215
182	0x3d06286c	0.032753393
183	0xbd5cc7c4	-0.05390145
184	0xbdbd8e9a	-0.09255715
185	0x3def5b4c	0.11687335
186	0xbdfdc76c	-0.12391552
187	0xbe98f5ab	-0.2987493
188	0xbcca1f66	-0.024673175
189	0xbd70c265	-0.05877914
190	0x3e23d971	0.16000916
191	0xbe2c2512	-0.16811016
192	0x3da12bfb	0.07869717
193	0x3e0216e5	0.12704046
194	0x3db2ad50	0.08724463
195	0xbcbd91a4	-0.023140736
196	0xbe0230bc	-0.12713903
197	0x3d7a6ffe	0.06114196
198	0xbcc91ec9	-0.024550812
199	0x3e343e95	0.17601998
200	0x3e5b43e5	0.21412618
201	0xbda2c3bb	-0.07947489
202	0xbca0476b	-0.019565305
203	0xbe141284	-0.14460188
204	0x3e0dbc46	0.13841352
205	0xbe12b28c	-0.14325923
206	0xbdade0c8	-0.08490139
207	0xbc0d9c36	-0.008643201
208	0xbd77b48d	-0.06047492
209	0xbe6a7e86	-0.22899827
210	0xbbbcf230	-0.0057661757
211	0xbd0e36ae	-0.034720115
212	0x3dc092eb	0.094030224
213	0xbd97ed74	-0.074183375
214	0x3d429fd0	0.04751569
215	0x3d0d2505	0.034459133
216	0x3dbda996	0.092608616
217	0x3e2bdc5b	0.16783278
218	0x3e3620be	0.17785928
219	0x3d3783dd	0.04480349
220	0xbdae0c04	-0.084983855
221	0x3d836b6b	0.06416973
222	0x3dbe8c7f	0.09304141
223	0x3c1d03cb	0.009583424
224	0xbdf98380	-0.12183285
225	0xbe113223	-0.14179282
226	0x3e25d55e	0.16194674
227	0xbd6e1c5a	-0.058132507
228	0x3d03a3e4	0.03213872
229	0xbd9dffa6	-0.07714777
230	0x3df794b0	0.12088907
231	0x3c8ee904	0.017445095
232	0xbe200d16	-0.15629992
233	0xbd85dad9	-0.065358825
234	0xbd4a2223	-0.04934896
235	0xbd641148	-0.055680543
236	0xbe2d0148	-0.1689502
237	0x3d93750b	0.072000585
238	0x3dbc44f5	0.0919284
239	0xbe1ea9b1	-0.1549442
240	0x3e3128fe	0.17300794
241	0x3d3cfbe2	0.04613865
242	0xbdeb5caa	-0.11492284
243	0x3db1f1f0	0.08688724
244	0xbe535f42	-0.20641807
245	0xbc189982	-0.009313943
246	0x3d70b6d5	0.058768112
247	0x3cbedf6f	0.0232999
248	0x3c5d56b3	0.01350944
249	0xbd836342	-0.06415416
250	0x3e1fda3e	0.15610597
251	0x3d9f78bb	0.077866994
252	0x3d6b0ec4	0.05738713
253	0x3ca7906b	0.020454606
254	0x3d1df9a9	0.038568173
255	0xbddaecca	-0.10689695

rnn.weight_hh_l1 f4 [32, 32]
0	0xbd7f131e	-0.06227409
1	0xbdcdf471	-0.10056389
2	0xbc8e1181	-0.01734233
3	0x3e7c4ab1	0.24637868
4	0x3e62d08a	0.22149864
5	0x3df70c5a	0.12062903
6	0x3e1dbdef	0.15404485
7	0xbdfe6978	-0.1242246
8	0x3ca7a705	0.020465383
9	0x3e4666d5	0.19375165
10	0x3e137e5b	0.1440367
11	0xbd3571e0	-0.044298053
12	0xbe3b30ed	-0.18280382
13	0xbe05bbeb	-0.13059966
14	0xbdc43a23	-0.09581401
15	0xbd413c69	-0.047176752
16	0x3d416587	0.047215965
17	0x3d27612c	0.040864155
18	0x3d73d793	0.05953176
19	0xbbe55fb2	-0.006999933
20	0x3e1eaaa2	0.15494779
21	0xbda34989	-0.0797301
22	0xbe30e005	-0.17272957
23	0x3d5760a9	0.052582417
24	0xbe243f45	-0.1603976
25	0xbd801bda	-0.06255312
26	0x3d3cfdb1	0.046140376
27	0xbcb1ab7b	-0.021688214
28	0x3e249d9d	0.1607575
29	0x3e23bd35	0.15990146
30	0xbdea35b5	-0.11436025
31	0x3e724f11	0.23662974
32	0x3e1635ed	0.14669009
33	0x3dd2ef7d	0.10299585
34	0x3ddf5da9	0.10906536
35	0x3e0b36a0	0.13595057
36	0x3ca51527	0.020151688
37	0x3e4c6b2c	0.19962758
38	0xbe61efcd	-0.22064133
39	0xbdfd69e5	-0.123737134
40	0x3e03f816	0.12887606
41	0x3d650589	0.05591348
42	0x3e50f660	0.20406485
43	0xbd73747d	-0.059437264
44	0x3e6399d6	0.22226653
45	0x3df6a1ab	0.120425545
46	0x3d03aa0b	0.032144587
47	0x3d815ae8	0.06316167
48	0xbd253873	-0.040337037
49	0x3d2620c3	0.040558588
50	0xbdbc3d94	-0.091914326
51	0xbc578db9	-0.013156348
52	0xbd106a22	-0.035257466
53	0xbe411a76	-0.1885775
54	0x3cebf05e	0.02880114
55	0xbdb5f889	-0.08885295
56	0xbbdf3a34	-0.0068123583
57	0x3e1589be	0.14603326
58	0x3cdaad8d	0.026694084
59	0x3d132ffa	0.035934426
60	0x3e2006ff	0.15627669
61	0xbc404c25	-0.011736904
62	0x3db281ca	0.087161615
63	0xbe346892	-0.17618015
64	0x3d8b82e6	0.06812076
65	0x3da68440	0.081306934
66	0x3e57d6ee	0.21078083
67	0xbe38e457	-0.18055855
68	0xbe40a635	-0.18813403
69	0xbd58b4ed	-0.05290692
70	0xbe32a7a7	-0.17446767
71	0x3d48ec82	0.049053676
72	0xbd802d50	-0.06258643
73	0x3dbb7c6f	0.09154593
74	0xbdb595d5	-0.08866469
75	0xbba38794	-0.0049905274
76	0xbcacd61a	-0.021098185
77	0x3de8d26f	0.11368262
78	0xbd9f8963	-0.07789876
79	0xbd5a8a01	-0.053354267
80	0x3e0e9de5	0.1392742
81	0xbe194b5f	-0.14970158
82	0x3df93091	0.121674664
83	0x3e2a5f6b	0.16637962
84	0x3d064511	0.03278071
85	0xbd8ba558	-0.06818646
86	0xbc771751	-0.015081243
87	0xbe06d3af	-0.13166688
88	0xbbc5b006	-0.0060329465
89	0xbddafe45	-0.10693029
90	0xbde5c8e7	-0.1121996
91	0x3c893fb0	0.016754001
92	0xbdd07812	-0.101791516
93	0xbd7710e1	-0.06031883
94	0x3c4fa386	0.012673264
95	0xbe7ee678	-0.24892604
96	0x3d790aab	0.06080119
97	0xbd94f65e	-0.07273553
98	0xbd40a94c	-0.047036454
99	0x3dfe1f5c	0.12408325
100	0x3e647899	0.2231163
101	0x3ded2e0f	0.115810506
102	0x3e6f7d1f	0.23387574
103	0xbdca6637	-0.09882777
104	0xbdd33abc	-0.10313937
105	0x3e490b1d	0.19633146
106	0x3c62345e	0.013806431
107	0xbda80d5b	-0.08205672
108	0x3c6b379e	0.014356522
109	0xbdfdd089	-0.123932905
110	0x3de328e4	0.11091784
111	0x3e6cd4c6	0.23128042
112	0x3dddc495	0.10828511
113	0x3de69b1b	0.11260053
114	0xbdb05c68	-0.08611375
115	0x3d5ca184	0.05386497
116	0xbc002e35	-0.007823517
117	0xbcc35f75	-0.023849228
118	0xbe5157d9	-0.20443667
119	0x3c54b9d5	0.012983759
120	0xbd8b044f	-0.06787931
121	0x3e19789c	0.14987415
122	0x3decd2a9	0.11563618
123	0x3d646eac	0.055769607
124	0x3e3bcc58	0.1833967
125	0xbe04c58e	-0.12965986
126	0x3e07dffa	0.13269034
127	0x3e31c844	0.17361552
128	0xbe017388	-0.12641728
129	0xbe46f79f	-0.19430397
130	0xbe77dcc5	-0.2420531
131	0x3e0aaf01	0.13543321
132	0x3e1834f6	0.14863953
133	0x3e249b66	0.16074905
134	0x3e1e69c1	0.1547003
135	0xbc9fbe74	-0.019499995
136	0x3e1f375c	0.15548462
137	0xbd6b87d7	-0.057502594
138	0x3e00c628	0.1257559
139	0x3d03a179	0.032136414
140	0xbdaed1d1	-0.08536113
141	0x3dba3b66	0.090933606
142	0xbdf50e9e	-0.11965679
143	0xbd817110	-0.06320393
144	0xbe64a2b8	-0.22327697
145	0xbd5aa3d0	-0.05337888
146	0xbcc6fa87	-0.024289383
147	0xbe573552	-0.21016434
148	0x3e617527	0.22017346
149	0x3e37c2ed	0.17945452
150	0x3cf4474c	0.029819153
151	0x3d6d05db	0.057866912
152	0xbe40f76b	-0.18844382
153	0x3dcebfdf	0.1009519
154	0x3ce75621	0.028239312
155	0x3db43bdc	0.0880048
156	0x3de67c28	0.1125415
157	0xbddcb905	-0.10777477
158	0x3e504ce9	0.20341839
159	0x3e113925	0.14181955
160	0xbe2827d6	-0.16421446
161	0xbdb22a1d	-0.08699439
162	0xbdac9c8f	-0.08428299
163	0xbd36aa4c	-0.044596
164	0x3c3781d3	0.011200386
165	0x3cad61a6	0.021164726
166	0xbe522e19	-0.20525397
167	0x3ab458f0	0.0013759416
168	0xbda9516c	-0.08267483
169	0xbc0282a8	-0.007965721
170	0x3e3a2ca3	0.1818109
171	0x3ca290c3	0.019844418
172	0x3df5f724	0.12010029
173	0x3df707c2	0.120620266
174	0xbe44697b	-0.19180863
175	0x3d37272d	0.044715095
176	0x3dbea11e	0.093080744
177	0xbe798d65	-0.24370344
178	0xbc5230d1	-0.012829022
179	0x3ddd0a47	0.10792976
180	0xbd6979ba	-0.057000853
181	0x3da84c63	0.082176946
182	0xbd979766	-0.07401924
183	0xbd14a06b	-0.0362858
184	0x3e3084dc	0.17238182
185	0xbd5566b6	-0.052099906
186	0x3dedd5c1	0.11613036
187	0xbd8269c2	-0.06367828
188	0x3bd0afd7	0.006368618
189	0xbcc99023	-0.024604863
190	0x3db3dc4a	0.08782251
191	0x3cfbe79d	0.03075009
192	0x3bc2e8ef	0.005948178
193	0xbe375dd6	-0.1790689
194	0x3d40a228	0.047029644
195	0x3e0dd0f9	0.13849248
196	0x3dba9d42	0.09112026
197	0xbd434ab2	-0.047678657
198	0xbdafeea6	-0.085904405
199	0xbe089e08	-0.13341534
200	0xbdccb2b9	-0.09995026
201	0xbdf5aca5	-0.1199582
202	0x3db2c621	0.08729196
203	0xbdf40002	-0.11914064
204	0xbd1af44a	-0.03783063
205	0xbe2e7a74	-0.170389
206	0xbd14c9f3	-0.036325406
207	0x3d6a778c	0.057242915
208	0xbd2c53b6	-0.04207202
209	0x3d65d5b5	0.05611201
210	0xbd887a2b	-0.06663927
211	0xbddece1d	-0.10879157
212	0xbdda5aa9	-0.10661823
213	0xbbac4055	-0.0052566924
214	0xbe8b8d1b	-0.27256092
215	0xbce4fcd3	-0.027952587
216	0x3e1a4a2b	0.15067355
217	0x3e20ff8f	0.15722488
218	0x3e4295d6	0.1900247
219	0xbe07d5ee	-0.13265201
220	0x3d2ebba1	0.042659406
221	0x3dcc0265	0.09961394
222	0x3e51194c	0.20419806
223	0xbd5a78bf	-0.05333781
224	0xbd17435f	-0.036929484
225	0xbcd63cdc	-0.026152067
226	0xbd8f08e7	-0.0698412
227	0x3ded2c89	0.1158076
228	0xbe3fca61	-0.18729545
229	0xbd13735a	-0.03599868
230	0xbe41e49d	-0.18934865
231	0xbdba755e	-0.09104417
232	0x3dcd6db0	0.10030687
233	0xbc69e24e	-0.014275147
234	0xbd9b0ba0	-0.07570577
235	0xbd771283	-0.06032039
236	0x3d974d1a	0.07387753
237	0xbd53209d	-0.051544774
238	0xbd946d88	-0.07247454
239	0xbd85b5ec	-0.065288395
240	0xbd78369c	-0.060598955
241	0xbe3c79f2	-0.18405893
242	0xbd8309a0	-0.0639832
243	0x3e4fe805	0.20303352
244	0x3d390e0f	0.045179423
245	0xbe17b411	-0.14814784
246	0x3e3f8490	0.18702912
247	0x3d51020c	0.051027343
248	0xbcc2b943	-0.02376998
249	0xbd365063	-0.044510256
250	0x3d93d134	0.07217637
251	0xbdbd7e05	-0.09252552
252	0xbadef340	-0.001700975
253	0x3e17fa36	0.14841542
254	0xbdd84dad	-0.105616905
255	0x3d0bf0c7	0.03416517

rnn.bias_ih_l1 f4 [32]
0	0xbe14f09c	-0.1454491
1	0xbc90784c	-0.017635487
2	0x3dc0ac2a	0.09407838
3	0xbdd62426	-0.104561135
4	0xbdcbe97a	-0.099566415
5	0xbdb0d6c2	-0.08634712
6	0xbd88ab66	-0.06673317
7	0xbe1500b8	-0.14551055
8	0xbdfdab7b	-0.12386223
9	0x3dc02258	0.093815506
10	0xbbc7c52c	-0.0060965028
11	0x3e38f928	0.18063796
12	0x3b8c4590	0.0042807534
13	0xbe2de618	-0.16982305
14	0xbe2e6cbc	-0.17033666
15	0xbe885368	-0.26626134
16	0x3ccbbf10	0.02487138
17	0x3d0043da	0.03131471
18	0x3eaf5063	0.34241018
19	0x3d8463f7	0.06464379
20	0xbd59cfb2	-0.05317659
21	0x3e0e37a8	0.13888419
22	0xbd600bfa	-0.05469892
23	0x3d2fe48a	0.04294256
24	0x3c81d666	0.015849303
25	0xbc7f7fcc	-0.015594434
26	0xbde5d742	-0.11222698
27	0xbd4e3f26	-0.05035319
28	0x3e66c376	0.225355
29	0xbb8aface	-0.004241324
30	0xbe224818	-0.15847814
31	0xbd6347ac	-0.055488274

rnn.bias_hh_l1 f4 [32]
0	0x3da181f1	0.078861125
1	0xbc42f359	-0.011898839
2	0xbd0a2ea7	-0.033735897
3	0x3dce4229	0.10071213
4	0xbd6091a2	-0.054826386
5	0x3dea3b44	0.11437085
6	0x3e1d5bcf	0.15367053
7	0xbc791ce5	-0.015204643
8	0x3dd7d76f	0.105391376
9	0x3e62b47e	0.22139165
10	0x3d5a8585	0.05334999
11	0xbdb813c3	-0.08988144
12	0x3d19309b	0.03739987
13	0xbcfa8036	-0.030578714
14	0xbb8febc4	-0.004392119
15	0x3d5ae99a	0.053445436
16	0x3e1dec82	0.15422252
17	0xbddb674c	-0.10713062
18	0x3dfa66b8	0.12226623
19	0x3d5e19e4	0.05422391
20	0x3c3223e6	0.010872817
21	0x3e03c521	0.12868167
22	0x3de932f7	0.11386674
23	0x3e1bdbea	0.1522061
24	0x3deb5a29	0.11491806
25	0xbc9877e5	-0.018611858
26	0xbb254e36	-0.002522362
27	0x3dc2071d	0.09474013
28	0x3e6882bc	0.22706121
29	0xbe3e6a2e	-0.18595192
30	0xbd00dcc8	-0.031460553
31	0x3da3690e	0.07979022

bn.weight f4 [32]
0	0x3f4ed76c	0.8079746
1	0x3f44d475	0.76886684
2	0x3f456e1e	0.7712115
3	0x3f44a9d8	0.7682166
4	0x3f4e4c53	0.8058521
5	0x3f3909ce	0.72280586
6	0x3f50767e	0.81430805
7	0x3f5562f0	0.8335409
8	0x3f4fef1f	0.81224245
9	0x3f3f377f	0.74694055
10	0x3f4c3c9b	0.79779977
11	0x3f4360b7	0.7631945
12	0x3f400395	0.75005466
13	0x3f417724	0.7557242
14	0x3f4b1228	0.7932458
15	0x3f44b6ed	0.7684162
16	0x3f51c6eb	0.8194415
17	0x3f479132	0.77955925
18	0x3f4242cc	0.75883174
19	0x3f41f410	0.75763035
20	0x3f4ef6e6	0.8084549
21	0x3f3e23a1	0.74273115
22	0x3f4a3b72	0.78996956
23	0x3f4ee44d	0.8081711
24	0x3f4e9834	0.80700994
25	0x3f4a8004	0.79101586
26	0x3f480733	0.78135985
27	0x3f417dec	0.75582767
28	0x3f53755b	0.82600945
29	0x3f409f8f	0.7524347
30	0x3f4550be	0.7707633
31	0x3f3aa78c	0.72911906

bn.bias f4 [32]
0	0xbf3a5e1a	-0.7279984
1	0x3d439886	0.04775288
2	0xbe174e18	-0.14775884
3	0x3c102b74	0.0087994225
4	0x3de31a2a	0.11088975
5	0x3e9b03a6	0.3027622
6	0x3e063801	0.13107301
7	0xbe06fe28	-0.1318289
8	0xbe8ed315	-0.27895418
9	0x3e75ef57	0.24017082
10	0x3e950358	0.29104114
11	0x3d4c8c2d	0.04993837
12	0xbb991673	-0.0046718656
13	0xbdd7f36c	-0.10544476
14	0xbe59b6a0	-0.21261072
15	0xbde4c91d	-0.11171172
16	0x3e95614b	0.2917579
17	0x3e8fe779	0.28106287
18	0x3f27f4c1	0.6560784
19	0x3da385b8	0.07984489
20	0xbde8194e	-0.113329515
21	0x3e1e3116	0.15448412
22	0xbe0b21a1	-0.13587047
23	0x3e91f630	0.2850814
24	0x3dc9d946	0.09855895
25	0x3e341afa	0.17588416
26	0x3d9eb83c	0.07749984
27	0xbc240e58	-0.010013185
28	0x3e57b3ae	0.21064636
29	0xbeb33038	-0.34997725
30	0xbd019595	-0.031636793
31	0x3de505b6	0.1118273

bn.running_mean f4 [32]
0	0x3d4e24e3	0.050328147
1	0xbdbc11f1	-0.091831096
2	0xbd8e6254	-0.06952348
3	0x3d7ade02	0.06124688
4	0x3d93efd2	0.072234765
5	0x3d974c4b	0.073875986
6	0x3d2c31c7	0.04203966
7	0xbd9b7578	-0.07590765
8	0xbd870560	-0.06592822
9	0x3ddca2d8	0.107732475
10	0x3ea72b28	0.32650113
11	0x3da0624a	0.07831247
12	0xbd8768f4	-0.06611815
13	0xbd8fb73e	-0.070173725
14	0xbe99d600	-0.30046082
15	0xbe963372	-0.29336125
16	0xbd959cff	-0.07305335
17	0x3d78359f	0.060598012
18	0x3e891970	0.2677722
19	0xbd8d142d	-0.06888614
20	0x3d94bfca	0.07263143
21	0x3dbf6511	0.09345449
22	0xbb4537a0	-0.003009297
23	0x3dd111e0	0.102084875
24	0x3eb2e68a	0.34941512
25	0x3d6a738f	0.05723911
26	0xbe80ff08	-0.25194573
27	0x3dac791f	0.084215395
28	0x3ead97d4	0.33904898
29	0xbeba379b	-0.3637055
30	0x3d323fdf	0.043517943
31	0x3d946249	0.07245309

bn.running_var f4 [32]
0	0x3f4ecf65	0.8078521
1	0x3f0f4497	0.55964035
2	0x3f634a64	0.88785386
3	0x3f5bcc19	0.85858303
4	0x3f633605	0.887543
5	0x3ee4ccd6	0.44687527
6	0x3f3f7b68	0.7479768
7	0x3f4e690a	0.80629027
8	0x3f130e13	0.5744335
9	0x3f4ca4ef	0.7993917
10	0x3ef2f320	0.47451115
11	0x3f5339e2	0.825102
12	0x3f5dcf01	0.8664399
13	0x3f5c941c	0.86163497
14	0x3edb6c92	0.4285627
15	0x3efe81d1	0.49708417
16	0x3f661acd	0.89884645
17	0x3f53053a	0.8242985
18	0x3ed73df9	0.4203947
19	0x3f5e926d	0.8694218
20	0x3f65abc3	0.8971521
21	0x3f505ce5	0.81391746
22	0x3f42bc2f	0.76068395
23	0x3f290edf	0.66038316
24	0x3ec3d8e3	0.3825141
25	0x3f551b60	0.83244896
26	0x3ee5441e	0.44778532
27	0x3f5722a2	0.8403722
28	0x3eb72ecb	0.35777888
29	0x3ef4506f	0.47717616
30	0x3f3b563e	0.7317847
31	0x3f6520cc	0.8950317

fc.0.weight f4 [32, 32]
0	0xbd587c80	-0.052853107
1	0x3d9775ee	0.0739554
2	0x3d18a60c	0.03726773
3	0xbdf825d0	-0.12116587
4	0x3c2f4b7b	0.010699148
5	0x3d355dcf	0.044278916
6	0x3d692283	0.05691768
7	0xbd80898a	-0.062762335
8	0xbde1fe0a	-0.11034782
9	0xbe338f78	-0.17535198
10	0x3e019fbd	0.12658592
11	0x3e5f1a5a	0.21787396
12	0x3e09de74	0.13463765
13	0x3e3bbf6b	0.18334739
14	0xbdab4e57	-0.083645515
15	0x3d8c00c6	0.06836085
16	0xbe2b5e35	-0.16735156
17	0xbe03ecfc	-0.12883371
18	0xbcb703b0	-0.022340626
19	0xbe331fc3	-0.17492585
20	0xbd4930d6	-0.04911884
21	0x3da4ee07	0.080532126
22	0x3d180fc0	0.037124395
23	0xb94795fd	-0.00019033994
24	0x3c605633	0.0136924265
25	0xbe0cfeb2	-0.13769034
26	0x3d350b61	0.044200305
27	0xbd9f60f6	-0.07782166
28	0x3de3eded	0.11129365
29	0xbe0ea163	-0.13928752
30	0x3d674a17	0.056467142
31	0x3cb71067	0.022346688
32	0xbdb78138	-0.089601934
33	0xbddeac57	-0.10872715
34	0x3d511997	0.051049795
35	0xbd04994d	-0.03237276
36	0x3d9ee63f	0.0775876
37	0x3dd37fbe	0.10327099
38	0x3dcbfe2e	0.0996059
39	0xbbb979a4	-0.0056602526
40	0xbd0c0dec	-0.034192964
41	0xbe0379ef	-0.12839483
42	0x3dedf0ae	0.11618172
43	0xbd0d5850	-0.03450805
44	0xbd86f62a	-0.06589921
45	0x3e561ba8	0.20908988
46	0xbdf4a4e9	-0.119455166
47	0xbdf6bdf8	-0.120479524
48	0xbd1fb9fd	-0.03899573
49	0xbe405164	-0.18781048
50	0xbe6ce913	-0.23135786
51	0x3ca8488f	0.020542411
52	0x3ccbea81	0.024892094
53	0x3dbc9f14	0.09210029
54	0xbc4dcd64	-0.012561176
55	0xbdb9985b	-0.090622626
56	0x3dabab78	0.083823144
57	0x3d2e6efd	0.042586315
58	0xbd0af09f	-0.03392088
59	0x3df2b0db	0.11850139
60	0xbdb22338	-0.08698124
61	0x3cc00916	0.023441833
62	0xbaeb6594	-0.001795935
63	0x3df17572	0.11789979
64	0xbd8e2979	-0.06941504
65	0xbd1cb522	-0.03825868
66	0xbdea5f8e	-0.11444007
67	0x3cf96b56	0.03044669
68	0xbe32c006	-0.17456064
69	0xbd0dedd2	-0.03465063
70	0xbe3e9b52	-0.18613937
71	0xbd388343	-0.045047056
72	0xbd2eae84	-0.0426469
73	0xbd84ee03	-0.0649071
74	0x3dc3fb88	0.0956946
75	0xbcb727fa	-0.02235793
76	0x3e21f139	0.15814675
77	0xbdd7be77	-0.10534375
78	0xbe09b6db	-0.1344866
79	0xbc3a4278	-0.011368386
80	0xbd07fa00	-0.033197403
81	0x3c16bea0	0.009200722
82	0x3da03fd3	0.078246735
83	0x3ba4a523	0.0050245686
84	0xbd293549	-0.041310582
85	0xbdffc36d	-0.124884464
86	0x3deaddd3	0.11468091
87	0x3d9e0559	0.07715864
88	0x3dc669ff	0.09688186
89	0x3dcbf41a	0.09958668
90	0x3d378111	0.04480082
91	0x3dfbc943	0.12294247
92	0xbc048a54	-0.008089621
93	0x3db5b8b9	0.08873124
94	0x3d3dd5a9	0.04634634
95	0x3926523a	0.00015861625
96	0xbd418cbe	-0.047253363
97	0xbcd72c84	-0.026266344
98	0xbda1c569	-0.07898981
99	0x3d903167	0.07040673
100	0xbdf235f5	-0.11826698
101	0x3ddf8ea2	0.10915877
102	0x3cfccc7e	0.030859228
103	0xbd1d7546	-0.03844192
104	0x3dff16d3	0.12455525
105	0x3e3c5cd6	0.18394789
106	0xbd8ef25b	-0.069798194
107	0x3de519ef	0.11186587
108	0xbdfe4976	-0.12416355
109	0x3ca04020	0.019561827
110	0x3dc867aa	0.09785397
111	0xbdf1b466	-0.118019864
112	0xbd4de8b6	-0.05027076
113	0x3e0f3720	0.13985872
114	0x3e20bccd	0.15697022
115	0xbd88e5c7	-0.066844516
116	0x3d84883e	0.06471299
117	0xbd7496fa	-0.059714295
118	0xbe1a7e02	-0.1508713
119	0xbda83275	-0.08212749
120	0x3dd986d4	0.106214195
121	0xbe114ec9	-0.1419021
122	0x3df69966	0.12040977
123	0xbcd89449	-0.026437895
124	0xbdfbe30d	-0.12299166
125	0x3d8bdb43	0.0682893
126	0xbded9fcc	-0.116027445
127	0xbdc6b30e	-0.09702121
128	0x3e5d4ba5	0.21610887
129	0xbd8f16ca	-0.069867685
130	0x3e18100b	0.1484987
131	0x3c65685c	0.014001932
132	0x3ccdcd17	0.025122209
133	0xbe33dc73	-0.17564563
134	0x3d84ba91	0.06480897
135	0xbda4d64c	-0.080486864
136	0xbc0f55de	-0.0087485
137	0xbe40d1a6	-0.18829975
138	0xbdd379bf	-0.103259556
139	0xbe4eabf7	-0.20182787
140	0xbdb6547a	-0.089028314
141	0x3cbbb9cf	0.022915749
142	0x3e0a5a07	0.13510905
143	0x3e24be1c	0.16088146
144	0x3db9de1b	0.090755664
145	0xbdb47c44	-0.08812764
146	0xbd406d05	-0.04697897
147	0x3d0cbebf	0.034361597
148	0xbd867897	-0.065659694
149	0xbd6a687b	-0.057228547
150	0xbc37294d	-0.0111792805
151	0x3d1b777f	0.037955757
152	0xbc856199	-0.01628189
153	0x3cd6189d	0.026134783
154	0xbdc5db55	-0.09660975
155	0xbd43a9ce	-0.04776936
156	0x3dd21e20	0.10259652
157	0xbd8691dd	-0.0657079
158	0x3e02c827	0.12771665
159	0xbbf22312	-0.0073894346
160	0x3e8bb0d7	0.27283356
161	0x3d249f18	0.040190786
162	0xbd03b363	-0.0321535
163	0x3c4746e0	0.012162894
164	0xbd4f3322	-0.050585873
165	0xbdf6a0f8	-0.12042421
166	0x3c81312f	0.015770523
167	0x3d65fc18	0.05614862
168	0x3e2a2302	0.16614917
169	0x3cc854fd	0.024454588
170	0xbe03313d	-0.12811752
171	0xbe324603	-0.1740952
172	0x3da60c99	0.081078716
173	0x3cc108d4	0.02356378
174	0xbd5912bd	-0.052996386
175	0x3de7b380	0.11313534
176	0xbd46e97e	-0.04856252
177	0xbe13a32c	-0.14417714
178	0xbd33da51	-0.043909375
179	0x3e47aad6	0.19498762
180	0xbdaec1cd	-0.08533058
181	0xbe178d72	-0.14800051
182	0x3e33bb41	0.175519
183	0xbc5654ba	-0.013081724
184	0xbe056e1d	-0.13030286
185	0xbd25edf1	-0.04051012
186	0xbe22e979	-0.15909375
187	0xbdc074bc	-0.09397265
188	0xbca4deec	-0.020125829
189	0x3dcb5902	0.09929086
190	0xbc07b430	-0.008282706
191	0x3d95aeb5	0.07308713
192	0xbec86b1a	-0.39144212
193	0xbe22e5ad	-0.15907927
194	0x3d632087	0.055450942
195	0x3c4981e2	0.012299033
196	0x3e0836c7	0.13302146
197	0xbe060403	-0.13087468
198	0xbd335be2	-0.0437888
199	0x3d52bf8d	0.05145221
200	0xbd78a366	-0.060702704
201	0xbdef4ae7	-0.11684208
202	0x3dc4adf8	0.096034944
203	0x3dc0c0fa	0.09411807
204	0xbd39d689	-0.045370612
205	0x3e2127da	0.15737858
206	0x3e238141	0.15967275
207	0x3d4acbe6	0.04951086
208	0xbc98ec46	-0.018667351
209	0x3e1a8652	0.15090302
210	0x3d8cb167	0.06869774
211	0xbe1a94d9	-0.15095843
212	0x3e08382d	0.1330268
213	0x3db67c59	0.08910436
214	0x3ceaf2c9	0.028680222
215	0x3cacddfc	0.021101944
216	0x3e0a6f5b	0.13519041
217	0x3c348e78	0.011020295
218	0xbdf748e2	-0.12074448
219	0x3c3feff3	0.011714923
220	0x3da58ff3	0.08084097
221	0x3dd80bf7	0.10549157
222	0xbe1e3ae8	-0.15452158
223	0xbcc0ebdd	-0.023549968
224	0x3d46e4cf	0.048558053
225	0xbe257eda	-0.16161671
226	0xbdbaff26	-0.09130697
227	0xbcdfee96	-0.027335446
228	0xbdaf2111	-0.08551229
229	0x3d579c03	0.05263902
230	0x3e0a2044	0.13488871
231	0x3e380b75	0.1797312
232	0xbdd66634	-0.104687124
233	0xbdcb7138	-0.09933704
234	0x3e36da41	0.17856695
235	0xbdcaf692	-0.09910311
236	0xbdd84c72	-0.10561456
237	0x3dab0a42	0.08351566
238	0xbe073ac9	-0.13206019
239	0xbe27ed80	-0.16399193
240	0x3e095d37	0.13414465
241	0xbe04c678	-0.12966335
242	0x3e030e9a	0.12798539
243	0xbc4c8d1d	-0.012484816
244	0xbdf4f491	-0.1196071
245	0x3e0b4eed	0.13604327
246	0xbdb6e585	-0.08930496
247	0x3a91442e	0.0011082941
248	0xbe24a41d	-0.16078229
249	0x3e461c16	0.19346651
250	0xbc5ab4c2	-0.01334876
251	0x3d9fdf68	0.07806283
252	0x3dcdcaf3	0.10048475
253	0xbd359296	-0.04432925
254	0x3e2fc3fb	0.17164604
255	0x3d1366fc	0.035986885

fc.0.bias f4 [32]
0	0x3f60eff0	0.87866116
1	0x3f5ec360	0.8701687
2	0x3f3d5aaa	0.7396647
3	0x3f1e43f4	0.6182244
4	0x3f7c8725	0.98643714
5	0x3f1b273a	0.6060673
6	0x3ee7a457	0.4524257
7	0x3f104ccd	0.5636719
8	0x3f507856	0.8143362
9	0x3f5287b6	0.8223833
10	0x3f381906	0.7191318
11	0x3f04289c	0.51624465
12	0x3f0cc963	0.5499479
13	0x3f4df8a6	0.8045753
14	0x3eed8a96	0.46394795
15	0x3eb8702c	0.3602308
16	0x3ed7a402	0.42117316
17	0x3f521009	0.8205572
18	0x3f8f059f	1.117359
19	0x3edd2e0b	0.4319919
20	0x3ee43afd	0.44576254
21	0x3eb35efa	0.350334
22	0x3f4bffab	0.79686993
23	0x3ed72977	0.42023823
24	0x3f5afc9d	0.8554171
25	0x3f613b87	0.87981457
26	0x3f2aeb17	0.6676497
27	0x3efa0363	0.4883071
28	0x3f503064	0.8132384
29	0x3f537c63	0.82611674
30	0x3f30a08d	0.6899498
31	0x3f4c1829	0.79724365

fc.3.weight f4 [72, 32]
0	0x3e0f62e7	0.14002572
1	0x3e1ebdf4	0.15502149
2	0x3e0999c0	0.13437557
3	0x3dbc23fd	0.09186552
4	0x3dd74952	0.105120316
5	0x3d71fa3c	0.059076533
6	0x3d9f2b32	0.07771911
7	0x3dfe72fb	0.124242745
8	0x3e04b325	0.12958963
9	0x3e0a026b	0.13477485
10	0x3dcc5fcd	0.0997921
11	0x3e038eeb	0.12847488
12	0x3d9fa90d	0.07795916
13	0x3db20a34	0.08693352
14	0x3d821f24	0.06353596
15	0x3d4def66	0.050277136
16	0x3dc6033e	0.09668587
17	0x3de8044c	0.113289446
18	0x3ddf6b06	0.10909085
19	0x3dab3f92	0.083617344
20	0x3dc7cdc1	0.09756041
21	0x3d56259f	0.052281972
22	0x3e46721a	0.19379464
23	0x3bfdfa98	0.0077508204
24	0x3d820ca6	0.06350069
25	0x3df57d19	0.11986751
26	0x3de12618	0.10993594
27	0x3daf8da4	0.08571938
28	0x3e10e796	0.14150843
29	0x3e031bd2	0.12803581
30	0x3cd03327	0.025415016
31	0x3d77ca97	0.06049594
32	0x3e4d1332	0.20026854
33	0x3e64e483	0.22352795
34	0x3e5d2dfc	0.21599573
35	0x3e514cb7	0.2043942
36	0x3e931655	0.28727975
37	0x3e31d9cf	0.17368244
38	0x3e2c77ec	0.16842622
39	0x3e39f638	0.18160331
40	0x3e7287c3	0.23684601
41	0x3e736a41	0.23771001
42	0x3e5186c8	0.20461571
43	0x3e26a4c4	0.1627379
44	0x3e41ee5d	0.18938585
45	0x3e59de54	0.21276218
46	0x3e143fd7	0.14477478
47	0x3e118ea0	0.14214563
48	0x3e1616a1	0.1465707
49	0x3e702701	0.23452379
50	0x3e95717f	0.29188153
51	0x3dfa9c40	0.122368336
52	0x3e159dd3	0.14610986
53	0x3e085913	0.13315229
54	0x3e7cfd4c	0.24706
55	0x3ddf85df	0.10914206
56	0x3e5b6c52	0.2142804
57	0x3e177ee6	0.14794502
58	0x3e38aa5f	0.18033741
59	0x3e21122e	0.15729591
60	0x3e53695a	0.20645657
61	0x3e4b4988	0.19852269
62	0x3e37673f	0.17910479
63	0x3e525426	0.20539913
64	0x3d8180ff	0.06323432
65	0x3da99bd6	0.082816765
66	0x3d9095ff	0.070598595
67	0x3de4ff5a	0.11181517
68	0x3e472f2a	0.19451585
69	0x3dd0dfbe	0.101989254
70	0x3dc81918	0.09770411
71	0x3d5ad28f	0.05342346
72	0x3d9ac700	0.075574875
73	0x3df17041	0.11788989
74	0x3dd67e66	0.10473327
75	0x3d020365	0.03174152
76	0x3dfa62db	0.122258864
77	0x3deb935f	0.11502718
78	0x3da7d1d4	0.081943184
79	0x3dc4465d	0.09583733
80	0x3cf2fa70	0.029660434
81	0x3e096289	0.13416494
82	0x3e435869	0.19076695
83	0x3d7184f9	0.058964703
84	0x3d23c57a	0.03998325
85	0x3d9e7966	0.07737999
86	0x3d7a369b	0.061087232
87	0x3e3e92b4	0.1861065
88	0x3e4534b1	0.19258381
89	0x3d229d0c	0.039700553
90	0x3d8a7905	0.06761364
91	0x3d874aea	0.066060856
92	0x3d5344ae	0.05157917
93	0x3d9ec2df	0.077520125
94	0x3e1895bc	0.14900869
95	0x3e1b187c	0.15146059
96	0x3e173bbe	0.14768884
97	0x3e265418	0.16243017
98	0x3e0dee44	0.13860422
99	0x3db377bd	0.08763073
100	0x3de8d3e9	0.11368544
101	0x3d8c352d	0.0684608
102	0x3d960840	0.07325792
103	0x3dfd47d7	0.12367218
104	0x3e0cf396	0.13764796
105	0x3e0f0771	0.13967682
106	0x3dda93c3	0.106727146
107	0x3e023d75	0.12718756
108	0x3dad0d3a	0.084497884
109	0x3dc3488e	0.09535323
110	0x3d80bd07	0.06286054
111	0x3d5ff014	0.054672316
112	0x3dbb3d32	0.091425315
113	0x3defd5ec	0.11710724
114	0x3df1f698	0.11814612
115	0x3dbb8884	0.09156898
116	0x3dc95595	0.098307766
117	0x3d60f5d5	0.054921944
118	0x3e47a159	0.19495143
119	0x3c51fbe3	0.012816402
120	0x3d99f81f	0.075180285
121	0x3df0d077	0.117585115
122	0x3de6affa	0.112640336
123	0x3da47a1f	0.08031105
124	0x3e12430e	0.14283392
125	0x3e0a7aeb	0.13523452
126	0x3ce5f3b8	0.028070316
127	0x3d8a49f5	0.067523874
128	0x3e535d8a	0.20641151
129	0x3e772cdb	0.24138205
130	0x3e6b5fe0	0.22985792
131	0x3e5920a5	0.21203859
132	0x3e9bb9ab	0.3041509
133	0x3e3287f0	0.17434669
134	0x3e366f9c	0.17816013
135	0x3e46593c	0.19369978
136	0x3e792be0	0.24333143
137	0x3e82f9d3	0.25581226
138	0x3e4c56ed	0.19955035
139	0x3e2d91ff	0.16950224
140	0x3e4005a6	0.18752155
141	0x3e707733	0.23482971
142	0x3e0d9369	0.13825764
143	0x3e16b528	0.14717543
144	0x3e293a71	0.165262
145	0x3e809fc5	0.25121894
146	0x3e9cfd7c	0.30662143
147	0x3e0cef33	0.13763122
148	0x3e0e2f73	0.13885288
149	0x3e0aecf4	0.13566953
150	0x3e85c75d	0.26128665
151	0x3e1d690d	0.15372105
152	0x3e73e8ba	0.23819247
153	0x3e20ae3b	0.15691464
154	0x3e43b72f	0.19112848
155	0x3e296e2b	0.16545932
156	0x3e529857	0.20565926
157	0x3e588c53	0.2114728
158	0x3e3ca36e	0.18421718
159	0x3e5a89b1	0.21341588
160	0x3d8aa107	0.06768995
161	0x3da382db	0.07983943
162	0x3d9052cf	0.070470445
163	0x3de56df9	0.11202616
164	0x3e51a43d	0.20472808
165	0x3dcc0a42	0.09962894
166	0x3dce31e3	0.10068109
167	0x3d49b4ae	0.049244575
168	0x3d9e48d9	0.07728738
169	0x3dede707	0.116163306
170	0x3dd8291a	0.105547145
171	0x3d039544	0.032124773
172	0x3dfcaf7f	0.12338161
173	0x3df03cf0	0.11730373
174	0x3daef996	0.085436985
175	0x3dd3cf77	0.10342305
176	0x3ca10078	0.019653544
177	0x3e119fc9	0.1422111
178	0x3e46e581	0.19423486
179	0x3d5f0892	0.054451533
180	0x3d2a3810	0.04155737
181	0x3da72fe3	0.081634305
182	0x3d6b06a1	0.05737937
183	0x3e48459b	0.19557802
184	0x3e3ab62f	0.1823356
185	0x3d248b25	0.04017176
186	0x3d9fe2de	0.07806943
187	0x3d866a1b	0.06563207
188	0x3d5d96c1	0.05409885
189	0x3da1f3a8	0.07907802
190	0x3e133755	0.14376576
191	0x3e18c8db	0.1492037
192	0x3e18155c	0.14851898
193	0x3e24c094	0.16089088
194	0x3e05fd4b	0.13084905
195	0x3daf72e1	0.08566833
196	0x3de6127d	0.11233995
197	0x3d735668	0.059408575
198	0x3d90a5b1	0.07062853
199	0x3e03f2da	0.1288561
200	0x3e099c14	0.13438445
201	0x3e0a953d	0.13533492
202	0x3dcce060	0.10003734
203	0x3e0a0400	0.13478088
204	0x3d94a69b	0.0725834
205	0x3dc887fc	0.09791562
206	0x3d7f36d6	0.062308155
207	0x3d79057d	0.06079625
208	0x3db0cc44	0.086327106
209	0x3deed6f5	0.116620935
210	0x3de8f98f	0.113757245
211	0x3db54993	0.08851924
212	0x3dcdc926	0.10048132
213	0x3d59b7b0	0.053153694
214	0x3e44c642	0.19216254
215	0x3c9ec8f2	0.019382928
216	0x3d8b2ee8	0.06796056
217	0x3debc7fe	0.11512755
218	0x3dcc6e69	0.099819966
219	0x3daf7c8f	0.085686795
220	0x3e122cfe	0.14274976
221	0x3e06e463	0.1317306
222	0x3cb5fdad	0.022215689
223	0x3d8423a0	0.064521074
224	0x3e5c8250	0.21534085
225	0x3e79a2dc	0.24378532
226	0x3e582f6d	0.21111841
227	0x3e5d785c	0.21627945
228	0x3e9ccac1	0.3062344
229	0x3e38e948	0.1805774
230	0x3e3b1d6a	0.1827294
231	0x3e49e9bc	0.19718069
232	0x3e72302a	0.23651186
233	0x3e83d7a2	0.25750452
234	0x3e643493	0.2228568
235	0x3e2bc7ee	0.16775486
236	0x3e39ee5d	0.18157335
237	0x3e65817e	0.22412679
238	0x3e1ec8de	0.15506312
239	0x3e1af4e4	0.15132481
240	0x3e1d75e6	0.15377006
241	0x3e6353a3	0.22199874
242	0x3ea27565	0.3173019
243	0x3e059df2	0.13048533
244	0x3e1f1832	0.15536574
245	0x3e140f51	0.14458968
246	0x3e84c436	0.25930947
247	0x3e0a9090	0.13531709
248	0x3e7dadfa	0.24773398
249	0x3e240ec9	0.16021265
250	0x3e480957	0.19534813
251	0x3e2e6c10	0.1703341
252	0x3e536313	0.20643263
253	0x3e503bb5	0.20335276
254	0x3e3b2593	0.18276052
255	0x3e570319	0.20997275

fc.3.bias f4 [72]
0	0x3f7a0994	0.97670865
1	0x3fbf57c9	1.4948665
2	0x3fa813c6	1.3131034
3	0x3f64282d	0.89123803
4	0x3f9ddd98	1.233325
5	0x3fa6af2e	1.3022211
6	0x3f6ee540	0.9331856
7	0x3f9b0134	1.2109742
8	0x3f94038c	1.1563582
9	0x3f727760	0.947134
10	0x3fbb20f5	1.4619433
11	0x3fa902e1	1.3204004
12	0x3f8e8743	1.1135029
13	0x3fb7373b	1.431373
14	0x3f881e2f	1.0634211
15	0x3f78eb94	0.97234464
16	0x3fb1cf79	1.3891441
17	0x3f9f5b3c	1.2449718
18	0x3f87bfbd	1.0605389
19	0x3fbb8fca	1.4653256
20	0x3f900053	1.1250099
21	0x3f690682	0.91025555
22	0x3fbafb15	1.4607874
23	0x3fa1ec4d	1.2650238
24	0x3f74cc05	0.9562381
25	0x3f9e67ff	1.2375487
26	0x3f878026	1.0585983
27	0x3f8ca31d	1.0987278
28	0x3fa27c21	1.2694131
29	0x3f99a7b6	1.2004306
30	0x3f8d488d	1.1037766
31	0x3fab1321	1.3365213
32	0x3f85433c	1.0411143
33	0x3f8bffa7	1.0937394
34	0x3fc55fec	1.5419898
35	0x3f81814e	1.0117586
36	0x3f9392f0	1.1529217
37	0x3fb18405	1.3868414
38	0x3fa291de	1.2700765
39	0x3f8ecc82	1.1156161
40	0x3fbe1c84	1.4852452
41	0x3fa116f3	1.2585129
42	0x3f813f1f	1.0097388
43	0x3fbdca85	1.4827429
44	0x3fa730c3	1.3061756
45	0x3f6c353b	0.92268723
46	0x3fbea57e	1.4894254
47	0x3f9be356	1.2178752
48	0x3f78a902	0.97132885
49	0x3fbffac0	1.4998398
50	0x3f926ae2	1.1438868
51	0x3f834e5f	1.0258292
52	0x3fa7f54f	1.3121737
53	0x3f8d29eb	1.1028417
54	0x3f955013	1.1665062
55	0x3fbef1fb	1.4917597
56	0x3f95f6b5	1.1715914
57	0x3f812ba9	1.0091449
58	0x3fb83a21	1.439274
59	0x3f9a41e3	1.2051357
60	0x3f8cb786	1.0993507
61	0x3fa08a8c	1.2542281
62	0x3fa69410	1.3013935
63	0x3f61f2e4	0.88261247
64	0x3fa6bf97	1.3027219
65	0x3fa6757f	1.3004607
66	0x3f8b6bb6	1.0892246
67	0x3fba755f	1.4567069
68	0x3f8cbf69	1.0995914
69	0x3f8cd8aa	1.1003621
70	0x3fa3a4a3	1.2784618
71	0x3f945823	1.1589397
